<?xml version="1.0" ?>
<net name="torch-jit-export" version="11">
	<layers>
		<layer id="8" name="image" type="Parameter" version="opset1">
			<data shape="1,3,640,640" element_type="f32"/>
			<rt_info>
				<attribute name="old_api_map_element_type" version="0" value="f16"/>
			</rt_info>
			<output>
				<port id="0" precision="FP32" names="image">
					<dim>1</dim>
					<dim>3</dim>
					<dim>640</dim>
					<dim>640</dim>
					<rt_info>
						<attribute name="layout" version="0" layout="[N,C,H,W]"/>
					</rt_info>
				</port>
			</output>
		</layer>
		<layer id="0" name="250832508772994" type="Const" version="opset1">
			<data offset="0" size="4" shape="" element_type="f32"/>
			<output>
				<port id="0" precision="FP32"/>
			</output>
		</layer>
		<layer id="1" name="250842508872271" type="Const" version="opset1">
			<data offset="4" size="4" shape="" element_type="f32"/>
			<output>
				<port id="0" precision="FP32"/>
			</output>
		</layer>
		<layer id="2" name="250852508971635" type="Const" version="opset1">
			<data offset="0" size="4" shape="" element_type="f32"/>
			<output>
				<port id="0" precision="FP32"/>
			</output>
		</layer>
		<layer id="3" name="250862509074752" type="Const" version="opset1">
			<data offset="4" size="4" shape="" element_type="f32"/>
			<output>
				<port id="0" precision="FP32"/>
			</output>
		</layer>
		<layer id="4" name="189061891070075" type="Const" version="opset1">
			<data offset="8" size="4" shape="" element_type="f32"/>
			<output>
				<port id="0" precision="FP32"/>
			</output>
		</layer>
		<layer id="5" name="189071891167822" type="Const" version="opset1">
			<data offset="12" size="4" shape="" element_type="f32"/>
			<output>
				<port id="0" precision="FP32"/>
			</output>
		</layer>
		<layer id="6" name="189081891267354" type="Const" version="opset1">
			<data offset="8" size="4" shape="" element_type="f32"/>
			<output>
				<port id="0" precision="FP32"/>
			</output>
		</layer>
		<layer id="7" name="189091891371311" type="Const" version="opset1">
			<data offset="12" size="4" shape="" element_type="f32"/>
			<output>
				<port id="0" precision="FP32"/>
			</output>
		</layer>
		<layer id="9" name="Gather_77905378268482" type="Const" version="opset1">
			<data offset="16" size="6" shape="1,3,1,1" element_type="f16"/>
			<output>
				<port id="0" precision="FP16">
					<dim>1</dim>
					<dim>3</dim>
					<dim>1</dim>
					<dim>1</dim>
				</port>
			</output>
		</layer>
		<layer id="10" name="Gather_77905378239744/restored_convert" type="Convert" version="opset1">
			<data destination_type="f32"/>
			<rt_info>
				<attribute name="decompression" version="0"/>
			</rt_info>
			<input>
				<port id="0">
					<dim>1</dim>
					<dim>3</dim>
					<dim>1</dim>
					<dim>1</dim>
				</port>
			</input>
			<output>
				<port id="1" precision="FP32">
					<dim>1</dim>
					<dim>3</dim>
					<dim>1</dim>
					<dim>1</dim>
				</port>
			</output>
		</layer>
		<layer id="11" name="Subtract_9809" type="Subtract" version="opset1">
			<data auto_broadcast="numpy"/>
			<rt_info>
				<attribute name="preprocessing" version="0"/>
			</rt_info>
			<input>
				<port id="0">
					<dim>1</dim>
					<dim>3</dim>
					<dim>640</dim>
					<dim>640</dim>
				</port>
				<port id="1">
					<dim>1</dim>
					<dim>3</dim>
					<dim>1</dim>
					<dim>1</dim>
				</port>
			</input>
			<output>
				<port id="2" precision="FP32">
					<dim>1</dim>
					<dim>3</dim>
					<dim>640</dim>
					<dim>640</dim>
				</port>
			</output>
		</layer>
		<layer id="12" name="Gather_77908378571686" type="Const" version="opset1">
			<data offset="22" size="6" shape="1,3,1,1" element_type="f16"/>
			<output>
				<port id="0" precision="FP16">
					<dim>1</dim>
					<dim>3</dim>
					<dim>1</dim>
					<dim>1</dim>
				</port>
			</output>
		</layer>
		<layer id="13" name="Gather_77908378539745/restored_convert" type="Convert" version="opset1">
			<data destination_type="f32"/>
			<rt_info>
				<attribute name="decompression" version="0"/>
			</rt_info>
			<input>
				<port id="0">
					<dim>1</dim>
					<dim>3</dim>
					<dim>1</dim>
					<dim>1</dim>
				</port>
			</input>
			<output>
				<port id="1" precision="FP32">
					<dim>1</dim>
					<dim>3</dim>
					<dim>1</dim>
					<dim>1</dim>
				</port>
			</output>
		</layer>
		<layer id="14" name="Divide_9811" type="Multiply" version="opset1">
			<data auto_broadcast="numpy"/>
			<rt_info>
				<attribute name="preprocessing" version="0"/>
			</rt_info>
			<input>
				<port id="0">
					<dim>1</dim>
					<dim>3</dim>
					<dim>640</dim>
					<dim>640</dim>
				</port>
				<port id="1">
					<dim>1</dim>
					<dim>3</dim>
					<dim>1</dim>
					<dim>1</dim>
				</port>
			</input>
			<output>
				<port id="2" precision="FP32">
					<dim>1</dim>
					<dim>3</dim>
					<dim>640</dim>
					<dim>640</dim>
				</port>
			</output>
		</layer>
		<layer id="15" name="Multiply_71419/fq_input_0" type="FakeQuantize" version="opset1">
			<data levels="256" auto_broadcast="numpy"/>
			<input>
				<port id="0">
					<dim>1</dim>
					<dim>3</dim>
					<dim>640</dim>
					<dim>640</dim>
				</port>
				<port id="1"/>
				<port id="2"/>
				<port id="3"/>
				<port id="4"/>
			</input>
			<output>
				<port id="5" precision="FP32">
					<dim>1</dim>
					<dim>3</dim>
					<dim>640</dim>
					<dim>640</dim>
				</port>
			</output>
		</layer>
		<layer id="16" name="Multiply_71419/fq_weights_1/scale4627268107" type="Const" version="opset1">
			<data offset="28" size="256" shape="64,1,1,1" element_type="f32"/>
			<output>
				<port id="0" precision="FP32">
					<dim>64</dim>
					<dim>1</dim>
					<dim>1</dim>
					<dim>1</dim>
				</port>
			</output>
		</layer>
		<layer id="17" name="Gather_77911378839746/restored_convert/quantized4626470285" type="Const" version="opset1">
			<data offset="284" size="9408" shape="64,3,7,7" element_type="i8"/>
			<output>
				<port id="0" precision="I8">
					<dim>64</dim>
					<dim>3</dim>
					<dim>7</dim>
					<dim>7</dim>
				</port>
			</output>
		</layer>
		<layer id="18" name="Gather_77911378839746/restored_convert/quantized/to_f32" type="Convert" version="opset1">
			<data destination_type="f32"/>
			<input>
				<port id="0">
					<dim>64</dim>
					<dim>3</dim>
					<dim>7</dim>
					<dim>7</dim>
				</port>
			</input>
			<output>
				<port id="1" precision="FP32">
					<dim>64</dim>
					<dim>3</dim>
					<dim>7</dim>
					<dim>7</dim>
				</port>
			</output>
		</layer>
		<layer id="19" name="Multiply_71419/fq_weights_1/mulpiply_by_scale" type="Multiply" version="opset1">
			<data auto_broadcast="numpy"/>
			<input>
				<port id="0">
					<dim>64</dim>
					<dim>3</dim>
					<dim>7</dim>
					<dim>7</dim>
				</port>
				<port id="1">
					<dim>64</dim>
					<dim>1</dim>
					<dim>1</dim>
					<dim>1</dim>
				</port>
			</input>
			<output>
				<port id="2" precision="FP32">
					<dim>64</dim>
					<dim>3</dim>
					<dim>7</dim>
					<dim>7</dim>
				</port>
			</output>
		</layer>
		<layer id="20" name="Multiply_71419" type="Convolution" version="opset1">
			<data auto_pad="explicit" strides="2,2" dilations="1,1" pads_begin="3,3" pads_end="3,3"/>
			<rt_info>
				<attribute name="preprocessing" version="0"/>
			</rt_info>
			<input>
				<port id="0">
					<dim>1</dim>
					<dim>3</dim>
					<dim>640</dim>
					<dim>640</dim>
				</port>
				<port id="1">
					<dim>64</dim>
					<dim>3</dim>
					<dim>7</dim>
					<dim>7</dim>
				</port>
			</input>
			<output>
				<port id="2" precision="FP32">
					<dim>1</dim>
					<dim>64</dim>
					<dim>320</dim>
					<dim>320</dim>
				</port>
			</output>
		</layer>
		<layer id="21" name="Constant_71424379172085" type="Const" version="opset1">
			<data offset="9692" size="128" shape="1,64,1,1" element_type="f16"/>
			<output>
				<port id="0" precision="FP16">
					<dim>1</dim>
					<dim>64</dim>
					<dim>1</dim>
					<dim>1</dim>
				</port>
			</output>
		</layer>
		<layer id="22" name="Constant_71424379139747/restored_convert" type="Convert" version="opset1">
			<data destination_type="f32"/>
			<rt_info>
				<attribute name="decompression" version="0"/>
			</rt_info>
			<input>
				<port id="0">
					<dim>1</dim>
					<dim>64</dim>
					<dim>1</dim>
					<dim>1</dim>
				</port>
			</input>
			<output>
				<port id="1" precision="FP32">
					<dim>1</dim>
					<dim>64</dim>
					<dim>1</dim>
					<dim>1</dim>
				</port>
			</output>
		</layer>
		<layer id="23" name="BatchNormalization_7" type="Add" version="opset1">
			<data auto_broadcast="numpy"/>
			<input>
				<port id="0">
					<dim>1</dim>
					<dim>64</dim>
					<dim>320</dim>
					<dim>320</dim>
				</port>
				<port id="1">
					<dim>1</dim>
					<dim>64</dim>
					<dim>1</dim>
					<dim>1</dim>
				</port>
			</input>
			<output>
				<port id="2" precision="FP32" names="1021">
					<dim>1</dim>
					<dim>64</dim>
					<dim>320</dim>
					<dim>320</dim>
				</port>
			</output>
		</layer>
		<layer id="24" name="Relu_8" type="ReLU" version="opset1">
			<input>
				<port id="0">
					<dim>1</dim>
					<dim>64</dim>
					<dim>320</dim>
					<dim>320</dim>
				</port>
			</input>
			<output>
				<port id="1" precision="FP32" names="1022">
					<dim>1</dim>
					<dim>64</dim>
					<dim>320</dim>
					<dim>320</dim>
				</port>
			</output>
		</layer>
		<layer id="25" name="MaxPool_9/fq_input_0" type="FakeQuantize" version="opset1">
			<data levels="256" auto_broadcast="numpy"/>
			<input>
				<port id="0">
					<dim>1</dim>
					<dim>64</dim>
					<dim>320</dim>
					<dim>320</dim>
				</port>
				<port id="1"/>
				<port id="2"/>
				<port id="3"/>
				<port id="4"/>
			</input>
			<output>
				<port id="5" precision="FP32">
					<dim>1</dim>
					<dim>64</dim>
					<dim>320</dim>
					<dim>320</dim>
				</port>
			</output>
		</layer>
		<layer id="26" name="MaxPool_9" type="MaxPool" version="opset8">
			<data strides="2,2" kernel="3,3" pads_begin="1,1" pads_end="1,1" rounding_type="floor" auto_pad="explicit" dilations="1,1" axis="0" index_element_type="i64"/>
			<input>
				<port id="0">
					<dim>1</dim>
					<dim>64</dim>
					<dim>320</dim>
					<dim>320</dim>
				</port>
			</input>
			<output>
				<port id="1" precision="FP32" names="1023">
					<dim>1</dim>
					<dim>64</dim>
					<dim>160</dim>
					<dim>160</dim>
				</port>
				<port id="2" precision="FP32">
					<dim>1</dim>
					<dim>64</dim>
					<dim>160</dim>
					<dim>160</dim>
					<rt_info/>
				</port>
			</output>
		</layer>
		<layer id="28" name="Constant_5546378069937" type="Const" version="opset1">
			<data offset="9820" size="8" shape="" element_type="i64"/>
			<output>
				<port id="0" precision="I64"/>
			</output>
		</layer>
		<layer id="29" name="143361434071848" type="Const" version="opset1">
			<data offset="0" size="4" shape="" element_type="f32"/>
			<output>
				<port id="0" precision="FP32"/>
			</output>
		</layer>
		<layer id="30" name="143371434172664" type="Const" version="opset1">
			<data offset="9828" size="4" shape="" element_type="f32"/>
			<output>
				<port id="0" precision="FP32"/>
			</output>
		</layer>
		<layer id="31" name="143381434272151" type="Const" version="opset1">
			<data offset="0" size="4" shape="" element_type="f32"/>
			<output>
				<port id="0" precision="FP32"/>
			</output>
		</layer>
		<layer id="32" name="143391434374530" type="Const" version="opset1">
			<data offset="9828" size="4" shape="" element_type="f32"/>
			<output>
				<port id="0" precision="FP32"/>
			</output>
		</layer>
		<layer id="33" name="247832478768677" type="Const" version="opset1">
			<data offset="9832" size="4" shape="" element_type="f32"/>
			<output>
				<port id="0" precision="FP32"/>
			</output>
		</layer>
		<layer id="34" name="247842478873831" type="Const" version="opset1">
			<data offset="9836" size="4" shape="" element_type="f32"/>
			<output>
				<port id="0" precision="FP32"/>
			</output>
		</layer>
		<layer id="35" name="247852478968002" type="Const" version="opset1">
			<data offset="9832" size="4" shape="" element_type="f32"/>
			<output>
				<port id="0" precision="FP32"/>
			</output>
		</layer>
		<layer id="36" name="247862479072289" type="Const" version="opset1">
			<data offset="9836" size="4" shape="" element_type="f32"/>
			<output>
				<port id="0" precision="FP32"/>
			</output>
		</layer>
		<layer id="37" name="Constant_3833508668713" type="Const" version="opset1">
			<data offset="9840" size="16" shape="2" element_type="i64"/>
			<output>
				<port id="0" precision="I64">
					<dim>2</dim>
				</port>
			</output>
		</layer>
		<layer id="38" name="1672508469895" type="Const" version="opset1">
			<data offset="9856" size="32" shape="4" element_type="i64"/>
			<output>
				<port id="0" precision="I64" names="1672">
					<dim>4</dim>
				</port>
			</output>
		</layer>
		<layer id="39" name="1670508266163" type="Const" version="opset1">
			<data offset="9888" size="32" shape="4" element_type="i64"/>
			<output>
				<port id="0" precision="I64" names="1670">
					<dim>4</dim>
				</port>
			</output>
		</layer>
		<layer id="40" name="240732407769964" type="Const" version="opset1">
			<data offset="9920" size="4" shape="" element_type="f32"/>
			<output>
				<port id="0" precision="FP32"/>
			</output>
		</layer>
		<layer id="41" name="240742407866637" type="Const" version="opset1">
			<data offset="9924" size="4" shape="" element_type="f32"/>
			<output>
				<port id="0" precision="FP32"/>
			</output>
		</layer>
		<layer id="42" name="240752407966799" type="Const" version="opset1">
			<data offset="9920" size="4" shape="" element_type="f32"/>
			<output>
				<port id="0" precision="FP32"/>
			</output>
		</layer>
		<layer id="43" name="240762408072079" type="Const" version="opset1">
			<data offset="9924" size="4" shape="" element_type="f32"/>
			<output>
				<port id="0" precision="FP32"/>
			</output>
		</layer>
		<layer id="44" name="101891019170813" type="Const" version="opset1">
			<data offset="9928" size="512" shape="1,128,1,1" element_type="f32"/>
			<output>
				<port id="0" precision="FP32">
					<dim>1</dim>
					<dim>128</dim>
					<dim>1</dim>
					<dim>1</dim>
				</port>
			</output>
		</layer>
		<layer id="45" name="152661527066394" type="Const" version="opset1">
			<data offset="0" size="4" shape="" element_type="f32"/>
			<output>
				<port id="0" precision="FP32"/>
			</output>
		</layer>
		<layer id="46" name="152671527169478" type="Const" version="opset1">
			<data offset="10440" size="4" shape="" element_type="f32"/>
			<output>
				<port id="0" precision="FP32"/>
			</output>
		</layer>
		<layer id="47" name="152681527266832" type="Const" version="opset1">
			<data offset="0" size="4" shape="" element_type="f32"/>
			<output>
				<port id="0" precision="FP32"/>
			</output>
		</layer>
		<layer id="48" name="152691527372679" type="Const" version="opset1">
			<data offset="10440" size="4" shape="" element_type="f32"/>
			<output>
				<port id="0" precision="FP32"/>
			</output>
		</layer>
		<layer id="49" name="247732477770840" type="Const" version="opset1">
			<data offset="10444" size="4" shape="" element_type="f32"/>
			<output>
				<port id="0" precision="FP32"/>
			</output>
		</layer>
		<layer id="50" name="247742477866574" type="Const" version="opset1">
			<data offset="10448" size="4" shape="" element_type="f32"/>
			<output>
				<port id="0" precision="FP32"/>
			</output>
		</layer>
		<layer id="51" name="247752477972628" type="Const" version="opset1">
			<data offset="10444" size="4" shape="" element_type="f32"/>
			<output>
				<port id="0" precision="FP32"/>
			</output>
		</layer>
		<layer id="52" name="247762478071119" type="Const" version="opset1">
			<data offset="10448" size="4" shape="" element_type="f32"/>
			<output>
				<port id="0" precision="FP32"/>
			</output>
		</layer>
		<layer id="53" name="Constant_3807506873840" type="Const" version="opset1">
			<data offset="9840" size="16" shape="2" element_type="i64"/>
			<output>
				<port id="0" precision="I64">
					<dim>2</dim>
				</port>
			</output>
		</layer>
		<layer id="54" name="1657506671914" type="Const" version="opset1">
			<data offset="9856" size="32" shape="4" element_type="i64"/>
			<output>
				<port id="0" precision="I64" names="1657">
					<dim>4</dim>
				</port>
			</output>
		</layer>
		<layer id="55" name="1655506473300" type="Const" version="opset1">
			<data offset="9888" size="32" shape="4" element_type="i64"/>
			<output>
				<port id="0" precision="I64" names="1655">
					<dim>4</dim>
				</port>
			</output>
		</layer>
		<layer id="56" name="240532405771713" type="Const" version="opset1">
			<data offset="10452" size="4" shape="" element_type="f32"/>
			<output>
				<port id="0" precision="FP32"/>
			</output>
		</layer>
		<layer id="57" name="240542405874818" type="Const" version="opset1">
			<data offset="10456" size="4" shape="" element_type="f32"/>
			<output>
				<port id="0" precision="FP32"/>
			</output>
		</layer>
		<layer id="58" name="240552405967045" type="Const" version="opset1">
			<data offset="10452" size="4" shape="" element_type="f32"/>
			<output>
				<port id="0" precision="FP32"/>
			</output>
		</layer>
		<layer id="59" name="240562406067465" type="Const" version="opset1">
			<data offset="10456" size="4" shape="" element_type="f32"/>
			<output>
				<port id="0" precision="FP32"/>
			</output>
		</layer>
		<layer id="60" name="101851018771155" type="Const" version="opset1">
			<data offset="9928" size="512" shape="1,128,1,1" element_type="f32"/>
			<output>
				<port id="0" precision="FP32">
					<dim>1</dim>
					<dim>128</dim>
					<dim>1</dim>
					<dim>1</dim>
				</port>
			</output>
		</layer>
		<layer id="61" name="146561466074224" type="Const" version="opset1">
			<data offset="0" size="4" shape="" element_type="f32"/>
			<output>
				<port id="0" precision="FP32"/>
			</output>
		</layer>
		<layer id="62" name="146571466168158" type="Const" version="opset1">
			<data offset="10460" size="4" shape="" element_type="f32"/>
			<output>
				<port id="0" precision="FP32"/>
			</output>
		</layer>
		<layer id="63" name="146581466268986" type="Const" version="opset1">
			<data offset="0" size="4" shape="" element_type="f32"/>
			<output>
				<port id="0" precision="FP32"/>
			</output>
		</layer>
		<layer id="64" name="146591466369535" type="Const" version="opset1">
			<data offset="10460" size="4" shape="" element_type="f32"/>
			<output>
				<port id="0" precision="FP32"/>
			</output>
		</layer>
		<layer id="65" name="247632476772265" type="Const" version="opset1">
			<data offset="10464" size="4" shape="" element_type="f32"/>
			<output>
				<port id="0" precision="FP32"/>
			</output>
		</layer>
		<layer id="66" name="247642476871488" type="Const" version="opset1">
			<data offset="10468" size="4" shape="" element_type="f32"/>
			<output>
				<port id="0" precision="FP32"/>
			</output>
		</layer>
		<layer id="67" name="247652476970708" type="Const" version="opset1">
			<data offset="10464" size="4" shape="" element_type="f32"/>
			<output>
				<port id="0" precision="FP32"/>
			</output>
		</layer>
		<layer id="68" name="247662477069553" type="Const" version="opset1">
			<data offset="10468" size="4" shape="" element_type="f32"/>
			<output>
				<port id="0" precision="FP32"/>
			</output>
		</layer>
		<layer id="69" name="Constant_3781505066670" type="Const" version="opset1">
			<data offset="9840" size="16" shape="2" element_type="i64"/>
			<output>
				<port id="0" precision="I64">
					<dim>2</dim>
				</port>
			</output>
		</layer>
		<layer id="70" name="1642504867339" type="Const" version="opset1">
			<data offset="9856" size="32" shape="4" element_type="i64"/>
			<output>
				<port id="0" precision="I64" names="1642">
					<dim>4</dim>
				</port>
			</output>
		</layer>
		<layer id="71" name="1640504670924" type="Const" version="opset1">
			<data offset="9888" size="32" shape="4" element_type="i64"/>
			<output>
				<port id="0" precision="I64" names="1640">
					<dim>4</dim>
				</port>
			</output>
		</layer>
		<layer id="72" name="240332403774575" type="Const" version="opset1">
			<data offset="10472" size="4" shape="" element_type="f32"/>
			<output>
				<port id="0" precision="FP32"/>
			</output>
		</layer>
		<layer id="73" name="240342403868632" type="Const" version="opset1">
			<data offset="10476" size="4" shape="" element_type="f32"/>
			<output>
				<port id="0" precision="FP32"/>
			</output>
		</layer>
		<layer id="74" name="240352403972037" type="Const" version="opset1">
			<data offset="10472" size="4" shape="" element_type="f32"/>
			<output>
				<port id="0" precision="FP32"/>
			</output>
		</layer>
		<layer id="75" name="240362404071476" type="Const" version="opset1">
			<data offset="10476" size="4" shape="" element_type="f32"/>
			<output>
				<port id="0" precision="FP32"/>
			</output>
		</layer>
		<layer id="76" name="101811018369859" type="Const" version="opset1">
			<data offset="9928" size="512" shape="1,128,1,1" element_type="f32"/>
			<output>
				<port id="0" precision="FP32">
					<dim>1</dim>
					<dim>128</dim>
					<dim>1</dim>
					<dim>1</dim>
				</port>
			</output>
		</layer>
		<layer id="77" name="183061831073984" type="Const" version="opset1">
			<data offset="0" size="4" shape="" element_type="f32"/>
			<output>
				<port id="0" precision="FP32"/>
			</output>
		</layer>
		<layer id="78" name="183071831174938" type="Const" version="opset1">
			<data offset="10480" size="4" shape="" element_type="f32"/>
			<output>
				<port id="0" precision="FP32"/>
			</output>
		</layer>
		<layer id="79" name="183081831266580" type="Const" version="opset1">
			<data offset="0" size="4" shape="" element_type="f32"/>
			<output>
				<port id="0" precision="FP32"/>
			</output>
		</layer>
		<layer id="80" name="183091831366217" type="Const" version="opset1">
			<data offset="10480" size="4" shape="" element_type="f32"/>
			<output>
				<port id="0" precision="FP32"/>
			</output>
		</layer>
		<layer id="81" name="247532475767759" type="Const" version="opset1">
			<data offset="10484" size="4" shape="" element_type="f32"/>
			<output>
				<port id="0" precision="FP32"/>
			</output>
		</layer>
		<layer id="82" name="247542475867927" type="Const" version="opset1">
			<data offset="10488" size="4" shape="" element_type="f32"/>
			<output>
				<port id="0" precision="FP32"/>
			</output>
		</layer>
		<layer id="83" name="247552475969286" type="Const" version="opset1">
			<data offset="10484" size="4" shape="" element_type="f32"/>
			<output>
				<port id="0" precision="FP32"/>
			</output>
		</layer>
		<layer id="84" name="247562476074251" type="Const" version="opset1">
			<data offset="10488" size="4" shape="" element_type="f32"/>
			<output>
				<port id="0" precision="FP32"/>
			</output>
		</layer>
		<layer id="85" name="Constant_3755503271059" type="Const" version="opset1">
			<data offset="9840" size="16" shape="2" element_type="i64"/>
			<output>
				<port id="0" precision="I64">
					<dim>2</dim>
				</port>
			</output>
		</layer>
		<layer id="86" name="1627503066130" type="Const" version="opset1">
			<data offset="9856" size="32" shape="4" element_type="i64"/>
			<output>
				<port id="0" precision="I64" names="1627">
					<dim>4</dim>
				</port>
			</output>
		</layer>
		<layer id="87" name="1625502873174" type="Const" version="opset1">
			<data offset="9888" size="32" shape="4" element_type="i64"/>
			<output>
				<port id="0" precision="I64" names="1625">
					<dim>4</dim>
				</port>
			</output>
		</layer>
		<layer id="88" name="240132401767117" type="Const" version="opset1">
			<data offset="10492" size="4" shape="" element_type="f32"/>
			<output>
				<port id="0" precision="FP32"/>
			</output>
		</layer>
		<layer id="89" name="240142401867342" type="Const" version="opset1">
			<data offset="10496" size="4" shape="" element_type="f32"/>
			<output>
				<port id="0" precision="FP32"/>
			</output>
		</layer>
		<layer id="90" name="240152401968383" type="Const" version="opset1">
			<data offset="10492" size="4" shape="" element_type="f32"/>
			<output>
				<port id="0" precision="FP32"/>
			</output>
		</layer>
		<layer id="91" name="240162402067984" type="Const" version="opset1">
			<data offset="10496" size="4" shape="" element_type="f32"/>
			<output>
				<port id="0" precision="FP32"/>
			</output>
		</layer>
		<layer id="92" name="101771017967690" type="Const" version="opset1">
			<data offset="9928" size="512" shape="1,128,1,1" element_type="f32"/>
			<output>
				<port id="0" precision="FP32">
					<dim>1</dim>
					<dim>128</dim>
					<dim>1</dim>
					<dim>1</dim>
				</port>
			</output>
		</layer>
		<layer id="93" name="236332363767150" type="Const" version="opset1">
			<data offset="10500" size="4" shape="" element_type="f32"/>
			<output>
				<port id="0" precision="FP32"/>
			</output>
		</layer>
		<layer id="94" name="236342363871044" type="Const" version="opset1">
			<data offset="10504" size="4" shape="" element_type="f32"/>
			<output>
				<port id="0" precision="FP32"/>
			</output>
		</layer>
		<layer id="95" name="236352363969655" type="Const" version="opset1">
			<data offset="10500" size="4" shape="" element_type="f32"/>
			<output>
				<port id="0" precision="FP32"/>
			</output>
		</layer>
		<layer id="96" name="236362364073324" type="Const" version="opset1">
			<data offset="10504" size="4" shape="" element_type="f32"/>
			<output>
				<port id="0" precision="FP32"/>
			</output>
		</layer>
		<layer id="97" name="236232362768554" type="Const" version="opset1">
			<data offset="10500" size="4" shape="" element_type="f32"/>
			<output>
				<port id="0" precision="FP32"/>
			</output>
		</layer>
		<layer id="98" name="236242362871902" type="Const" version="opset1">
			<data offset="10504" size="4" shape="" element_type="f32"/>
			<output>
				<port id="0" precision="FP32"/>
			</output>
		</layer>
		<layer id="99" name="236252362971911" type="Const" version="opset1">
			<data offset="10500" size="4" shape="" element_type="f32"/>
			<output>
				<port id="0" precision="FP32"/>
			</output>
		</layer>
		<layer id="100" name="236262363072019" type="Const" version="opset1">
			<data offset="10504" size="4" shape="" element_type="f32"/>
			<output>
				<port id="0" precision="FP32"/>
			</output>
		</layer>
		<layer id="101" name="236132361766907" type="Const" version="opset1">
			<data offset="10500" size="4" shape="" element_type="f32"/>
			<output>
				<port id="0" precision="FP32"/>
			</output>
		</layer>
		<layer id="102" name="236142361866742" type="Const" version="opset1">
			<data offset="10504" size="4" shape="" element_type="f32"/>
			<output>
				<port id="0" precision="FP32"/>
			</output>
		</layer>
		<layer id="103" name="236152361974350" type="Const" version="opset1">
			<data offset="10500" size="4" shape="" element_type="f32"/>
			<output>
				<port id="0" precision="FP32"/>
			</output>
		</layer>
		<layer id="104" name="236162362071953" type="Const" version="opset1">
			<data offset="10504" size="4" shape="" element_type="f32"/>
			<output>
				<port id="0" precision="FP32"/>
			</output>
		</layer>
		<layer id="105" name="187761878071395" type="Const" version="opset1">
			<data offset="10508" size="4" shape="" element_type="f32"/>
			<output>
				<port id="0" precision="FP32"/>
			</output>
		</layer>
		<layer id="106" name="187771878169004" type="Const" version="opset1">
			<data offset="10512" size="4" shape="" element_type="f32"/>
			<output>
				<port id="0" precision="FP32"/>
			</output>
		</layer>
		<layer id="107" name="187781878272916" type="Const" version="opset1">
			<data offset="10508" size="4" shape="" element_type="f32"/>
			<output>
				<port id="0" precision="FP32"/>
			</output>
		</layer>
		<layer id="108" name="187791878368674" type="Const" version="opset1">
			<data offset="10512" size="4" shape="" element_type="f32"/>
			<output>
				<port id="0" precision="FP32"/>
			</output>
		</layer>
		<layer id="109" name="154061541069472" type="Const" version="opset1">
			<data offset="10516" size="4" shape="" element_type="f32"/>
			<output>
				<port id="0" precision="FP32"/>
			</output>
		</layer>
		<layer id="110" name="154071541173336" type="Const" version="opset1">
			<data offset="10520" size="4" shape="" element_type="f32"/>
			<output>
				<port id="0" precision="FP32"/>
			</output>
		</layer>
		<layer id="111" name="154081541269178" type="Const" version="opset1">
			<data offset="10516" size="4" shape="" element_type="f32"/>
			<output>
				<port id="0" precision="FP32"/>
			</output>
		</layer>
		<layer id="112" name="154091541370579" type="Const" version="opset1">
			<data offset="10520" size="4" shape="" element_type="f32"/>
			<output>
				<port id="0" precision="FP32"/>
			</output>
		</layer>
		<layer id="113" name="139761398074638" type="Const" version="opset1">
			<data offset="10524" size="4" shape="" element_type="f32"/>
			<output>
				<port id="0" precision="FP32"/>
			</output>
		</layer>
		<layer id="114" name="139771398171236" type="Const" version="opset1">
			<data offset="10528" size="4" shape="" element_type="f32"/>
			<output>
				<port id="0" precision="FP32"/>
			</output>
		</layer>
		<layer id="115" name="139781398268797" type="Const" version="opset1">
			<data offset="10524" size="4" shape="" element_type="f32"/>
			<output>
				<port id="0" precision="FP32"/>
			</output>
		</layer>
		<layer id="116" name="139791398370243" type="Const" version="opset1">
			<data offset="10528" size="4" shape="" element_type="f32"/>
			<output>
				<port id="0" precision="FP32"/>
			</output>
		</layer>
		<layer id="117" name="193561936067519" type="Const" version="opset1">
			<data offset="0" size="4" shape="" element_type="f32"/>
			<output>
				<port id="0" precision="FP32"/>
			</output>
		</layer>
		<layer id="118" name="193571936172883" type="Const" version="opset1">
			<data offset="10532" size="4" shape="" element_type="f32"/>
			<output>
				<port id="0" precision="FP32"/>
			</output>
		</layer>
		<layer id="119" name="193581936267189" type="Const" version="opset1">
			<data offset="0" size="4" shape="" element_type="f32"/>
			<output>
				<port id="0" precision="FP32"/>
			</output>
		</layer>
		<layer id="120" name="193591936368137" type="Const" version="opset1">
			<data offset="10532" size="4" shape="" element_type="f32"/>
			<output>
				<port id="0" precision="FP32"/>
			</output>
		</layer>
		<layer id="121" name="141961420071290" type="Const" version="opset1">
			<data offset="10536" size="4" shape="" element_type="f32"/>
			<output>
				<port id="0" precision="FP32"/>
			</output>
		</layer>
		<layer id="122" name="141971420167603" type="Const" version="opset1">
			<data offset="10540" size="4" shape="" element_type="f32"/>
			<output>
				<port id="0" precision="FP32"/>
			</output>
		</layer>
		<layer id="123" name="141981420271782" type="Const" version="opset1">
			<data offset="10536" size="4" shape="" element_type="f32"/>
			<output>
				<port id="0" precision="FP32"/>
			</output>
		</layer>
		<layer id="124" name="141991420368017" type="Const" version="opset1">
			<data offset="10540" size="4" shape="" element_type="f32"/>
			<output>
				<port id="0" precision="FP32"/>
			</output>
		</layer>
		<layer id="125" name="186061861071536" type="Const" version="opset1">
			<data offset="0" size="4" shape="" element_type="f32"/>
			<output>
				<port id="0" precision="FP32"/>
			</output>
		</layer>
		<layer id="126" name="186071861171158" type="Const" version="opset1">
			<data offset="10544" size="4" shape="" element_type="f32"/>
			<output>
				<port id="0" precision="FP32"/>
			</output>
		</layer>
		<layer id="127" name="186081861273003" type="Const" version="opset1">
			<data offset="0" size="4" shape="" element_type="f32"/>
			<output>
				<port id="0" precision="FP32"/>
			</output>
		</layer>
		<layer id="128" name="186091861366373" type="Const" version="opset1">
			<data offset="10544" size="4" shape="" element_type="f32"/>
			<output>
				<port id="0" precision="FP32"/>
			</output>
		</layer>
		<layer id="129" name="136561366072589" type="Const" version="opset1">
			<data offset="0" size="4" shape="" element_type="f32"/>
			<output>
				<port id="0" precision="FP32"/>
			</output>
		</layer>
		<layer id="130" name="136571366172274" type="Const" version="opset1">
			<data offset="10548" size="4" shape="" element_type="f32"/>
			<output>
				<port id="0" precision="FP32"/>
			</output>
		</layer>
		<layer id="131" name="136581366271221" type="Const" version="opset1">
			<data offset="0" size="4" shape="" element_type="f32"/>
			<output>
				<port id="0" precision="FP32"/>
			</output>
		</layer>
		<layer id="132" name="136591366374812" type="Const" version="opset1">
			<data offset="10548" size="4" shape="" element_type="f32"/>
			<output>
				<port id="0" precision="FP32"/>
			</output>
		</layer>
		<layer id="133" name="142061421070468" type="Const" version="opset1">
			<data offset="0" size="4" shape="" element_type="f32"/>
			<output>
				<port id="0" precision="FP32"/>
			</output>
		</layer>
		<layer id="134" name="142071421173522" type="Const" version="opset1">
			<data offset="10552" size="4" shape="" element_type="f32"/>
			<output>
				<port id="0" precision="FP32"/>
			</output>
		</layer>
		<layer id="135" name="142081421268284" type="Const" version="opset1">
			<data offset="0" size="4" shape="" element_type="f32"/>
			<output>
				<port id="0" precision="FP32"/>
			</output>
		</layer>
		<layer id="136" name="142091421367372" type="Const" version="opset1">
			<data offset="10552" size="4" shape="" element_type="f32"/>
			<output>
				<port id="0" precision="FP32"/>
			</output>
		</layer>
		<layer id="137" name="173661737070858" type="Const" version="opset1">
			<data offset="10556" size="4" shape="" element_type="f32"/>
			<output>
				<port id="0" precision="FP32"/>
			</output>
		</layer>
		<layer id="138" name="173671737174056" type="Const" version="opset1">
			<data offset="10560" size="4" shape="" element_type="f32"/>
			<output>
				<port id="0" precision="FP32"/>
			</output>
		</layer>
		<layer id="139" name="173681737272364" type="Const" version="opset1">
			<data offset="10556" size="4" shape="" element_type="f32"/>
			<output>
				<port id="0" precision="FP32"/>
			</output>
		</layer>
		<layer id="140" name="173691737372472" type="Const" version="opset1">
			<data offset="10560" size="4" shape="" element_type="f32"/>
			<output>
				<port id="0" precision="FP32"/>
			</output>
		</layer>
		<layer id="141" name="138461385073309" type="Const" version="opset1">
			<data offset="0" size="4" shape="" element_type="f32"/>
			<output>
				<port id="0" precision="FP32"/>
			</output>
		</layer>
		<layer id="142" name="138471385169826" type="Const" version="opset1">
			<data offset="10564" size="4" shape="" element_type="f32"/>
			<output>
				<port id="0" precision="FP32"/>
			</output>
		</layer>
		<layer id="143" name="138481385270474" type="Const" version="opset1">
			<data offset="0" size="4" shape="" element_type="f32"/>
			<output>
				<port id="0" precision="FP32"/>
			</output>
		</layer>
		<layer id="144" name="138491385370645" type="Const" version="opset1">
			<data offset="10564" size="4" shape="" element_type="f32"/>
			<output>
				<port id="0" precision="FP32"/>
			</output>
		</layer>
		<layer id="145" name="155861559068770" type="Const" version="opset1">
			<data offset="0" size="4" shape="" element_type="f32"/>
			<output>
				<port id="0" precision="FP32"/>
			</output>
		</layer>
		<layer id="146" name="155871559172034" type="Const" version="opset1">
			<data offset="10568" size="4" shape="" element_type="f32"/>
			<output>
				<port id="0" precision="FP32"/>
			</output>
		</layer>
		<layer id="147" name="155881559269340" type="Const" version="opset1">
			<data offset="0" size="4" shape="" element_type="f32"/>
			<output>
				<port id="0" precision="FP32"/>
			</output>
		</layer>
		<layer id="148" name="155891559372403" type="Const" version="opset1">
			<data offset="10568" size="4" shape="" element_type="f32"/>
			<output>
				<port id="0" precision="FP32"/>
			</output>
		</layer>
		<layer id="149" name="173761738069256" type="Const" version="opset1">
			<data offset="0" size="4" shape="" element_type="f32"/>
			<output>
				<port id="0" precision="FP32"/>
			</output>
		</layer>
		<layer id="150" name="173771738168308" type="Const" version="opset1">
			<data offset="10572" size="4" shape="" element_type="f32"/>
			<output>
				<port id="0" precision="FP32"/>
			</output>
		</layer>
		<layer id="151" name="173781738274050" type="Const" version="opset1">
			<data offset="0" size="4" shape="" element_type="f32"/>
			<output>
				<port id="0" precision="FP32"/>
			</output>
		</layer>
		<layer id="152" name="173791738372319" type="Const" version="opset1">
			<data offset="10572" size="4" shape="" element_type="f32"/>
			<output>
				<port id="0" precision="FP32"/>
			</output>
		</layer>
		<layer id="153" name="168161682073219" type="Const" version="opset1">
			<data offset="10576" size="4" shape="" element_type="f32"/>
			<output>
				<port id="0" precision="FP32"/>
			</output>
		</layer>
		<layer id="154" name="168171682171554" type="Const" version="opset1">
			<data offset="10580" size="4" shape="" element_type="f32"/>
			<output>
				<port id="0" precision="FP32"/>
			</output>
		</layer>
		<layer id="155" name="168181682271179" type="Const" version="opset1">
			<data offset="10576" size="4" shape="" element_type="f32"/>
			<output>
				<port id="0" precision="FP32"/>
			</output>
		</layer>
		<layer id="156" name="168191682368890" type="Const" version="opset1">
			<data offset="10580" size="4" shape="" element_type="f32"/>
			<output>
				<port id="0" precision="FP32"/>
			</output>
		</layer>
		<layer id="157" name="176761768074044" type="Const" version="opset1">
			<data offset="0" size="4" shape="" element_type="f32"/>
			<output>
				<port id="0" precision="FP32"/>
			</output>
		</layer>
		<layer id="158" name="176771768173483" type="Const" version="opset1">
			<data offset="10584" size="4" shape="" element_type="f32"/>
			<output>
				<port id="0" precision="FP32"/>
			</output>
		</layer>
		<layer id="159" name="176781768271683" type="Const" version="opset1">
			<data offset="0" size="4" shape="" element_type="f32"/>
			<output>
				<port id="0" precision="FP32"/>
			</output>
		</layer>
		<layer id="160" name="176791768371479" type="Const" version="opset1">
			<data offset="10584" size="4" shape="" element_type="f32"/>
			<output>
				<port id="0" precision="FP32"/>
			</output>
		</layer>
		<layer id="161" name="155661557069814" type="Const" version="opset1">
			<data offset="0" size="4" shape="" element_type="f32"/>
			<output>
				<port id="0" precision="FP32"/>
			</output>
		</layer>
		<layer id="162" name="155671557168833" type="Const" version="opset1">
			<data offset="10588" size="4" shape="" element_type="f32"/>
			<output>
				<port id="0" precision="FP32"/>
			</output>
		</layer>
		<layer id="163" name="155681557271704" type="Const" version="opset1">
			<data offset="0" size="4" shape="" element_type="f32"/>
			<output>
				<port id="0" precision="FP32"/>
			</output>
		</layer>
		<layer id="164" name="155691557369046" type="Const" version="opset1">
			<data offset="10588" size="4" shape="" element_type="f32"/>
			<output>
				<port id="0" precision="FP32"/>
			</output>
		</layer>
		<layer id="165" name="Multiply_71426/fq_weights_1/scale4864270477" type="Const" version="opset1">
			<data offset="10592" size="256" shape="64,1,1,1" element_type="f32"/>
			<output>
				<port id="0" precision="FP32">
					<dim>64</dim>
					<dim>1</dim>
					<dim>1</dim>
					<dim>1</dim>
				</port>
			</output>
		</layer>
		<layer id="166" name="Multiply_72540379639748/restored_convert/quantized4863469466" type="Const" version="opset1">
			<data offset="10848" size="4096" shape="64,64,1,1" element_type="i8"/>
			<output>
				<port id="0" precision="I8">
					<dim>64</dim>
					<dim>64</dim>
					<dim>1</dim>
					<dim>1</dim>
				</port>
			</output>
		</layer>
		<layer id="167" name="Multiply_72540379639748/restored_convert/quantized/to_f32" type="Convert" version="opset1">
			<data destination_type="f32"/>
			<input>
				<port id="0">
					<dim>64</dim>
					<dim>64</dim>
					<dim>1</dim>
					<dim>1</dim>
				</port>
			</input>
			<output>
				<port id="1" precision="FP32">
					<dim>64</dim>
					<dim>64</dim>
					<dim>1</dim>
					<dim>1</dim>
				</port>
			</output>
		</layer>
		<layer id="168" name="Multiply_71426/fq_weights_1/mulpiply_by_scale" type="Multiply" version="opset1">
			<data auto_broadcast="numpy"/>
			<input>
				<port id="0">
					<dim>64</dim>
					<dim>64</dim>
					<dim>1</dim>
					<dim>1</dim>
				</port>
				<port id="1">
					<dim>64</dim>
					<dim>1</dim>
					<dim>1</dim>
					<dim>1</dim>
				</port>
			</input>
			<output>
				<port id="2" precision="FP32">
					<dim>64</dim>
					<dim>64</dim>
					<dim>1</dim>
					<dim>1</dim>
				</port>
			</output>
		</layer>
		<layer id="169" name="Multiply_71426" type="Convolution" version="opset1">
			<data auto_pad="explicit" strides="1,1" dilations="1,1" pads_begin="0,0" pads_end="0,0"/>
			<input>
				<port id="0">
					<dim>1</dim>
					<dim>64</dim>
					<dim>160</dim>
					<dim>160</dim>
				</port>
				<port id="1">
					<dim>64</dim>
					<dim>64</dim>
					<dim>1</dim>
					<dim>1</dim>
				</port>
			</input>
			<output>
				<port id="2" precision="FP32">
					<dim>1</dim>
					<dim>64</dim>
					<dim>160</dim>
					<dim>160</dim>
				</port>
			</output>
		</layer>
		<layer id="170" name="Constant_71431379967123" type="Const" version="opset1">
			<data offset="14944" size="128" shape="1,64,1,1" element_type="f16"/>
			<output>
				<port id="0" precision="FP16">
					<dim>1</dim>
					<dim>64</dim>
					<dim>1</dim>
					<dim>1</dim>
				</port>
			</output>
		</layer>
		<layer id="171" name="Constant_71431379939749/restored_convert" type="Convert" version="opset1">
			<data destination_type="f32"/>
			<rt_info>
				<attribute name="decompression" version="0"/>
			</rt_info>
			<input>
				<port id="0">
					<dim>1</dim>
					<dim>64</dim>
					<dim>1</dim>
					<dim>1</dim>
				</port>
			</input>
			<output>
				<port id="1" precision="FP32">
					<dim>1</dim>
					<dim>64</dim>
					<dim>1</dim>
					<dim>1</dim>
				</port>
			</output>
		</layer>
		<layer id="172" name="BatchNormalization_13" type="Add" version="opset1">
			<data auto_broadcast="numpy"/>
			<input>
				<port id="0">
					<dim>1</dim>
					<dim>64</dim>
					<dim>160</dim>
					<dim>160</dim>
				</port>
				<port id="1">
					<dim>1</dim>
					<dim>64</dim>
					<dim>1</dim>
					<dim>1</dim>
				</port>
			</input>
			<output>
				<port id="2" precision="FP32" names="1027">
					<dim>1</dim>
					<dim>64</dim>
					<dim>160</dim>
					<dim>160</dim>
				</port>
			</output>
		</layer>
		<layer id="173" name="Relu_14" type="ReLU" version="opset1">
			<input>
				<port id="0">
					<dim>1</dim>
					<dim>64</dim>
					<dim>160</dim>
					<dim>160</dim>
				</port>
			</input>
			<output>
				<port id="1" precision="FP32" names="1028">
					<dim>1</dim>
					<dim>64</dim>
					<dim>160</dim>
					<dim>160</dim>
				</port>
			</output>
		</layer>
		<layer id="174" name="Multiply_71433/fq_input_0" type="FakeQuantize" version="opset1">
			<data levels="256" auto_broadcast="numpy"/>
			<input>
				<port id="0">
					<dim>1</dim>
					<dim>64</dim>
					<dim>160</dim>
					<dim>160</dim>
				</port>
				<port id="1"/>
				<port id="2"/>
				<port id="3"/>
				<port id="4"/>
			</input>
			<output>
				<port id="5" precision="FP32">
					<dim>1</dim>
					<dim>64</dim>
					<dim>160</dim>
					<dim>160</dim>
				</port>
			</output>
		</layer>
		<layer id="175" name="Multiply_71433/fq_weights_1/scale4789267195" type="Const" version="opset1">
			<data offset="15072" size="256" shape="64,1,1,1" element_type="f32"/>
			<output>
				<port id="0" precision="FP32">
					<dim>64</dim>
					<dim>1</dim>
					<dim>1</dim>
					<dim>1</dim>
				</port>
			</output>
		</layer>
		<layer id="176" name="Multiply_72549380339750/restored_convert/quantized4788466583" type="Const" version="opset1">
			<data offset="15328" size="36864" shape="64,64,3,3" element_type="i8"/>
			<output>
				<port id="0" precision="I8">
					<dim>64</dim>
					<dim>64</dim>
					<dim>3</dim>
					<dim>3</dim>
				</port>
			</output>
		</layer>
		<layer id="177" name="Multiply_72549380339750/restored_convert/quantized/to_f32" type="Convert" version="opset1">
			<data destination_type="f32"/>
			<input>
				<port id="0">
					<dim>64</dim>
					<dim>64</dim>
					<dim>3</dim>
					<dim>3</dim>
				</port>
			</input>
			<output>
				<port id="1" precision="FP32">
					<dim>64</dim>
					<dim>64</dim>
					<dim>3</dim>
					<dim>3</dim>
				</port>
			</output>
		</layer>
		<layer id="178" name="Multiply_71433/fq_weights_1/mulpiply_by_scale" type="Multiply" version="opset1">
			<data auto_broadcast="numpy"/>
			<input>
				<port id="0">
					<dim>64</dim>
					<dim>64</dim>
					<dim>3</dim>
					<dim>3</dim>
				</port>
				<port id="1">
					<dim>64</dim>
					<dim>1</dim>
					<dim>1</dim>
					<dim>1</dim>
				</port>
			</input>
			<output>
				<port id="2" precision="FP32">
					<dim>64</dim>
					<dim>64</dim>
					<dim>3</dim>
					<dim>3</dim>
				</port>
			</output>
		</layer>
		<layer id="179" name="Multiply_71433" type="Convolution" version="opset1">
			<data auto_pad="explicit" strides="1,1" dilations="1,1" pads_begin="1,1" pads_end="1,1"/>
			<input>
				<port id="0">
					<dim>1</dim>
					<dim>64</dim>
					<dim>160</dim>
					<dim>160</dim>
				</port>
				<port id="1">
					<dim>64</dim>
					<dim>64</dim>
					<dim>3</dim>
					<dim>3</dim>
				</port>
			</input>
			<output>
				<port id="2" precision="FP32">
					<dim>1</dim>
					<dim>64</dim>
					<dim>160</dim>
					<dim>160</dim>
				</port>
			</output>
		</layer>
		<layer id="180" name="Constant_71438380674503" type="Const" version="opset1">
			<data offset="52192" size="128" shape="1,64,1,1" element_type="f16"/>
			<output>
				<port id="0" precision="FP16">
					<dim>1</dim>
					<dim>64</dim>
					<dim>1</dim>
					<dim>1</dim>
				</port>
			</output>
		</layer>
		<layer id="181" name="Constant_71438380639751/restored_convert" type="Convert" version="opset1">
			<data destination_type="f32"/>
			<rt_info>
				<attribute name="decompression" version="0"/>
			</rt_info>
			<input>
				<port id="0">
					<dim>1</dim>
					<dim>64</dim>
					<dim>1</dim>
					<dim>1</dim>
				</port>
			</input>
			<output>
				<port id="1" precision="FP32">
					<dim>1</dim>
					<dim>64</dim>
					<dim>1</dim>
					<dim>1</dim>
				</port>
			</output>
		</layer>
		<layer id="182" name="BatchNormalization_16" type="Add" version="opset1">
			<data auto_broadcast="numpy"/>
			<input>
				<port id="0">
					<dim>1</dim>
					<dim>64</dim>
					<dim>160</dim>
					<dim>160</dim>
				</port>
				<port id="1">
					<dim>1</dim>
					<dim>64</dim>
					<dim>1</dim>
					<dim>1</dim>
				</port>
			</input>
			<output>
				<port id="2" precision="FP32" names="1030">
					<dim>1</dim>
					<dim>64</dim>
					<dim>160</dim>
					<dim>160</dim>
				</port>
			</output>
		</layer>
		<layer id="183" name="Relu_17" type="ReLU" version="opset1">
			<input>
				<port id="0">
					<dim>1</dim>
					<dim>64</dim>
					<dim>160</dim>
					<dim>160</dim>
				</port>
			</input>
			<output>
				<port id="1" precision="FP32" names="1031">
					<dim>1</dim>
					<dim>64</dim>
					<dim>160</dim>
					<dim>160</dim>
				</port>
			</output>
		</layer>
		<layer id="184" name="Multiply_71440/fq_input_0" type="FakeQuantize" version="opset1">
			<data levels="256" auto_broadcast="numpy"/>
			<input>
				<port id="0">
					<dim>1</dim>
					<dim>64</dim>
					<dim>160</dim>
					<dim>160</dim>
				</port>
				<port id="1"/>
				<port id="2"/>
				<port id="3"/>
				<port id="4"/>
			</input>
			<output>
				<port id="5" precision="FP32">
					<dim>1</dim>
					<dim>64</dim>
					<dim>160</dim>
					<dim>160</dim>
				</port>
			</output>
		</layer>
		<layer id="185" name="Multiply_71440/fq_weights_1/scale4825272406" type="Const" version="opset1">
			<data offset="52320" size="1024" shape="256,1,1,1" element_type="f32"/>
			<output>
				<port id="0" precision="FP32">
					<dim>256</dim>
					<dim>1</dim>
					<dim>1</dim>
					<dim>1</dim>
				</port>
			</output>
		</layer>
		<layer id="186" name="Multiply_72558381039752/restored_convert/quantized4824474425" type="Const" version="opset1">
			<data offset="53344" size="16384" shape="256,64,1,1" element_type="i8"/>
			<output>
				<port id="0" precision="I8">
					<dim>256</dim>
					<dim>64</dim>
					<dim>1</dim>
					<dim>1</dim>
				</port>
			</output>
		</layer>
		<layer id="187" name="Multiply_72558381039752/restored_convert/quantized/to_f32" type="Convert" version="opset1">
			<data destination_type="f32"/>
			<input>
				<port id="0">
					<dim>256</dim>
					<dim>64</dim>
					<dim>1</dim>
					<dim>1</dim>
				</port>
			</input>
			<output>
				<port id="1" precision="FP32">
					<dim>256</dim>
					<dim>64</dim>
					<dim>1</dim>
					<dim>1</dim>
				</port>
			</output>
		</layer>
		<layer id="188" name="Multiply_71440/fq_weights_1/mulpiply_by_scale" type="Multiply" version="opset1">
			<data auto_broadcast="numpy"/>
			<input>
				<port id="0">
					<dim>256</dim>
					<dim>64</dim>
					<dim>1</dim>
					<dim>1</dim>
				</port>
				<port id="1">
					<dim>256</dim>
					<dim>1</dim>
					<dim>1</dim>
					<dim>1</dim>
				</port>
			</input>
			<output>
				<port id="2" precision="FP32">
					<dim>256</dim>
					<dim>64</dim>
					<dim>1</dim>
					<dim>1</dim>
				</port>
			</output>
		</layer>
		<layer id="189" name="Multiply_71440" type="Convolution" version="opset1">
			<data auto_pad="explicit" strides="1,1" dilations="1,1" pads_begin="0,0" pads_end="0,0"/>
			<input>
				<port id="0">
					<dim>1</dim>
					<dim>64</dim>
					<dim>160</dim>
					<dim>160</dim>
				</port>
				<port id="1">
					<dim>256</dim>
					<dim>64</dim>
					<dim>1</dim>
					<dim>1</dim>
				</port>
			</input>
			<output>
				<port id="2" precision="FP32">
					<dim>1</dim>
					<dim>256</dim>
					<dim>160</dim>
					<dim>160</dim>
				</port>
			</output>
		</layer>
		<layer id="190" name="Constant_71445381371299" type="Const" version="opset1">
			<data offset="69728" size="512" shape="1,256,1,1" element_type="f16"/>
			<output>
				<port id="0" precision="FP16">
					<dim>1</dim>
					<dim>256</dim>
					<dim>1</dim>
					<dim>1</dim>
				</port>
			</output>
		</layer>
		<layer id="191" name="Constant_71445381339753/restored_convert" type="Convert" version="opset1">
			<data destination_type="f32"/>
			<rt_info>
				<attribute name="decompression" version="0"/>
			</rt_info>
			<input>
				<port id="0">
					<dim>1</dim>
					<dim>256</dim>
					<dim>1</dim>
					<dim>1</dim>
				</port>
			</input>
			<output>
				<port id="1" precision="FP32">
					<dim>1</dim>
					<dim>256</dim>
					<dim>1</dim>
					<dim>1</dim>
				</port>
			</output>
		</layer>
		<layer id="192" name="BatchNormalization_19" type="Add" version="opset1">
			<data auto_broadcast="numpy"/>
			<input>
				<port id="0">
					<dim>1</dim>
					<dim>256</dim>
					<dim>160</dim>
					<dim>160</dim>
				</port>
				<port id="1">
					<dim>1</dim>
					<dim>256</dim>
					<dim>1</dim>
					<dim>1</dim>
				</port>
			</input>
			<output>
				<port id="2" precision="FP32" names="1033">
					<dim>1</dim>
					<dim>256</dim>
					<dim>160</dim>
					<dim>160</dim>
				</port>
			</output>
		</layer>
		<layer id="193" name="Add_20/fq_input_0" type="FakeQuantize" version="opset1">
			<data levels="256" auto_broadcast="numpy"/>
			<input>
				<port id="0">
					<dim>1</dim>
					<dim>256</dim>
					<dim>160</dim>
					<dim>160</dim>
				</port>
				<port id="1"/>
				<port id="2"/>
				<port id="3"/>
				<port id="4"/>
			</input>
			<output>
				<port id="5" precision="FP32">
					<dim>1</dim>
					<dim>256</dim>
					<dim>160</dim>
					<dim>160</dim>
				</port>
			</output>
		</layer>
		<layer id="194" name="168261683074113" type="Const" version="opset1">
			<data offset="70240" size="4" shape="" element_type="f32"/>
			<output>
				<port id="0" precision="FP32"/>
			</output>
		</layer>
		<layer id="195" name="168271683174791" type="Const" version="opset1">
			<data offset="70244" size="4" shape="" element_type="f32"/>
			<output>
				<port id="0" precision="FP32"/>
			</output>
		</layer>
		<layer id="196" name="168281683274107" type="Const" version="opset1">
			<data offset="70240" size="4" shape="" element_type="f32"/>
			<output>
				<port id="0" precision="FP32"/>
			</output>
		</layer>
		<layer id="197" name="168291683367324" type="Const" version="opset1">
			<data offset="70244" size="4" shape="" element_type="f32"/>
			<output>
				<port id="0" precision="FP32"/>
			</output>
		</layer>
		<layer id="198" name="Multiply_71447/fq_weights_1/scale4840272586" type="Const" version="opset1">
			<data offset="70248" size="1024" shape="256,1,1,1" element_type="f32"/>
			<output>
				<port id="0" precision="FP32">
					<dim>256</dim>
					<dim>1</dim>
					<dim>1</dim>
					<dim>1</dim>
				</port>
			</output>
		</layer>
		<layer id="199" name="Multiply_72567381639754/restored_convert/quantized4839467885" type="Const" version="opset1">
			<data offset="71272" size="16384" shape="256,64,1,1" element_type="i8"/>
			<output>
				<port id="0" precision="I8">
					<dim>256</dim>
					<dim>64</dim>
					<dim>1</dim>
					<dim>1</dim>
				</port>
			</output>
		</layer>
		<layer id="200" name="Multiply_72567381639754/restored_convert/quantized/to_f32" type="Convert" version="opset1">
			<data destination_type="f32"/>
			<input>
				<port id="0">
					<dim>256</dim>
					<dim>64</dim>
					<dim>1</dim>
					<dim>1</dim>
				</port>
			</input>
			<output>
				<port id="1" precision="FP32">
					<dim>256</dim>
					<dim>64</dim>
					<dim>1</dim>
					<dim>1</dim>
				</port>
			</output>
		</layer>
		<layer id="201" name="Multiply_71447/fq_weights_1/mulpiply_by_scale" type="Multiply" version="opset1">
			<data auto_broadcast="numpy"/>
			<input>
				<port id="0">
					<dim>256</dim>
					<dim>64</dim>
					<dim>1</dim>
					<dim>1</dim>
				</port>
				<port id="1">
					<dim>256</dim>
					<dim>1</dim>
					<dim>1</dim>
					<dim>1</dim>
				</port>
			</input>
			<output>
				<port id="2" precision="FP32">
					<dim>256</dim>
					<dim>64</dim>
					<dim>1</dim>
					<dim>1</dim>
				</port>
			</output>
		</layer>
		<layer id="202" name="Multiply_71447" type="Convolution" version="opset1">
			<data auto_pad="explicit" strides="1,1" dilations="1,1" pads_begin="0,0" pads_end="0,0"/>
			<input>
				<port id="0">
					<dim>1</dim>
					<dim>64</dim>
					<dim>160</dim>
					<dim>160</dim>
				</port>
				<port id="1">
					<dim>256</dim>
					<dim>64</dim>
					<dim>1</dim>
					<dim>1</dim>
				</port>
			</input>
			<output>
				<port id="2" precision="FP32">
					<dim>1</dim>
					<dim>256</dim>
					<dim>160</dim>
					<dim>160</dim>
				</port>
			</output>
		</layer>
		<layer id="203" name="Constant_71452381966478" type="Const" version="opset1">
			<data offset="87656" size="512" shape="1,256,1,1" element_type="f16"/>
			<output>
				<port id="0" precision="FP16">
					<dim>1</dim>
					<dim>256</dim>
					<dim>1</dim>
					<dim>1</dim>
				</port>
			</output>
		</layer>
		<layer id="204" name="Constant_71452381939755/restored_convert" type="Convert" version="opset1">
			<data destination_type="f32"/>
			<rt_info>
				<attribute name="decompression" version="0"/>
			</rt_info>
			<input>
				<port id="0">
					<dim>1</dim>
					<dim>256</dim>
					<dim>1</dim>
					<dim>1</dim>
				</port>
			</input>
			<output>
				<port id="1" precision="FP32">
					<dim>1</dim>
					<dim>256</dim>
					<dim>1</dim>
					<dim>1</dim>
				</port>
			</output>
		</layer>
		<layer id="205" name="BatchNormalization_11" type="Add" version="opset1">
			<data auto_broadcast="numpy"/>
			<input>
				<port id="0">
					<dim>1</dim>
					<dim>256</dim>
					<dim>160</dim>
					<dim>160</dim>
				</port>
				<port id="1">
					<dim>1</dim>
					<dim>256</dim>
					<dim>1</dim>
					<dim>1</dim>
				</port>
			</input>
			<output>
				<port id="2" precision="FP32" names="1025">
					<dim>1</dim>
					<dim>256</dim>
					<dim>160</dim>
					<dim>160</dim>
				</port>
			</output>
		</layer>
		<layer id="206" name="Add_20/fq_input_1" type="FakeQuantize" version="opset1">
			<data levels="256" auto_broadcast="numpy"/>
			<input>
				<port id="0">
					<dim>1</dim>
					<dim>256</dim>
					<dim>160</dim>
					<dim>160</dim>
				</port>
				<port id="1"/>
				<port id="2"/>
				<port id="3"/>
				<port id="4"/>
			</input>
			<output>
				<port id="5" precision="FP32">
					<dim>1</dim>
					<dim>256</dim>
					<dim>160</dim>
					<dim>160</dim>
				</port>
			</output>
		</layer>
		<layer id="207" name="Add_20" type="Add" version="opset1">
			<data auto_broadcast="numpy"/>
			<input>
				<port id="0">
					<dim>1</dim>
					<dim>256</dim>
					<dim>160</dim>
					<dim>160</dim>
				</port>
				<port id="1">
					<dim>1</dim>
					<dim>256</dim>
					<dim>160</dim>
					<dim>160</dim>
				</port>
			</input>
			<output>
				<port id="2" precision="FP32" names="1034">
					<dim>1</dim>
					<dim>256</dim>
					<dim>160</dim>
					<dim>160</dim>
				</port>
			</output>
		</layer>
		<layer id="208" name="Relu_21" type="ReLU" version="opset1">
			<input>
				<port id="0">
					<dim>1</dim>
					<dim>256</dim>
					<dim>160</dim>
					<dim>160</dim>
				</port>
			</input>
			<output>
				<port id="1" precision="FP32" names="1035">
					<dim>1</dim>
					<dim>256</dim>
					<dim>160</dim>
					<dim>160</dim>
				</port>
			</output>
		</layer>
		<layer id="209" name="Add_30/fq_input_1" type="FakeQuantize" version="opset1">
			<data levels="256" auto_broadcast="numpy"/>
			<input>
				<port id="0">
					<dim>1</dim>
					<dim>256</dim>
					<dim>160</dim>
					<dim>160</dim>
				</port>
				<port id="1"/>
				<port id="2"/>
				<port id="3"/>
				<port id="4"/>
			</input>
			<output>
				<port id="5" precision="FP32">
					<dim>1</dim>
					<dim>256</dim>
					<dim>160</dim>
					<dim>160</dim>
				</port>
			</output>
		</layer>
		<layer id="210" name="Multiply_71454/fq_weights_1/scale4903274683" type="Const" version="opset1">
			<data offset="88168" size="256" shape="64,1,1,1" element_type="f32"/>
			<output>
				<port id="0" precision="FP32">
					<dim>64</dim>
					<dim>1</dim>
					<dim>1</dim>
					<dim>1</dim>
				</port>
			</output>
		</layer>
		<layer id="211" name="Multiply_72576382439756/restored_convert/quantized4902469673" type="Const" version="opset1">
			<data offset="88424" size="16384" shape="64,256,1,1" element_type="i8"/>
			<output>
				<port id="0" precision="I8">
					<dim>64</dim>
					<dim>256</dim>
					<dim>1</dim>
					<dim>1</dim>
				</port>
			</output>
		</layer>
		<layer id="212" name="Multiply_72576382439756/restored_convert/quantized/to_f32" type="Convert" version="opset1">
			<data destination_type="f32"/>
			<input>
				<port id="0">
					<dim>64</dim>
					<dim>256</dim>
					<dim>1</dim>
					<dim>1</dim>
				</port>
			</input>
			<output>
				<port id="1" precision="FP32">
					<dim>64</dim>
					<dim>256</dim>
					<dim>1</dim>
					<dim>1</dim>
				</port>
			</output>
		</layer>
		<layer id="213" name="Multiply_71454/fq_weights_1/mulpiply_by_scale" type="Multiply" version="opset1">
			<data auto_broadcast="numpy"/>
			<input>
				<port id="0">
					<dim>64</dim>
					<dim>256</dim>
					<dim>1</dim>
					<dim>1</dim>
				</port>
				<port id="1">
					<dim>64</dim>
					<dim>1</dim>
					<dim>1</dim>
					<dim>1</dim>
				</port>
			</input>
			<output>
				<port id="2" precision="FP32">
					<dim>64</dim>
					<dim>256</dim>
					<dim>1</dim>
					<dim>1</dim>
				</port>
			</output>
		</layer>
		<layer id="214" name="Multiply_71454" type="Convolution" version="opset1">
			<data auto_pad="explicit" strides="1,1" dilations="1,1" pads_begin="0,0" pads_end="0,0"/>
			<input>
				<port id="0">
					<dim>1</dim>
					<dim>256</dim>
					<dim>160</dim>
					<dim>160</dim>
				</port>
				<port id="1">
					<dim>64</dim>
					<dim>256</dim>
					<dim>1</dim>
					<dim>1</dim>
				</port>
			</input>
			<output>
				<port id="2" precision="FP32">
					<dim>1</dim>
					<dim>64</dim>
					<dim>160</dim>
					<dim>160</dim>
				</port>
			</output>
		</layer>
		<layer id="215" name="Constant_71459382773414" type="Const" version="opset1">
			<data offset="104808" size="128" shape="1,64,1,1" element_type="f16"/>
			<output>
				<port id="0" precision="FP16">
					<dim>1</dim>
					<dim>64</dim>
					<dim>1</dim>
					<dim>1</dim>
				</port>
			</output>
		</layer>
		<layer id="216" name="Constant_71459382739757/restored_convert" type="Convert" version="opset1">
			<data destination_type="f32"/>
			<rt_info>
				<attribute name="decompression" version="0"/>
			</rt_info>
			<input>
				<port id="0">
					<dim>1</dim>
					<dim>64</dim>
					<dim>1</dim>
					<dim>1</dim>
				</port>
			</input>
			<output>
				<port id="1" precision="FP32">
					<dim>1</dim>
					<dim>64</dim>
					<dim>1</dim>
					<dim>1</dim>
				</port>
			</output>
		</layer>
		<layer id="217" name="BatchNormalization_23" type="Add" version="opset1">
			<data auto_broadcast="numpy"/>
			<input>
				<port id="0">
					<dim>1</dim>
					<dim>64</dim>
					<dim>160</dim>
					<dim>160</dim>
				</port>
				<port id="1">
					<dim>1</dim>
					<dim>64</dim>
					<dim>1</dim>
					<dim>1</dim>
				</port>
			</input>
			<output>
				<port id="2" precision="FP32" names="1037">
					<dim>1</dim>
					<dim>64</dim>
					<dim>160</dim>
					<dim>160</dim>
				</port>
			</output>
		</layer>
		<layer id="218" name="Relu_24" type="ReLU" version="opset1">
			<input>
				<port id="0">
					<dim>1</dim>
					<dim>64</dim>
					<dim>160</dim>
					<dim>160</dim>
				</port>
			</input>
			<output>
				<port id="1" precision="FP32" names="1038">
					<dim>1</dim>
					<dim>64</dim>
					<dim>160</dim>
					<dim>160</dim>
				</port>
			</output>
		</layer>
		<layer id="219" name="Multiply_71461/fq_input_0" type="FakeQuantize" version="opset1">
			<data levels="256" auto_broadcast="numpy"/>
			<input>
				<port id="0">
					<dim>1</dim>
					<dim>64</dim>
					<dim>160</dim>
					<dim>160</dim>
				</port>
				<port id="1"/>
				<port id="2"/>
				<port id="3"/>
				<port id="4"/>
			</input>
			<output>
				<port id="5" precision="FP32">
					<dim>1</dim>
					<dim>64</dim>
					<dim>160</dim>
					<dim>160</dim>
				</port>
			</output>
		</layer>
		<layer id="220" name="Multiply_71461/fq_weights_1/scale4642274377" type="Const" version="opset1">
			<data offset="104936" size="256" shape="64,1,1,1" element_type="f32"/>
			<output>
				<port id="0" precision="FP32">
					<dim>64</dim>
					<dim>1</dim>
					<dim>1</dim>
					<dim>1</dim>
				</port>
			</output>
		</layer>
		<layer id="221" name="Multiply_72585383139758/restored_convert/quantized4641468518" type="Const" version="opset1">
			<data offset="105192" size="36864" shape="64,64,3,3" element_type="i8"/>
			<output>
				<port id="0" precision="I8">
					<dim>64</dim>
					<dim>64</dim>
					<dim>3</dim>
					<dim>3</dim>
				</port>
			</output>
		</layer>
		<layer id="222" name="Multiply_72585383139758/restored_convert/quantized/to_f32" type="Convert" version="opset1">
			<data destination_type="f32"/>
			<input>
				<port id="0">
					<dim>64</dim>
					<dim>64</dim>
					<dim>3</dim>
					<dim>3</dim>
				</port>
			</input>
			<output>
				<port id="1" precision="FP32">
					<dim>64</dim>
					<dim>64</dim>
					<dim>3</dim>
					<dim>3</dim>
				</port>
			</output>
		</layer>
		<layer id="223" name="Multiply_71461/fq_weights_1/mulpiply_by_scale" type="Multiply" version="opset1">
			<data auto_broadcast="numpy"/>
			<input>
				<port id="0">
					<dim>64</dim>
					<dim>64</dim>
					<dim>3</dim>
					<dim>3</dim>
				</port>
				<port id="1">
					<dim>64</dim>
					<dim>1</dim>
					<dim>1</dim>
					<dim>1</dim>
				</port>
			</input>
			<output>
				<port id="2" precision="FP32">
					<dim>64</dim>
					<dim>64</dim>
					<dim>3</dim>
					<dim>3</dim>
				</port>
			</output>
		</layer>
		<layer id="224" name="Multiply_71461" type="Convolution" version="opset1">
			<data auto_pad="explicit" strides="1,1" dilations="1,1" pads_begin="1,1" pads_end="1,1"/>
			<input>
				<port id="0">
					<dim>1</dim>
					<dim>64</dim>
					<dim>160</dim>
					<dim>160</dim>
				</port>
				<port id="1">
					<dim>64</dim>
					<dim>64</dim>
					<dim>3</dim>
					<dim>3</dim>
				</port>
			</input>
			<output>
				<port id="2" precision="FP32">
					<dim>1</dim>
					<dim>64</dim>
					<dim>160</dim>
					<dim>160</dim>
				</port>
			</output>
		</layer>
		<layer id="225" name="Constant_71466383467861" type="Const" version="opset1">
			<data offset="142056" size="128" shape="1,64,1,1" element_type="f16"/>
			<output>
				<port id="0" precision="FP16">
					<dim>1</dim>
					<dim>64</dim>
					<dim>1</dim>
					<dim>1</dim>
				</port>
			</output>
		</layer>
		<layer id="226" name="Constant_71466383439759/restored_convert" type="Convert" version="opset1">
			<data destination_type="f32"/>
			<rt_info>
				<attribute name="decompression" version="0"/>
			</rt_info>
			<input>
				<port id="0">
					<dim>1</dim>
					<dim>64</dim>
					<dim>1</dim>
					<dim>1</dim>
				</port>
			</input>
			<output>
				<port id="1" precision="FP32">
					<dim>1</dim>
					<dim>64</dim>
					<dim>1</dim>
					<dim>1</dim>
				</port>
			</output>
		</layer>
		<layer id="227" name="BatchNormalization_26" type="Add" version="opset1">
			<data auto_broadcast="numpy"/>
			<input>
				<port id="0">
					<dim>1</dim>
					<dim>64</dim>
					<dim>160</dim>
					<dim>160</dim>
				</port>
				<port id="1">
					<dim>1</dim>
					<dim>64</dim>
					<dim>1</dim>
					<dim>1</dim>
				</port>
			</input>
			<output>
				<port id="2" precision="FP32" names="1040">
					<dim>1</dim>
					<dim>64</dim>
					<dim>160</dim>
					<dim>160</dim>
				</port>
			</output>
		</layer>
		<layer id="228" name="Relu_27" type="ReLU" version="opset1">
			<input>
				<port id="0">
					<dim>1</dim>
					<dim>64</dim>
					<dim>160</dim>
					<dim>160</dim>
				</port>
			</input>
			<output>
				<port id="1" precision="FP32" names="1041">
					<dim>1</dim>
					<dim>64</dim>
					<dim>160</dim>
					<dim>160</dim>
				</port>
			</output>
		</layer>
		<layer id="229" name="Multiply_71468/fq_input_0" type="FakeQuantize" version="opset1">
			<data levels="256" auto_broadcast="numpy"/>
			<input>
				<port id="0">
					<dim>1</dim>
					<dim>64</dim>
					<dim>160</dim>
					<dim>160</dim>
				</port>
				<port id="1"/>
				<port id="2"/>
				<port id="3"/>
				<port id="4"/>
			</input>
			<output>
				<port id="5" precision="FP32">
					<dim>1</dim>
					<dim>64</dim>
					<dim>160</dim>
					<dim>160</dim>
				</port>
			</output>
		</layer>
		<layer id="230" name="Multiply_71468/fq_weights_1/scale4495268530" type="Const" version="opset1">
			<data offset="142184" size="1024" shape="256,1,1,1" element_type="f32"/>
			<output>
				<port id="0" precision="FP32">
					<dim>256</dim>
					<dim>1</dim>
					<dim>1</dim>
					<dim>1</dim>
				</port>
			</output>
		</layer>
		<layer id="231" name="Multiply_72594383839760/restored_convert/quantized4494473099" type="Const" version="opset1">
			<data offset="143208" size="16384" shape="256,64,1,1" element_type="i8"/>
			<output>
				<port id="0" precision="I8">
					<dim>256</dim>
					<dim>64</dim>
					<dim>1</dim>
					<dim>1</dim>
				</port>
			</output>
		</layer>
		<layer id="232" name="Multiply_72594383839760/restored_convert/quantized/to_f32" type="Convert" version="opset1">
			<data destination_type="f32"/>
			<input>
				<port id="0">
					<dim>256</dim>
					<dim>64</dim>
					<dim>1</dim>
					<dim>1</dim>
				</port>
			</input>
			<output>
				<port id="1" precision="FP32">
					<dim>256</dim>
					<dim>64</dim>
					<dim>1</dim>
					<dim>1</dim>
				</port>
			</output>
		</layer>
		<layer id="233" name="Multiply_71468/fq_weights_1/mulpiply_by_scale" type="Multiply" version="opset1">
			<data auto_broadcast="numpy"/>
			<input>
				<port id="0">
					<dim>256</dim>
					<dim>64</dim>
					<dim>1</dim>
					<dim>1</dim>
				</port>
				<port id="1">
					<dim>256</dim>
					<dim>1</dim>
					<dim>1</dim>
					<dim>1</dim>
				</port>
			</input>
			<output>
				<port id="2" precision="FP32">
					<dim>256</dim>
					<dim>64</dim>
					<dim>1</dim>
					<dim>1</dim>
				</port>
			</output>
		</layer>
		<layer id="234" name="Multiply_71468" type="Convolution" version="opset1">
			<data auto_pad="explicit" strides="1,1" dilations="1,1" pads_begin="0,0" pads_end="0,0"/>
			<input>
				<port id="0">
					<dim>1</dim>
					<dim>64</dim>
					<dim>160</dim>
					<dim>160</dim>
				</port>
				<port id="1">
					<dim>256</dim>
					<dim>64</dim>
					<dim>1</dim>
					<dim>1</dim>
				</port>
			</input>
			<output>
				<port id="2" precision="FP32">
					<dim>1</dim>
					<dim>256</dim>
					<dim>160</dim>
					<dim>160</dim>
				</port>
			</output>
		</layer>
		<layer id="235" name="Constant_71473384173861" type="Const" version="opset1">
			<data offset="159592" size="512" shape="1,256,1,1" element_type="f16"/>
			<output>
				<port id="0" precision="FP16">
					<dim>1</dim>
					<dim>256</dim>
					<dim>1</dim>
					<dim>1</dim>
				</port>
			</output>
		</layer>
		<layer id="236" name="Constant_71473384139761/restored_convert" type="Convert" version="opset1">
			<data destination_type="f32"/>
			<rt_info>
				<attribute name="decompression" version="0"/>
			</rt_info>
			<input>
				<port id="0">
					<dim>1</dim>
					<dim>256</dim>
					<dim>1</dim>
					<dim>1</dim>
				</port>
			</input>
			<output>
				<port id="1" precision="FP32">
					<dim>1</dim>
					<dim>256</dim>
					<dim>1</dim>
					<dim>1</dim>
				</port>
			</output>
		</layer>
		<layer id="237" name="BatchNormalization_29" type="Add" version="opset1">
			<data auto_broadcast="numpy"/>
			<input>
				<port id="0">
					<dim>1</dim>
					<dim>256</dim>
					<dim>160</dim>
					<dim>160</dim>
				</port>
				<port id="1">
					<dim>1</dim>
					<dim>256</dim>
					<dim>1</dim>
					<dim>1</dim>
				</port>
			</input>
			<output>
				<port id="2" precision="FP32" names="1043">
					<dim>1</dim>
					<dim>256</dim>
					<dim>160</dim>
					<dim>160</dim>
				</port>
			</output>
		</layer>
		<layer id="238" name="Add_30/fq_input_0" type="FakeQuantize" version="opset1">
			<data levels="256" auto_broadcast="numpy"/>
			<input>
				<port id="0">
					<dim>1</dim>
					<dim>256</dim>
					<dim>160</dim>
					<dim>160</dim>
				</port>
				<port id="1"/>
				<port id="2"/>
				<port id="3"/>
				<port id="4"/>
			</input>
			<output>
				<port id="5" precision="FP32">
					<dim>1</dim>
					<dim>256</dim>
					<dim>160</dim>
					<dim>160</dim>
				</port>
			</output>
		</layer>
		<layer id="239" name="Add_30" type="Add" version="opset1">
			<data auto_broadcast="numpy"/>
			<input>
				<port id="0">
					<dim>1</dim>
					<dim>256</dim>
					<dim>160</dim>
					<dim>160</dim>
				</port>
				<port id="1">
					<dim>1</dim>
					<dim>256</dim>
					<dim>160</dim>
					<dim>160</dim>
				</port>
			</input>
			<output>
				<port id="2" precision="FP32" names="1044">
					<dim>1</dim>
					<dim>256</dim>
					<dim>160</dim>
					<dim>160</dim>
				</port>
			</output>
		</layer>
		<layer id="240" name="Relu_31" type="ReLU" version="opset1">
			<input>
				<port id="0">
					<dim>1</dim>
					<dim>256</dim>
					<dim>160</dim>
					<dim>160</dim>
				</port>
			</input>
			<output>
				<port id="1" precision="FP32" names="1045">
					<dim>1</dim>
					<dim>256</dim>
					<dim>160</dim>
					<dim>160</dim>
				</port>
			</output>
		</layer>
		<layer id="241" name="Add_40/fq_input_1" type="FakeQuantize" version="opset1">
			<data levels="256" auto_broadcast="numpy"/>
			<input>
				<port id="0">
					<dim>1</dim>
					<dim>256</dim>
					<dim>160</dim>
					<dim>160</dim>
				</port>
				<port id="1"/>
				<port id="2"/>
				<port id="3"/>
				<port id="4"/>
			</input>
			<output>
				<port id="5" precision="FP32">
					<dim>1</dim>
					<dim>256</dim>
					<dim>160</dim>
					<dim>160</dim>
				</port>
			</output>
		</layer>
		<layer id="242" name="Multiply_71475/fq_weights_1/scale4885266649" type="Const" version="opset1">
			<data offset="160104" size="256" shape="64,1,1,1" element_type="f32"/>
			<output>
				<port id="0" precision="FP32">
					<dim>64</dim>
					<dim>1</dim>
					<dim>1</dim>
					<dim>1</dim>
				</port>
			</output>
		</layer>
		<layer id="243" name="Multiply_72603384639762/restored_convert/quantized4884466736" type="Const" version="opset1">
			<data offset="160360" size="16384" shape="64,256,1,1" element_type="i8"/>
			<output>
				<port id="0" precision="I8">
					<dim>64</dim>
					<dim>256</dim>
					<dim>1</dim>
					<dim>1</dim>
				</port>
			</output>
		</layer>
		<layer id="244" name="Multiply_72603384639762/restored_convert/quantized/to_f32" type="Convert" version="opset1">
			<data destination_type="f32"/>
			<input>
				<port id="0">
					<dim>64</dim>
					<dim>256</dim>
					<dim>1</dim>
					<dim>1</dim>
				</port>
			</input>
			<output>
				<port id="1" precision="FP32">
					<dim>64</dim>
					<dim>256</dim>
					<dim>1</dim>
					<dim>1</dim>
				</port>
			</output>
		</layer>
		<layer id="245" name="Multiply_71475/fq_weights_1/mulpiply_by_scale" type="Multiply" version="opset1">
			<data auto_broadcast="numpy"/>
			<input>
				<port id="0">
					<dim>64</dim>
					<dim>256</dim>
					<dim>1</dim>
					<dim>1</dim>
				</port>
				<port id="1">
					<dim>64</dim>
					<dim>1</dim>
					<dim>1</dim>
					<dim>1</dim>
				</port>
			</input>
			<output>
				<port id="2" precision="FP32">
					<dim>64</dim>
					<dim>256</dim>
					<dim>1</dim>
					<dim>1</dim>
				</port>
			</output>
		</layer>
		<layer id="246" name="Multiply_71475" type="Convolution" version="opset1">
			<data auto_pad="explicit" strides="1,1" dilations="1,1" pads_begin="0,0" pads_end="0,0"/>
			<input>
				<port id="0">
					<dim>1</dim>
					<dim>256</dim>
					<dim>160</dim>
					<dim>160</dim>
				</port>
				<port id="1">
					<dim>64</dim>
					<dim>256</dim>
					<dim>1</dim>
					<dim>1</dim>
				</port>
			</input>
			<output>
				<port id="2" precision="FP32">
					<dim>1</dim>
					<dim>64</dim>
					<dim>160</dim>
					<dim>160</dim>
				</port>
			</output>
		</layer>
		<layer id="247" name="Constant_71480384974383" type="Const" version="opset1">
			<data offset="176744" size="128" shape="1,64,1,1" element_type="f16"/>
			<output>
				<port id="0" precision="FP16">
					<dim>1</dim>
					<dim>64</dim>
					<dim>1</dim>
					<dim>1</dim>
				</port>
			</output>
		</layer>
		<layer id="248" name="Constant_71480384939763/restored_convert" type="Convert" version="opset1">
			<data destination_type="f32"/>
			<rt_info>
				<attribute name="decompression" version="0"/>
			</rt_info>
			<input>
				<port id="0">
					<dim>1</dim>
					<dim>64</dim>
					<dim>1</dim>
					<dim>1</dim>
				</port>
			</input>
			<output>
				<port id="1" precision="FP32">
					<dim>1</dim>
					<dim>64</dim>
					<dim>1</dim>
					<dim>1</dim>
				</port>
			</output>
		</layer>
		<layer id="249" name="BatchNormalization_33" type="Add" version="opset1">
			<data auto_broadcast="numpy"/>
			<input>
				<port id="0">
					<dim>1</dim>
					<dim>64</dim>
					<dim>160</dim>
					<dim>160</dim>
				</port>
				<port id="1">
					<dim>1</dim>
					<dim>64</dim>
					<dim>1</dim>
					<dim>1</dim>
				</port>
			</input>
			<output>
				<port id="2" precision="FP32" names="1047">
					<dim>1</dim>
					<dim>64</dim>
					<dim>160</dim>
					<dim>160</dim>
				</port>
			</output>
		</layer>
		<layer id="250" name="Relu_34" type="ReLU" version="opset1">
			<input>
				<port id="0">
					<dim>1</dim>
					<dim>64</dim>
					<dim>160</dim>
					<dim>160</dim>
				</port>
			</input>
			<output>
				<port id="1" precision="FP32" names="1048">
					<dim>1</dim>
					<dim>64</dim>
					<dim>160</dim>
					<dim>160</dim>
				</port>
			</output>
		</layer>
		<layer id="251" name="Multiply_71482/fq_input_0" type="FakeQuantize" version="opset1">
			<data levels="256" auto_broadcast="numpy"/>
			<input>
				<port id="0">
					<dim>1</dim>
					<dim>64</dim>
					<dim>160</dim>
					<dim>160</dim>
				</port>
				<port id="1"/>
				<port id="2"/>
				<port id="3"/>
				<port id="4"/>
			</input>
			<output>
				<port id="5" precision="FP32">
					<dim>1</dim>
					<dim>64</dim>
					<dim>160</dim>
					<dim>160</dim>
				</port>
			</output>
		</layer>
		<layer id="252" name="Multiply_71482/fq_weights_1/scale4618273768" type="Const" version="opset1">
			<data offset="176872" size="256" shape="64,1,1,1" element_type="f32"/>
			<output>
				<port id="0" precision="FP32">
					<dim>64</dim>
					<dim>1</dim>
					<dim>1</dim>
					<dim>1</dim>
				</port>
			</output>
		</layer>
		<layer id="253" name="Multiply_72612385339764/restored_convert/quantized4617472154" type="Const" version="opset1">
			<data offset="177128" size="36864" shape="64,64,3,3" element_type="i8"/>
			<output>
				<port id="0" precision="I8">
					<dim>64</dim>
					<dim>64</dim>
					<dim>3</dim>
					<dim>3</dim>
				</port>
			</output>
		</layer>
		<layer id="254" name="Multiply_72612385339764/restored_convert/quantized/to_f32" type="Convert" version="opset1">
			<data destination_type="f32"/>
			<input>
				<port id="0">
					<dim>64</dim>
					<dim>64</dim>
					<dim>3</dim>
					<dim>3</dim>
				</port>
			</input>
			<output>
				<port id="1" precision="FP32">
					<dim>64</dim>
					<dim>64</dim>
					<dim>3</dim>
					<dim>3</dim>
				</port>
			</output>
		</layer>
		<layer id="255" name="Multiply_71482/fq_weights_1/mulpiply_by_scale" type="Multiply" version="opset1">
			<data auto_broadcast="numpy"/>
			<input>
				<port id="0">
					<dim>64</dim>
					<dim>64</dim>
					<dim>3</dim>
					<dim>3</dim>
				</port>
				<port id="1">
					<dim>64</dim>
					<dim>1</dim>
					<dim>1</dim>
					<dim>1</dim>
				</port>
			</input>
			<output>
				<port id="2" precision="FP32">
					<dim>64</dim>
					<dim>64</dim>
					<dim>3</dim>
					<dim>3</dim>
				</port>
			</output>
		</layer>
		<layer id="256" name="Multiply_71482" type="Convolution" version="opset1">
			<data auto_pad="explicit" strides="1,1" dilations="1,1" pads_begin="1,1" pads_end="1,1"/>
			<input>
				<port id="0">
					<dim>1</dim>
					<dim>64</dim>
					<dim>160</dim>
					<dim>160</dim>
				</port>
				<port id="1">
					<dim>64</dim>
					<dim>64</dim>
					<dim>3</dim>
					<dim>3</dim>
				</port>
			</input>
			<output>
				<port id="2" precision="FP32">
					<dim>1</dim>
					<dim>64</dim>
					<dim>160</dim>
					<dim>160</dim>
				</port>
			</output>
		</layer>
		<layer id="257" name="Constant_71487385670669" type="Const" version="opset1">
			<data offset="213992" size="128" shape="1,64,1,1" element_type="f16"/>
			<output>
				<port id="0" precision="FP16">
					<dim>1</dim>
					<dim>64</dim>
					<dim>1</dim>
					<dim>1</dim>
				</port>
			</output>
		</layer>
		<layer id="258" name="Constant_71487385639765/restored_convert" type="Convert" version="opset1">
			<data destination_type="f32"/>
			<rt_info>
				<attribute name="decompression" version="0"/>
			</rt_info>
			<input>
				<port id="0">
					<dim>1</dim>
					<dim>64</dim>
					<dim>1</dim>
					<dim>1</dim>
				</port>
			</input>
			<output>
				<port id="1" precision="FP32">
					<dim>1</dim>
					<dim>64</dim>
					<dim>1</dim>
					<dim>1</dim>
				</port>
			</output>
		</layer>
		<layer id="259" name="BatchNormalization_36" type="Add" version="opset1">
			<data auto_broadcast="numpy"/>
			<input>
				<port id="0">
					<dim>1</dim>
					<dim>64</dim>
					<dim>160</dim>
					<dim>160</dim>
				</port>
				<port id="1">
					<dim>1</dim>
					<dim>64</dim>
					<dim>1</dim>
					<dim>1</dim>
				</port>
			</input>
			<output>
				<port id="2" precision="FP32" names="1050">
					<dim>1</dim>
					<dim>64</dim>
					<dim>160</dim>
					<dim>160</dim>
				</port>
			</output>
		</layer>
		<layer id="260" name="Relu_37" type="ReLU" version="opset1">
			<input>
				<port id="0">
					<dim>1</dim>
					<dim>64</dim>
					<dim>160</dim>
					<dim>160</dim>
				</port>
			</input>
			<output>
				<port id="1" precision="FP32" names="1051">
					<dim>1</dim>
					<dim>64</dim>
					<dim>160</dim>
					<dim>160</dim>
				</port>
			</output>
		</layer>
		<layer id="261" name="Multiply_71489/fq_input_0" type="FakeQuantize" version="opset1">
			<data levels="256" auto_broadcast="numpy"/>
			<input>
				<port id="0">
					<dim>1</dim>
					<dim>64</dim>
					<dim>160</dim>
					<dim>160</dim>
				</port>
				<port id="1"/>
				<port id="2"/>
				<port id="3"/>
				<port id="4"/>
			</input>
			<output>
				<port id="5" precision="FP32">
					<dim>1</dim>
					<dim>64</dim>
					<dim>160</dim>
					<dim>160</dim>
				</port>
			</output>
		</layer>
		<layer id="262" name="Multiply_71489/fq_weights_1/scale4462267711" type="Const" version="opset1">
			<data offset="214120" size="1024" shape="256,1,1,1" element_type="f32"/>
			<output>
				<port id="0" precision="FP32">
					<dim>256</dim>
					<dim>1</dim>
					<dim>1</dim>
					<dim>1</dim>
				</port>
			</output>
		</layer>
		<layer id="263" name="Multiply_72621386039766/restored_convert/quantized4461467543" type="Const" version="opset1">
			<data offset="215144" size="16384" shape="256,64,1,1" element_type="i8"/>
			<output>
				<port id="0" precision="I8">
					<dim>256</dim>
					<dim>64</dim>
					<dim>1</dim>
					<dim>1</dim>
				</port>
			</output>
		</layer>
		<layer id="264" name="Multiply_72621386039766/restored_convert/quantized/to_f32" type="Convert" version="opset1">
			<data destination_type="f32"/>
			<input>
				<port id="0">
					<dim>256</dim>
					<dim>64</dim>
					<dim>1</dim>
					<dim>1</dim>
				</port>
			</input>
			<output>
				<port id="1" precision="FP32">
					<dim>256</dim>
					<dim>64</dim>
					<dim>1</dim>
					<dim>1</dim>
				</port>
			</output>
		</layer>
		<layer id="265" name="Multiply_71489/fq_weights_1/mulpiply_by_scale" type="Multiply" version="opset1">
			<data auto_broadcast="numpy"/>
			<input>
				<port id="0">
					<dim>256</dim>
					<dim>64</dim>
					<dim>1</dim>
					<dim>1</dim>
				</port>
				<port id="1">
					<dim>256</dim>
					<dim>1</dim>
					<dim>1</dim>
					<dim>1</dim>
				</port>
			</input>
			<output>
				<port id="2" precision="FP32">
					<dim>256</dim>
					<dim>64</dim>
					<dim>1</dim>
					<dim>1</dim>
				</port>
			</output>
		</layer>
		<layer id="266" name="Multiply_71489" type="Convolution" version="opset1">
			<data auto_pad="explicit" strides="1,1" dilations="1,1" pads_begin="0,0" pads_end="0,0"/>
			<input>
				<port id="0">
					<dim>1</dim>
					<dim>64</dim>
					<dim>160</dim>
					<dim>160</dim>
				</port>
				<port id="1">
					<dim>256</dim>
					<dim>64</dim>
					<dim>1</dim>
					<dim>1</dim>
				</port>
			</input>
			<output>
				<port id="2" precision="FP32">
					<dim>1</dim>
					<dim>256</dim>
					<dim>160</dim>
					<dim>160</dim>
				</port>
			</output>
		</layer>
		<layer id="267" name="Constant_71494386371467" type="Const" version="opset1">
			<data offset="231528" size="512" shape="1,256,1,1" element_type="f16"/>
			<output>
				<port id="0" precision="FP16">
					<dim>1</dim>
					<dim>256</dim>
					<dim>1</dim>
					<dim>1</dim>
				</port>
			</output>
		</layer>
		<layer id="268" name="Constant_71494386339767/restored_convert" type="Convert" version="opset1">
			<data destination_type="f32"/>
			<rt_info>
				<attribute name="decompression" version="0"/>
			</rt_info>
			<input>
				<port id="0">
					<dim>1</dim>
					<dim>256</dim>
					<dim>1</dim>
					<dim>1</dim>
				</port>
			</input>
			<output>
				<port id="1" precision="FP32">
					<dim>1</dim>
					<dim>256</dim>
					<dim>1</dim>
					<dim>1</dim>
				</port>
			</output>
		</layer>
		<layer id="269" name="BatchNormalization_39" type="Add" version="opset1">
			<data auto_broadcast="numpy"/>
			<input>
				<port id="0">
					<dim>1</dim>
					<dim>256</dim>
					<dim>160</dim>
					<dim>160</dim>
				</port>
				<port id="1">
					<dim>1</dim>
					<dim>256</dim>
					<dim>1</dim>
					<dim>1</dim>
				</port>
			</input>
			<output>
				<port id="2" precision="FP32" names="1053">
					<dim>1</dim>
					<dim>256</dim>
					<dim>160</dim>
					<dim>160</dim>
				</port>
			</output>
		</layer>
		<layer id="270" name="Add_40/fq_input_0" type="FakeQuantize" version="opset1">
			<data levels="256" auto_broadcast="numpy"/>
			<input>
				<port id="0">
					<dim>1</dim>
					<dim>256</dim>
					<dim>160</dim>
					<dim>160</dim>
				</port>
				<port id="1"/>
				<port id="2"/>
				<port id="3"/>
				<port id="4"/>
			</input>
			<output>
				<port id="5" precision="FP32">
					<dim>1</dim>
					<dim>256</dim>
					<dim>160</dim>
					<dim>160</dim>
				</port>
			</output>
		</layer>
		<layer id="271" name="Add_40" type="Add" version="opset1">
			<data auto_broadcast="numpy"/>
			<input>
				<port id="0">
					<dim>1</dim>
					<dim>256</dim>
					<dim>160</dim>
					<dim>160</dim>
				</port>
				<port id="1">
					<dim>1</dim>
					<dim>256</dim>
					<dim>160</dim>
					<dim>160</dim>
				</port>
			</input>
			<output>
				<port id="2" precision="FP32" names="1054">
					<dim>1</dim>
					<dim>256</dim>
					<dim>160</dim>
					<dim>160</dim>
				</port>
			</output>
		</layer>
		<layer id="272" name="Relu_41" type="ReLU" version="opset1">
			<input>
				<port id="0">
					<dim>1</dim>
					<dim>256</dim>
					<dim>160</dim>
					<dim>160</dim>
				</port>
			</input>
			<output>
				<port id="1" precision="FP32" names="1055">
					<dim>1</dim>
					<dim>256</dim>
					<dim>160</dim>
					<dim>160</dim>
				</port>
			</output>
		</layer>
		<layer id="273" name="Conv_518/WithoutBiases/fq_input_0" type="FakeQuantize" version="opset1">
			<data levels="256" auto_broadcast="numpy"/>
			<input>
				<port id="0">
					<dim>1</dim>
					<dim>256</dim>
					<dim>160</dim>
					<dim>160</dim>
				</port>
				<port id="1"/>
				<port id="2"/>
				<port id="3"/>
				<port id="4"/>
			</input>
			<output>
				<port id="5" precision="FP32">
					<dim>1</dim>
					<dim>256</dim>
					<dim>160</dim>
					<dim>160</dim>
				</port>
			</output>
		</layer>
		<layer id="274" name="Conv_518/WithoutBiases/fq_weights_1/scale4555270450" type="Const" version="opset1">
			<data offset="232040" size="1024" shape="256,1,1,1" element_type="f32"/>
			<output>
				<port id="0" precision="FP32">
					<dim>256</dim>
					<dim>1</dim>
					<dim>1</dim>
					<dim>1</dim>
				</port>
			</output>
		</layer>
		<layer id="275" name="neck.lateral_convs.0.conv.weight386839768/restored_convert/quantized4554466505" type="Const" version="opset1">
			<data offset="233064" size="65536" shape="256,256,1,1" element_type="i8"/>
			<output>
				<port id="0" precision="I8">
					<dim>256</dim>
					<dim>256</dim>
					<dim>1</dim>
					<dim>1</dim>
				</port>
			</output>
		</layer>
		<layer id="276" name="neck.lateral_convs.0.conv.weight386839768/restored_convert/quantized/to_f32" type="Convert" version="opset1">
			<data destination_type="f32"/>
			<input>
				<port id="0">
					<dim>256</dim>
					<dim>256</dim>
					<dim>1</dim>
					<dim>1</dim>
				</port>
			</input>
			<output>
				<port id="1" precision="FP32">
					<dim>256</dim>
					<dim>256</dim>
					<dim>1</dim>
					<dim>1</dim>
				</port>
			</output>
		</layer>
		<layer id="277" name="Conv_518/WithoutBiases/fq_weights_1/mulpiply_by_scale" type="Multiply" version="opset1">
			<data auto_broadcast="numpy"/>
			<input>
				<port id="0">
					<dim>256</dim>
					<dim>256</dim>
					<dim>1</dim>
					<dim>1</dim>
				</port>
				<port id="1">
					<dim>256</dim>
					<dim>1</dim>
					<dim>1</dim>
					<dim>1</dim>
				</port>
			</input>
			<output>
				<port id="2" precision="FP32">
					<dim>256</dim>
					<dim>256</dim>
					<dim>1</dim>
					<dim>1</dim>
				</port>
			</output>
		</layer>
		<layer id="278" name="Conv_518/WithoutBiases" type="Convolution" version="opset1">
			<data auto_pad="explicit" strides="1,1" dilations="1,1" pads_begin="0,0" pads_end="0,0"/>
			<input>
				<port id="0">
					<dim>1</dim>
					<dim>256</dim>
					<dim>160</dim>
					<dim>160</dim>
				</port>
				<port id="1">
					<dim>256</dim>
					<dim>256</dim>
					<dim>1</dim>
					<dim>1</dim>
				</port>
			</input>
			<output>
				<port id="2" precision="FP32">
					<dim>1</dim>
					<dim>256</dim>
					<dim>160</dim>
					<dim>160</dim>
				</port>
			</output>
		</layer>
		<layer id="279" name="Reshape_2106387173240" type="Const" version="opset1">
			<data offset="298600" size="512" shape="1,256,1,1" element_type="f16"/>
			<output>
				<port id="0" precision="FP16">
					<dim>1</dim>
					<dim>256</dim>
					<dim>1</dim>
					<dim>1</dim>
				</port>
			</output>
		</layer>
		<layer id="280" name="Reshape_2106387139769/restored_convert" type="Convert" version="opset1">
			<data destination_type="f32"/>
			<rt_info>
				<attribute name="decompression" version="0"/>
			</rt_info>
			<input>
				<port id="0">
					<dim>1</dim>
					<dim>256</dim>
					<dim>1</dim>
					<dim>1</dim>
				</port>
			</input>
			<output>
				<port id="1" precision="FP32">
					<dim>1</dim>
					<dim>256</dim>
					<dim>1</dim>
					<dim>1</dim>
				</port>
			</output>
		</layer>
		<layer id="281" name="Conv_518" type="Add" version="opset1">
			<data auto_broadcast="numpy"/>
			<input>
				<port id="0">
					<dim>1</dim>
					<dim>256</dim>
					<dim>160</dim>
					<dim>160</dim>
				</port>
				<port id="1">
					<dim>1</dim>
					<dim>256</dim>
					<dim>1</dim>
					<dim>1</dim>
				</port>
			</input>
			<output>
				<port id="2" precision="FP32" names="1532">
					<dim>1</dim>
					<dim>256</dim>
					<dim>160</dim>
					<dim>160</dim>
				</port>
			</output>
		</layer>
		<layer id="282" name="Add_584/fq_input_0" type="FakeQuantize" version="opset1">
			<data levels="256" auto_broadcast="numpy"/>
			<input>
				<port id="0">
					<dim>1</dim>
					<dim>256</dim>
					<dim>160</dim>
					<dim>160</dim>
				</port>
				<port id="1"/>
				<port id="2"/>
				<port id="3"/>
				<port id="4"/>
			</input>
			<output>
				<port id="5" precision="FP32">
					<dim>1</dim>
					<dim>256</dim>
					<dim>160</dim>
					<dim>160</dim>
				</port>
			</output>
		</layer>
		<layer id="283" name="139861399069067" type="Const" version="opset1">
			<data offset="299112" size="4" shape="" element_type="f32"/>
			<output>
				<port id="0" precision="FP32"/>
			</output>
		</layer>
		<layer id="284" name="139871399174161" type="Const" version="opset1">
			<data offset="299116" size="4" shape="" element_type="f32"/>
			<output>
				<port id="0" precision="FP32"/>
			</output>
		</layer>
		<layer id="285" name="139881399266154" type="Const" version="opset1">
			<data offset="299112" size="4" shape="" element_type="f32"/>
			<output>
				<port id="0" precision="FP32"/>
			</output>
		</layer>
		<layer id="286" name="139891399373852" type="Const" version="opset1">
			<data offset="299116" size="4" shape="" element_type="f32"/>
			<output>
				<port id="0" precision="FP32"/>
			</output>
		</layer>
		<layer id="287" name="1587498366349" type="Const" version="opset1">
			<data offset="299120" size="8" shape="2" element_type="f32"/>
			<output>
				<port id="0" precision="FP32" names="1587">
					<dim>2</dim>
				</port>
			</output>
		</layer>
		<layer id="288" name="Shape_564" type="ShapeOf" version="opset3">
			<data output_type="i64"/>
			<input>
				<port id="0">
					<dim>1</dim>
					<dim>256</dim>
					<dim>160</dim>
					<dim>160</dim>
				</port>
			</input>
			<output>
				<port id="1" precision="I64" names="1578,1581">
					<dim>4</dim>
				</port>
			</output>
		</layer>
		<layer id="289" name="Constant_346494985" type="Const" version="opset1">
			<data offset="299128" size="8" shape="2" element_type="i32"/>
			<output>
				<port id="0" precision="I32">
					<dim>2</dim>
				</port>
			</output>
		</layer>
		<layer id="290" name="Constant_346504986" type="Const" version="opset1">
			<data offset="299136" size="8" shape="" element_type="i64"/>
			<output>
				<port id="0" precision="I64"/>
			</output>
		</layer>
		<layer id="291" name="Gather_34651" type="Gather" version="opset8">
			<data batch_dims="0"/>
			<input>
				<port id="0">
					<dim>4</dim>
				</port>
				<port id="1">
					<dim>2</dim>
				</port>
				<port id="2"/>
			</input>
			<output>
				<port id="3" precision="I64" names="1586">
					<dim>2</dim>
				</port>
			</output>
		</layer>
		<layer id="292" name="Cast_574" type="Convert" version="opset1">
			<data destination_type="f32"/>
			<input>
				<port id="0">
					<dim>2</dim>
				</port>
			</input>
			<output>
				<port id="1" precision="FP32" names="1588">
					<dim>2</dim>
				</port>
			</output>
		</layer>
		<layer id="293" name="183461835069016" type="Const" version="opset1">
			<data offset="299144" size="4" shape="" element_type="f32"/>
			<output>
				<port id="0" precision="FP32"/>
			</output>
		</layer>
		<layer id="294" name="183471835167729" type="Const" version="opset1">
			<data offset="299148" size="4" shape="" element_type="f32"/>
			<output>
				<port id="0" precision="FP32"/>
			</output>
		</layer>
		<layer id="295" name="183481835271371" type="Const" version="opset1">
			<data offset="299144" size="4" shape="" element_type="f32"/>
			<output>
				<port id="0" precision="FP32"/>
			</output>
		</layer>
		<layer id="296" name="183491835374983" type="Const" version="opset1">
			<data offset="299148" size="4" shape="" element_type="f32"/>
			<output>
				<port id="0" precision="FP32"/>
			</output>
		</layer>
		<layer id="297" name="140161402071944" type="Const" version="opset1">
			<data offset="0" size="4" shape="" element_type="f32"/>
			<output>
				<port id="0" precision="FP32"/>
			</output>
		</layer>
		<layer id="298" name="140171402166754" type="Const" version="opset1">
			<data offset="299152" size="4" shape="" element_type="f32"/>
			<output>
				<port id="0" precision="FP32"/>
			</output>
		</layer>
		<layer id="299" name="140181402273624" type="Const" version="opset1">
			<data offset="0" size="4" shape="" element_type="f32"/>
			<output>
				<port id="0" precision="FP32"/>
			</output>
		</layer>
		<layer id="300" name="140191402373450" type="Const" version="opset1">
			<data offset="299152" size="4" shape="" element_type="f32"/>
			<output>
				<port id="0" precision="FP32"/>
			</output>
		</layer>
		<layer id="301" name="136861369068062" type="Const" version="opset1">
			<data offset="299156" size="4" shape="" element_type="f32"/>
			<output>
				<port id="0" precision="FP32"/>
			</output>
		</layer>
		<layer id="302" name="136871369171854" type="Const" version="opset1">
			<data offset="299160" size="4" shape="" element_type="f32"/>
			<output>
				<port id="0" precision="FP32"/>
			</output>
		</layer>
		<layer id="303" name="136881369266703" type="Const" version="opset1">
			<data offset="299156" size="4" shape="" element_type="f32"/>
			<output>
				<port id="0" precision="FP32"/>
			</output>
		</layer>
		<layer id="304" name="136891369368662" type="Const" version="opset1">
			<data offset="299160" size="4" shape="" element_type="f32"/>
			<output>
				<port id="0" precision="FP32"/>
			</output>
		</layer>
		<layer id="305" name="186761868069376" type="Const" version="opset1">
			<data offset="0" size="4" shape="" element_type="f32"/>
			<output>
				<port id="0" precision="FP32"/>
			</output>
		</layer>
		<layer id="306" name="186771868170435" type="Const" version="opset1">
			<data offset="299164" size="4" shape="" element_type="f32"/>
			<output>
				<port id="0" precision="FP32"/>
			</output>
		</layer>
		<layer id="307" name="186781868273081" type="Const" version="opset1">
			<data offset="0" size="4" shape="" element_type="f32"/>
			<output>
				<port id="0" precision="FP32"/>
			</output>
		</layer>
		<layer id="308" name="186791868374857" type="Const" version="opset1">
			<data offset="299164" size="4" shape="" element_type="f32"/>
			<output>
				<port id="0" precision="FP32"/>
			</output>
		</layer>
		<layer id="309" name="158261583069370" type="Const" version="opset1">
			<data offset="0" size="4" shape="" element_type="f32"/>
			<output>
				<port id="0" precision="FP32"/>
			</output>
		</layer>
		<layer id="310" name="158271583174155" type="Const" version="opset1">
			<data offset="299168" size="4" shape="" element_type="f32"/>
			<output>
				<port id="0" precision="FP32"/>
			</output>
		</layer>
		<layer id="311" name="158281583272763" type="Const" version="opset1">
			<data offset="0" size="4" shape="" element_type="f32"/>
			<output>
				<port id="0" precision="FP32"/>
			</output>
		</layer>
		<layer id="312" name="158291583374329" type="Const" version="opset1">
			<data offset="299168" size="4" shape="" element_type="f32"/>
			<output>
				<port id="0" precision="FP32"/>
			</output>
		</layer>
		<layer id="313" name="136961370067390" type="Const" version="opset1">
			<data offset="0" size="4" shape="" element_type="f32"/>
			<output>
				<port id="0" precision="FP32"/>
			</output>
		</layer>
		<layer id="314" name="136971370166556" type="Const" version="opset1">
			<data offset="299172" size="4" shape="" element_type="f32"/>
			<output>
				<port id="0" precision="FP32"/>
			</output>
		</layer>
		<layer id="315" name="136981370270975" type="Const" version="opset1">
			<data offset="0" size="4" shape="" element_type="f32"/>
			<output>
				<port id="0" precision="FP32"/>
			</output>
		</layer>
		<layer id="316" name="136991370367813" type="Const" version="opset1">
			<data offset="299172" size="4" shape="" element_type="f32"/>
			<output>
				<port id="0" precision="FP32"/>
			</output>
		</layer>
		<layer id="317" name="131461315068122" type="Const" version="opset1">
			<data offset="299176" size="4" shape="" element_type="f32"/>
			<output>
				<port id="0" precision="FP32"/>
			</output>
		</layer>
		<layer id="318" name="131471315168779" type="Const" version="opset1">
			<data offset="299180" size="4" shape="" element_type="f32"/>
			<output>
				<port id="0" precision="FP32"/>
			</output>
		</layer>
		<layer id="319" name="131481315270120" type="Const" version="opset1">
			<data offset="299176" size="4" shape="" element_type="f32"/>
			<output>
				<port id="0" precision="FP32"/>
			</output>
		</layer>
		<layer id="320" name="131491315371170" type="Const" version="opset1">
			<data offset="299180" size="4" shape="" element_type="f32"/>
			<output>
				<port id="0" precision="FP32"/>
			</output>
		</layer>
		<layer id="321" name="193261933074419" type="Const" version="opset1">
			<data offset="0" size="4" shape="" element_type="f32"/>
			<output>
				<port id="0" precision="FP32"/>
			</output>
		</layer>
		<layer id="322" name="193271933172502" type="Const" version="opset1">
			<data offset="299184" size="4" shape="" element_type="f32"/>
			<output>
				<port id="0" precision="FP32"/>
			</output>
		</layer>
		<layer id="323" name="193281933271137" type="Const" version="opset1">
			<data offset="0" size="4" shape="" element_type="f32"/>
			<output>
				<port id="0" precision="FP32"/>
			</output>
		</layer>
		<layer id="324" name="193291933371197" type="Const" version="opset1">
			<data offset="299184" size="4" shape="" element_type="f32"/>
			<output>
				<port id="0" precision="FP32"/>
			</output>
		</layer>
		<layer id="325" name="173161732071986" type="Const" version="opset1">
			<data offset="0" size="4" shape="" element_type="f32"/>
			<output>
				<port id="0" precision="FP32"/>
			</output>
		</layer>
		<layer id="326" name="173171732167429" type="Const" version="opset1">
			<data offset="299188" size="4" shape="" element_type="f32"/>
			<output>
				<port id="0" precision="FP32"/>
			</output>
		</layer>
		<layer id="327" name="173181732268353" type="Const" version="opset1">
			<data offset="0" size="4" shape="" element_type="f32"/>
			<output>
				<port id="0" precision="FP32"/>
			</output>
		</layer>
		<layer id="328" name="173191732368563" type="Const" version="opset1">
			<data offset="299188" size="4" shape="" element_type="f32"/>
			<output>
				<port id="0" precision="FP32"/>
			</output>
		</layer>
		<layer id="329" name="131561316070780" type="Const" version="opset1">
			<data offset="0" size="4" shape="" element_type="f32"/>
			<output>
				<port id="0" precision="FP32"/>
			</output>
		</layer>
		<layer id="330" name="131571316174788" type="Const" version="opset1">
			<data offset="299192" size="4" shape="" element_type="f32"/>
			<output>
				<port id="0" precision="FP32"/>
			</output>
		</layer>
		<layer id="331" name="131581316269943" type="Const" version="opset1">
			<data offset="0" size="4" shape="" element_type="f32"/>
			<output>
				<port id="0" precision="FP32"/>
			</output>
		</layer>
		<layer id="332" name="131591316366280" type="Const" version="opset1">
			<data offset="299192" size="4" shape="" element_type="f32"/>
			<output>
				<port id="0" precision="FP32"/>
			</output>
		</layer>
		<layer id="333" name="159761598068581" type="Const" version="opset1">
			<data offset="299196" size="4" shape="" element_type="f32"/>
			<output>
				<port id="0" precision="FP32"/>
			</output>
		</layer>
		<layer id="334" name="159771598166997" type="Const" version="opset1">
			<data offset="299200" size="4" shape="" element_type="f32"/>
			<output>
				<port id="0" precision="FP32"/>
			</output>
		</layer>
		<layer id="335" name="159781598273702" type="Const" version="opset1">
			<data offset="299196" size="4" shape="" element_type="f32"/>
			<output>
				<port id="0" precision="FP32"/>
			</output>
		</layer>
		<layer id="336" name="159791598368365" type="Const" version="opset1">
			<data offset="299200" size="4" shape="" element_type="f32"/>
			<output>
				<port id="0" precision="FP32"/>
			</output>
		</layer>
		<layer id="337" name="152161522074065" type="Const" version="opset1">
			<data offset="0" size="4" shape="" element_type="f32"/>
			<output>
				<port id="0" precision="FP32"/>
			</output>
		</layer>
		<layer id="338" name="152171522166385" type="Const" version="opset1">
			<data offset="299204" size="4" shape="" element_type="f32"/>
			<output>
				<port id="0" precision="FP32"/>
			</output>
		</layer>
		<layer id="339" name="152181522273990" type="Const" version="opset1">
			<data offset="0" size="4" shape="" element_type="f32"/>
			<output>
				<port id="0" precision="FP32"/>
			</output>
		</layer>
		<layer id="340" name="152191522374311" type="Const" version="opset1">
			<data offset="299204" size="4" shape="" element_type="f32"/>
			<output>
				<port id="0" precision="FP32"/>
			</output>
		</layer>
		<layer id="341" name="132261323070978" type="Const" version="opset1">
			<data offset="0" size="4" shape="" element_type="f32"/>
			<output>
				<port id="0" precision="FP32"/>
			</output>
		</layer>
		<layer id="342" name="132271323170885" type="Const" version="opset1">
			<data offset="299208" size="4" shape="" element_type="f32"/>
			<output>
				<port id="0" precision="FP32"/>
			</output>
		</layer>
		<layer id="343" name="132281323266691" type="Const" version="opset1">
			<data offset="0" size="4" shape="" element_type="f32"/>
			<output>
				<port id="0" precision="FP32"/>
			</output>
		</layer>
		<layer id="344" name="132291323366535" type="Const" version="opset1">
			<data offset="299208" size="4" shape="" element_type="f32"/>
			<output>
				<port id="0" precision="FP32"/>
			</output>
		</layer>
		<layer id="345" name="159861599072436" type="Const" version="opset1">
			<data offset="0" size="4" shape="" element_type="f32"/>
			<output>
				<port id="0" precision="FP32"/>
			</output>
		</layer>
		<layer id="346" name="159871599169313" type="Const" version="opset1">
			<data offset="299212" size="4" shape="" element_type="f32"/>
			<output>
				<port id="0" precision="FP32"/>
			</output>
		</layer>
		<layer id="347" name="159881599271881" type="Const" version="opset1">
			<data offset="0" size="4" shape="" element_type="f32"/>
			<output>
				<port id="0" precision="FP32"/>
			</output>
		</layer>
		<layer id="348" name="159891599370549" type="Const" version="opset1">
			<data offset="299212" size="4" shape="" element_type="f32"/>
			<output>
				<port id="0" precision="FP32"/>
			</output>
		</layer>
		<layer id="349" name="181761818073951" type="Const" version="opset1">
			<data offset="299216" size="4" shape="" element_type="f32"/>
			<output>
				<port id="0" precision="FP32"/>
			</output>
		</layer>
		<layer id="350" name="181771818171632" type="Const" version="opset1">
			<data offset="299220" size="4" shape="" element_type="f32"/>
			<output>
				<port id="0" precision="FP32"/>
			</output>
		</layer>
		<layer id="351" name="181781818267210" type="Const" version="opset1">
			<data offset="299216" size="4" shape="" element_type="f32"/>
			<output>
				<port id="0" precision="FP32"/>
			</output>
		</layer>
		<layer id="352" name="181791818372397" type="Const" version="opset1">
			<data offset="299220" size="4" shape="" element_type="f32"/>
			<output>
				<port id="0" precision="FP32"/>
			</output>
		</layer>
		<layer id="353" name="142761428067405" type="Const" version="opset1">
			<data offset="0" size="4" shape="" element_type="f32"/>
			<output>
				<port id="0" precision="FP32"/>
			</output>
		</layer>
		<layer id="354" name="142771428171617" type="Const" version="opset1">
			<data offset="299224" size="4" shape="" element_type="f32"/>
			<output>
				<port id="0" precision="FP32"/>
			</output>
		</layer>
		<layer id="355" name="142781428267516" type="Const" version="opset1">
			<data offset="0" size="4" shape="" element_type="f32"/>
			<output>
				<port id="0" precision="FP32"/>
			</output>
		</layer>
		<layer id="356" name="142791428371320" type="Const" version="opset1">
			<data offset="299224" size="4" shape="" element_type="f32"/>
			<output>
				<port id="0" precision="FP32"/>
			</output>
		</layer>
		<layer id="357" name="134861349069778" type="Const" version="opset1">
			<data offset="0" size="4" shape="" element_type="f32"/>
			<output>
				<port id="0" precision="FP32"/>
			</output>
		</layer>
		<layer id="358" name="134871349169331" type="Const" version="opset1">
			<data offset="299228" size="4" shape="" element_type="f32"/>
			<output>
				<port id="0" precision="FP32"/>
			</output>
		</layer>
		<layer id="359" name="134881349272157" type="Const" version="opset1">
			<data offset="0" size="4" shape="" element_type="f32"/>
			<output>
				<port id="0" precision="FP32"/>
			</output>
		</layer>
		<layer id="360" name="134891349367915" type="Const" version="opset1">
			<data offset="299228" size="4" shape="" element_type="f32"/>
			<output>
				<port id="0" precision="FP32"/>
			</output>
		</layer>
		<layer id="361" name="181861819071896" type="Const" version="opset1">
			<data offset="0" size="4" shape="" element_type="f32"/>
			<output>
				<port id="0" precision="FP32"/>
			</output>
		</layer>
		<layer id="362" name="181871819170093" type="Const" version="opset1">
			<data offset="299232" size="4" shape="" element_type="f32"/>
			<output>
				<port id="0" precision="FP32"/>
			</output>
		</layer>
		<layer id="363" name="181881819270900" type="Const" version="opset1">
			<data offset="0" size="4" shape="" element_type="f32"/>
			<output>
				<port id="0" precision="FP32"/>
			</output>
		</layer>
		<layer id="364" name="181891819373282" type="Const" version="opset1">
			<data offset="299232" size="4" shape="" element_type="f32"/>
			<output>
				<port id="0" precision="FP32"/>
			</output>
		</layer>
		<layer id="365" name="177761778070018" type="Const" version="opset1">
			<data offset="299236" size="4" shape="" element_type="f32"/>
			<output>
				<port id="0" precision="FP32"/>
			</output>
		</layer>
		<layer id="366" name="177771778167141" type="Const" version="opset1">
			<data offset="299240" size="4" shape="" element_type="f32"/>
			<output>
				<port id="0" precision="FP32"/>
			</output>
		</layer>
		<layer id="367" name="177781778269523" type="Const" version="opset1">
			<data offset="299236" size="4" shape="" element_type="f32"/>
			<output>
				<port id="0" precision="FP32"/>
			</output>
		</layer>
		<layer id="368" name="177791778367942" type="Const" version="opset1">
			<data offset="299240" size="4" shape="" element_type="f32"/>
			<output>
				<port id="0" precision="FP32"/>
			</output>
		</layer>
		<layer id="369" name="163161632071446" type="Const" version="opset1">
			<data offset="0" size="4" shape="" element_type="f32"/>
			<output>
				<port id="0" precision="FP32"/>
			</output>
		</layer>
		<layer id="370" name="163171632171929" type="Const" version="opset1">
			<data offset="299244" size="4" shape="" element_type="f32"/>
			<output>
				<port id="0" precision="FP32"/>
			</output>
		</layer>
		<layer id="371" name="163181632271125" type="Const" version="opset1">
			<data offset="0" size="4" shape="" element_type="f32"/>
			<output>
				<port id="0" precision="FP32"/>
			</output>
		</layer>
		<layer id="372" name="163191632374932" type="Const" version="opset1">
			<data offset="299244" size="4" shape="" element_type="f32"/>
			<output>
				<port id="0" precision="FP32"/>
			</output>
		</layer>
		<layer id="373" name="165761658069223" type="Const" version="opset1">
			<data offset="0" size="4" shape="" element_type="f32"/>
			<output>
				<port id="0" precision="FP32"/>
			</output>
		</layer>
		<layer id="374" name="165771658171593" type="Const" version="opset1">
			<data offset="299248" size="4" shape="" element_type="f32"/>
			<output>
				<port id="0" precision="FP32"/>
			</output>
		</layer>
		<layer id="375" name="165781658271287" type="Const" version="opset1">
			<data offset="0" size="4" shape="" element_type="f32"/>
			<output>
				<port id="0" precision="FP32"/>
			</output>
		</layer>
		<layer id="376" name="165791658373432" type="Const" version="opset1">
			<data offset="299248" size="4" shape="" element_type="f32"/>
			<output>
				<port id="0" precision="FP32"/>
			</output>
		</layer>
		<layer id="377" name="177861779071305" type="Const" version="opset1">
			<data offset="0" size="4" shape="" element_type="f32"/>
			<output>
				<port id="0" precision="FP32"/>
			</output>
		</layer>
		<layer id="378" name="177871779174434" type="Const" version="opset1">
			<data offset="299252" size="4" shape="" element_type="f32"/>
			<output>
				<port id="0" precision="FP32"/>
			</output>
		</layer>
		<layer id="379" name="177881779270855" type="Const" version="opset1">
			<data offset="0" size="4" shape="" element_type="f32"/>
			<output>
				<port id="0" precision="FP32"/>
			</output>
		</layer>
		<layer id="380" name="177891779369397" type="Const" version="opset1">
			<data offset="299252" size="4" shape="" element_type="f32"/>
			<output>
				<port id="0" precision="FP32"/>
			</output>
		</layer>
		<layer id="381" name="157261573072139" type="Const" version="opset1">
			<data offset="299256" size="4" shape="" element_type="f32"/>
			<output>
				<port id="0" precision="FP32"/>
			</output>
		</layer>
		<layer id="382" name="157271573172967" type="Const" version="opset1">
			<data offset="299260" size="4" shape="" element_type="f32"/>
			<output>
				<port id="0" precision="FP32"/>
			</output>
		</layer>
		<layer id="383" name="157281573274611" type="Const" version="opset1">
			<data offset="299256" size="4" shape="" element_type="f32"/>
			<output>
				<port id="0" precision="FP32"/>
			</output>
		</layer>
		<layer id="384" name="157291573373870" type="Const" version="opset1">
			<data offset="299260" size="4" shape="" element_type="f32"/>
			<output>
				<port id="0" precision="FP32"/>
			</output>
		</layer>
		<layer id="385" name="180761808069289" type="Const" version="opset1">
			<data offset="0" size="4" shape="" element_type="f32"/>
			<output>
				<port id="0" precision="FP32"/>
			</output>
		</layer>
		<layer id="386" name="180771808167255" type="Const" version="opset1">
			<data offset="299264" size="4" shape="" element_type="f32"/>
			<output>
				<port id="0" precision="FP32"/>
			</output>
		</layer>
		<layer id="387" name="180781808271893" type="Const" version="opset1">
			<data offset="0" size="4" shape="" element_type="f32"/>
			<output>
				<port id="0" precision="FP32"/>
			</output>
		</layer>
		<layer id="388" name="180791808374935" type="Const" version="opset1">
			<data offset="299264" size="4" shape="" element_type="f32"/>
			<output>
				<port id="0" precision="FP32"/>
			</output>
		</layer>
		<layer id="389" name="133061331072439" type="Const" version="opset1">
			<data offset="0" size="4" shape="" element_type="f32"/>
			<output>
				<port id="0" precision="FP32"/>
			</output>
		</layer>
		<layer id="390" name="133071331172985" type="Const" version="opset1">
			<data offset="299268" size="4" shape="" element_type="f32"/>
			<output>
				<port id="0" precision="FP32"/>
			</output>
		</layer>
		<layer id="391" name="133081331268032" type="Const" version="opset1">
			<data offset="0" size="4" shape="" element_type="f32"/>
			<output>
				<port id="0" precision="FP32"/>
			</output>
		</layer>
		<layer id="392" name="133091331372451" type="Const" version="opset1">
			<data offset="299268" size="4" shape="" element_type="f32"/>
			<output>
				<port id="0" precision="FP32"/>
			</output>
		</layer>
		<layer id="393" name="157361574073504" type="Const" version="opset1">
			<data offset="0" size="4" shape="" element_type="f32"/>
			<output>
				<port id="0" precision="FP32"/>
			</output>
		</layer>
		<layer id="394" name="157371574172706" type="Const" version="opset1">
			<data offset="299272" size="4" shape="" element_type="f32"/>
			<output>
				<port id="0" precision="FP32"/>
			</output>
		</layer>
		<layer id="395" name="157381574272373" type="Const" version="opset1">
			<data offset="0" size="4" shape="" element_type="f32"/>
			<output>
				<port id="0" precision="FP32"/>
			</output>
		</layer>
		<layer id="396" name="157391574367426" type="Const" version="opset1">
			<data offset="299272" size="4" shape="" element_type="f32"/>
			<output>
				<port id="0" precision="FP32"/>
			</output>
		</layer>
		<layer id="397" name="175961760070237" type="Const" version="opset1">
			<data offset="299276" size="4" shape="" element_type="f32"/>
			<output>
				<port id="0" precision="FP32"/>
			</output>
		</layer>
		<layer id="398" name="175971760170255" type="Const" version="opset1">
			<data offset="299280" size="4" shape="" element_type="f32"/>
			<output>
				<port id="0" precision="FP32"/>
			</output>
		</layer>
		<layer id="399" name="175981760271224" type="Const" version="opset1">
			<data offset="299276" size="4" shape="" element_type="f32"/>
			<output>
				<port id="0" precision="FP32"/>
			</output>
		</layer>
		<layer id="400" name="175991760371329" type="Const" version="opset1">
			<data offset="299280" size="4" shape="" element_type="f32"/>
			<output>
				<port id="0" precision="FP32"/>
			</output>
		</layer>
		<layer id="401" name="168861689067078" type="Const" version="opset1">
			<data offset="0" size="4" shape="" element_type="f32"/>
			<output>
				<port id="0" precision="FP32"/>
			</output>
		</layer>
		<layer id="402" name="168871689171752" type="Const" version="opset1">
			<data offset="299284" size="4" shape="" element_type="f32"/>
			<output>
				<port id="0" precision="FP32"/>
			</output>
		</layer>
		<layer id="403" name="168881689272004" type="Const" version="opset1">
			<data offset="0" size="4" shape="" element_type="f32"/>
			<output>
				<port id="0" precision="FP32"/>
			</output>
		</layer>
		<layer id="404" name="168891689369970" type="Const" version="opset1">
			<data offset="299284" size="4" shape="" element_type="f32"/>
			<output>
				<port id="0" precision="FP32"/>
			</output>
		</layer>
		<layer id="405" name="137461375068359" type="Const" version="opset1">
			<data offset="0" size="4" shape="" element_type="f32"/>
			<output>
				<port id="0" precision="FP32"/>
			</output>
		</layer>
		<layer id="406" name="137471375172562" type="Const" version="opset1">
			<data offset="299288" size="4" shape="" element_type="f32"/>
			<output>
				<port id="0" precision="FP32"/>
			</output>
		</layer>
		<layer id="407" name="137481375273501" type="Const" version="opset1">
			<data offset="0" size="4" shape="" element_type="f32"/>
			<output>
				<port id="0" precision="FP32"/>
			</output>
		</layer>
		<layer id="408" name="137491375368872" type="Const" version="opset1">
			<data offset="299288" size="4" shape="" element_type="f32"/>
			<output>
				<port id="0" precision="FP32"/>
			</output>
		</layer>
		<layer id="409" name="176061761068659" type="Const" version="opset1">
			<data offset="0" size="4" shape="" element_type="f32"/>
			<output>
				<port id="0" precision="FP32"/>
			</output>
		</layer>
		<layer id="410" name="176071761167537" type="Const" version="opset1">
			<data offset="299292" size="4" shape="" element_type="f32"/>
			<output>
				<port id="0" precision="FP32"/>
			</output>
		</layer>
		<layer id="411" name="176081761267678" type="Const" version="opset1">
			<data offset="0" size="4" shape="" element_type="f32"/>
			<output>
				<port id="0" precision="FP32"/>
			</output>
		</layer>
		<layer id="412" name="176091761372388" type="Const" version="opset1">
			<data offset="299292" size="4" shape="" element_type="f32"/>
			<output>
				<port id="0" precision="FP32"/>
			</output>
		</layer>
		<layer id="413" name="193061931074572" type="Const" version="opset1">
			<data offset="299296" size="4" shape="" element_type="f32"/>
			<output>
				<port id="0" precision="FP32"/>
			</output>
		</layer>
		<layer id="414" name="193071931174671" type="Const" version="opset1">
			<data offset="299300" size="4" shape="" element_type="f32"/>
			<output>
				<port id="0" precision="FP32"/>
			</output>
		</layer>
		<layer id="415" name="193081931269055" type="Const" version="opset1">
			<data offset="299296" size="4" shape="" element_type="f32"/>
			<output>
				<port id="0" precision="FP32"/>
			</output>
		</layer>
		<layer id="416" name="193091931369463" type="Const" version="opset1">
			<data offset="299300" size="4" shape="" element_type="f32"/>
			<output>
				<port id="0" precision="FP32"/>
			</output>
		</layer>
		<layer id="417" name="189461895071548" type="Const" version="opset1">
			<data offset="0" size="4" shape="" element_type="f32"/>
			<output>
				<port id="0" precision="FP32"/>
			</output>
		</layer>
		<layer id="418" name="189471895167492" type="Const" version="opset1">
			<data offset="299304" size="4" shape="" element_type="f32"/>
			<output>
				<port id="0" precision="FP32"/>
			</output>
		</layer>
		<layer id="419" name="189481895272295" type="Const" version="opset1">
			<data offset="0" size="4" shape="" element_type="f32"/>
			<output>
				<port id="0" precision="FP32"/>
			</output>
		</layer>
		<layer id="420" name="189491895368377" type="Const" version="opset1">
			<data offset="299304" size="4" shape="" element_type="f32"/>
			<output>
				<port id="0" precision="FP32"/>
			</output>
		</layer>
		<layer id="421" name="169261693067369" type="Const" version="opset1">
			<data offset="0" size="4" shape="" element_type="f32"/>
			<output>
				<port id="0" precision="FP32"/>
			</output>
		</layer>
		<layer id="422" name="169271693166532" type="Const" version="opset1">
			<data offset="299308" size="4" shape="" element_type="f32"/>
			<output>
				<port id="0" precision="FP32"/>
			</output>
		</layer>
		<layer id="423" name="169281693268008" type="Const" version="opset1">
			<data offset="0" size="4" shape="" element_type="f32"/>
			<output>
				<port id="0" precision="FP32"/>
			</output>
		</layer>
		<layer id="424" name="169291693370903" type="Const" version="opset1">
			<data offset="299308" size="4" shape="" element_type="f32"/>
			<output>
				<port id="0" precision="FP32"/>
			</output>
		</layer>
		<layer id="425" name="Multiply_71496/fq_weights_1/scale4912267345" type="Const" version="opset1">
			<data offset="299312" size="512" shape="128,1,1,1" element_type="f32"/>
			<output>
				<port id="0" precision="FP32">
					<dim>128</dim>
					<dim>1</dim>
					<dim>1</dim>
					<dim>1</dim>
				</port>
			</output>
		</layer>
		<layer id="426" name="Multiply_72630387439770/restored_convert/quantized4911466502" type="Const" version="opset1">
			<data offset="299824" size="32768" shape="128,256,1,1" element_type="i8"/>
			<output>
				<port id="0" precision="I8">
					<dim>128</dim>
					<dim>256</dim>
					<dim>1</dim>
					<dim>1</dim>
				</port>
			</output>
		</layer>
		<layer id="427" name="Multiply_72630387439770/restored_convert/quantized/to_f32" type="Convert" version="opset1">
			<data destination_type="f32"/>
			<input>
				<port id="0">
					<dim>128</dim>
					<dim>256</dim>
					<dim>1</dim>
					<dim>1</dim>
				</port>
			</input>
			<output>
				<port id="1" precision="FP32">
					<dim>128</dim>
					<dim>256</dim>
					<dim>1</dim>
					<dim>1</dim>
				</port>
			</output>
		</layer>
		<layer id="428" name="Multiply_71496/fq_weights_1/mulpiply_by_scale" type="Multiply" version="opset1">
			<data auto_broadcast="numpy"/>
			<input>
				<port id="0">
					<dim>128</dim>
					<dim>256</dim>
					<dim>1</dim>
					<dim>1</dim>
				</port>
				<port id="1">
					<dim>128</dim>
					<dim>1</dim>
					<dim>1</dim>
					<dim>1</dim>
				</port>
			</input>
			<output>
				<port id="2" precision="FP32">
					<dim>128</dim>
					<dim>256</dim>
					<dim>1</dim>
					<dim>1</dim>
				</port>
			</output>
		</layer>
		<layer id="429" name="Multiply_71496" type="Convolution" version="opset1">
			<data auto_pad="explicit" strides="1,1" dilations="1,1" pads_begin="0,0" pads_end="0,0"/>
			<input>
				<port id="0">
					<dim>1</dim>
					<dim>256</dim>
					<dim>160</dim>
					<dim>160</dim>
				</port>
				<port id="1">
					<dim>128</dim>
					<dim>256</dim>
					<dim>1</dim>
					<dim>1</dim>
				</port>
			</input>
			<output>
				<port id="2" precision="FP32">
					<dim>1</dim>
					<dim>128</dim>
					<dim>160</dim>
					<dim>160</dim>
				</port>
			</output>
		</layer>
		<layer id="430" name="Constant_71501387769922" type="Const" version="opset1">
			<data offset="332592" size="256" shape="1,128,1,1" element_type="f16"/>
			<output>
				<port id="0" precision="FP16">
					<dim>1</dim>
					<dim>128</dim>
					<dim>1</dim>
					<dim>1</dim>
				</port>
			</output>
		</layer>
		<layer id="431" name="Constant_71501387739771/restored_convert" type="Convert" version="opset1">
			<data destination_type="f32"/>
			<rt_info>
				<attribute name="decompression" version="0"/>
			</rt_info>
			<input>
				<port id="0">
					<dim>1</dim>
					<dim>128</dim>
					<dim>1</dim>
					<dim>1</dim>
				</port>
			</input>
			<output>
				<port id="1" precision="FP32">
					<dim>1</dim>
					<dim>128</dim>
					<dim>1</dim>
					<dim>1</dim>
				</port>
			</output>
		</layer>
		<layer id="432" name="BatchNormalization_45" type="Add" version="opset1">
			<data auto_broadcast="numpy"/>
			<input>
				<port id="0">
					<dim>1</dim>
					<dim>128</dim>
					<dim>160</dim>
					<dim>160</dim>
				</port>
				<port id="1">
					<dim>1</dim>
					<dim>128</dim>
					<dim>1</dim>
					<dim>1</dim>
				</port>
			</input>
			<output>
				<port id="2" precision="FP32" names="1059">
					<dim>1</dim>
					<dim>128</dim>
					<dim>160</dim>
					<dim>160</dim>
				</port>
			</output>
		</layer>
		<layer id="433" name="Relu_46" type="ReLU" version="opset1">
			<input>
				<port id="0">
					<dim>1</dim>
					<dim>128</dim>
					<dim>160</dim>
					<dim>160</dim>
				</port>
			</input>
			<output>
				<port id="1" precision="FP32" names="1060">
					<dim>1</dim>
					<dim>128</dim>
					<dim>160</dim>
					<dim>160</dim>
				</port>
			</output>
		</layer>
		<layer id="434" name="Multiply_71503/fq_input_0" type="FakeQuantize" version="opset1">
			<data levels="256" auto_broadcast="numpy"/>
			<input>
				<port id="0">
					<dim>1</dim>
					<dim>128</dim>
					<dim>160</dim>
					<dim>160</dim>
				</port>
				<port id="1"/>
				<port id="2"/>
				<port id="3"/>
				<port id="4"/>
			</input>
			<output>
				<port id="5" precision="FP32">
					<dim>1</dim>
					<dim>128</dim>
					<dim>160</dim>
					<dim>160</dim>
				</port>
			</output>
		</layer>
		<layer id="435" name="Multiply_71503/fq_weights_1/scale4567273555" type="Const" version="opset1">
			<data offset="332848" size="512" shape="128,1,1,1" element_type="f32"/>
			<output>
				<port id="0" precision="FP32">
					<dim>128</dim>
					<dim>1</dim>
					<dim>1</dim>
					<dim>1</dim>
				</port>
			</output>
		</layer>
		<layer id="436" name="Multiply_72639388139772/restored_convert/quantized4566469337" type="Const" version="opset1">
			<data offset="333360" size="147456" shape="128,128,3,3" element_type="i8"/>
			<output>
				<port id="0" precision="I8">
					<dim>128</dim>
					<dim>128</dim>
					<dim>3</dim>
					<dim>3</dim>
				</port>
			</output>
		</layer>
		<layer id="437" name="Multiply_72639388139772/restored_convert/quantized/to_f32" type="Convert" version="opset1">
			<data destination_type="f32"/>
			<input>
				<port id="0">
					<dim>128</dim>
					<dim>128</dim>
					<dim>3</dim>
					<dim>3</dim>
				</port>
			</input>
			<output>
				<port id="1" precision="FP32">
					<dim>128</dim>
					<dim>128</dim>
					<dim>3</dim>
					<dim>3</dim>
				</port>
			</output>
		</layer>
		<layer id="438" name="Multiply_71503/fq_weights_1/mulpiply_by_scale" type="Multiply" version="opset1">
			<data auto_broadcast="numpy"/>
			<input>
				<port id="0">
					<dim>128</dim>
					<dim>128</dim>
					<dim>3</dim>
					<dim>3</dim>
				</port>
				<port id="1">
					<dim>128</dim>
					<dim>1</dim>
					<dim>1</dim>
					<dim>1</dim>
				</port>
			</input>
			<output>
				<port id="2" precision="FP32">
					<dim>128</dim>
					<dim>128</dim>
					<dim>3</dim>
					<dim>3</dim>
				</port>
			</output>
		</layer>
		<layer id="439" name="Multiply_71503" type="Convolution" version="opset1">
			<data auto_pad="explicit" strides="2,2" dilations="1,1" pads_begin="1,1" pads_end="1,1"/>
			<input>
				<port id="0">
					<dim>1</dim>
					<dim>128</dim>
					<dim>160</dim>
					<dim>160</dim>
				</port>
				<port id="1">
					<dim>128</dim>
					<dim>128</dim>
					<dim>3</dim>
					<dim>3</dim>
				</port>
			</input>
			<output>
				<port id="2" precision="FP32">
					<dim>1</dim>
					<dim>128</dim>
					<dim>80</dim>
					<dim>80</dim>
				</port>
			</output>
		</layer>
		<layer id="440" name="Constant_71508388472127" type="Const" version="opset1">
			<data offset="480816" size="256" shape="1,128,1,1" element_type="f16"/>
			<output>
				<port id="0" precision="FP16">
					<dim>1</dim>
					<dim>128</dim>
					<dim>1</dim>
					<dim>1</dim>
				</port>
			</output>
		</layer>
		<layer id="441" name="Constant_71508388439773/restored_convert" type="Convert" version="opset1">
			<data destination_type="f32"/>
			<rt_info>
				<attribute name="decompression" version="0"/>
			</rt_info>
			<input>
				<port id="0">
					<dim>1</dim>
					<dim>128</dim>
					<dim>1</dim>
					<dim>1</dim>
				</port>
			</input>
			<output>
				<port id="1" precision="FP32">
					<dim>1</dim>
					<dim>128</dim>
					<dim>1</dim>
					<dim>1</dim>
				</port>
			</output>
		</layer>
		<layer id="442" name="BatchNormalization_48" type="Add" version="opset1">
			<data auto_broadcast="numpy"/>
			<input>
				<port id="0">
					<dim>1</dim>
					<dim>128</dim>
					<dim>80</dim>
					<dim>80</dim>
				</port>
				<port id="1">
					<dim>1</dim>
					<dim>128</dim>
					<dim>1</dim>
					<dim>1</dim>
				</port>
			</input>
			<output>
				<port id="2" precision="FP32" names="1062">
					<dim>1</dim>
					<dim>128</dim>
					<dim>80</dim>
					<dim>80</dim>
				</port>
			</output>
		</layer>
		<layer id="443" name="Relu_49" type="ReLU" version="opset1">
			<input>
				<port id="0">
					<dim>1</dim>
					<dim>128</dim>
					<dim>80</dim>
					<dim>80</dim>
				</port>
			</input>
			<output>
				<port id="1" precision="FP32" names="1063">
					<dim>1</dim>
					<dim>128</dim>
					<dim>80</dim>
					<dim>80</dim>
				</port>
			</output>
		</layer>
		<layer id="444" name="Multiply_71510/fq_input_0" type="FakeQuantize" version="opset1">
			<data levels="256" auto_broadcast="numpy"/>
			<input>
				<port id="0">
					<dim>1</dim>
					<dim>128</dim>
					<dim>80</dim>
					<dim>80</dim>
				</port>
				<port id="1"/>
				<port id="2"/>
				<port id="3"/>
				<port id="4"/>
			</input>
			<output>
				<port id="5" precision="FP32">
					<dim>1</dim>
					<dim>128</dim>
					<dim>80</dim>
					<dim>80</dim>
				</port>
			</output>
		</layer>
		<layer id="445" name="Multiply_71510/fq_weights_1/scale4453267558" type="Const" version="opset1">
			<data offset="481072" size="2048" shape="512,1,1,1" element_type="f32"/>
			<output>
				<port id="0" precision="FP32">
					<dim>512</dim>
					<dim>1</dim>
					<dim>1</dim>
					<dim>1</dim>
				</port>
			</output>
		</layer>
		<layer id="446" name="Multiply_72648388839774/restored_convert/quantized4452474593" type="Const" version="opset1">
			<data offset="483120" size="65536" shape="512,128,1,1" element_type="i8"/>
			<output>
				<port id="0" precision="I8">
					<dim>512</dim>
					<dim>128</dim>
					<dim>1</dim>
					<dim>1</dim>
				</port>
			</output>
		</layer>
		<layer id="447" name="Multiply_72648388839774/restored_convert/quantized/to_f32" type="Convert" version="opset1">
			<data destination_type="f32"/>
			<input>
				<port id="0">
					<dim>512</dim>
					<dim>128</dim>
					<dim>1</dim>
					<dim>1</dim>
				</port>
			</input>
			<output>
				<port id="1" precision="FP32">
					<dim>512</dim>
					<dim>128</dim>
					<dim>1</dim>
					<dim>1</dim>
				</port>
			</output>
		</layer>
		<layer id="448" name="Multiply_71510/fq_weights_1/mulpiply_by_scale" type="Multiply" version="opset1">
			<data auto_broadcast="numpy"/>
			<input>
				<port id="0">
					<dim>512</dim>
					<dim>128</dim>
					<dim>1</dim>
					<dim>1</dim>
				</port>
				<port id="1">
					<dim>512</dim>
					<dim>1</dim>
					<dim>1</dim>
					<dim>1</dim>
				</port>
			</input>
			<output>
				<port id="2" precision="FP32">
					<dim>512</dim>
					<dim>128</dim>
					<dim>1</dim>
					<dim>1</dim>
				</port>
			</output>
		</layer>
		<layer id="449" name="Multiply_71510" type="Convolution" version="opset1">
			<data auto_pad="explicit" strides="1,1" dilations="1,1" pads_begin="0,0" pads_end="0,0"/>
			<input>
				<port id="0">
					<dim>1</dim>
					<dim>128</dim>
					<dim>80</dim>
					<dim>80</dim>
				</port>
				<port id="1">
					<dim>512</dim>
					<dim>128</dim>
					<dim>1</dim>
					<dim>1</dim>
				</port>
			</input>
			<output>
				<port id="2" precision="FP32">
					<dim>1</dim>
					<dim>512</dim>
					<dim>80</dim>
					<dim>80</dim>
				</port>
			</output>
		</layer>
		<layer id="450" name="Constant_71515389172118" type="Const" version="opset1">
			<data offset="548656" size="1024" shape="1,512,1,1" element_type="f16"/>
			<output>
				<port id="0" precision="FP16">
					<dim>1</dim>
					<dim>512</dim>
					<dim>1</dim>
					<dim>1</dim>
				</port>
			</output>
		</layer>
		<layer id="451" name="Constant_71515389139775/restored_convert" type="Convert" version="opset1">
			<data destination_type="f32"/>
			<rt_info>
				<attribute name="decompression" version="0"/>
			</rt_info>
			<input>
				<port id="0">
					<dim>1</dim>
					<dim>512</dim>
					<dim>1</dim>
					<dim>1</dim>
				</port>
			</input>
			<output>
				<port id="1" precision="FP32">
					<dim>1</dim>
					<dim>512</dim>
					<dim>1</dim>
					<dim>1</dim>
				</port>
			</output>
		</layer>
		<layer id="452" name="BatchNormalization_51" type="Add" version="opset1">
			<data auto_broadcast="numpy"/>
			<input>
				<port id="0">
					<dim>1</dim>
					<dim>512</dim>
					<dim>80</dim>
					<dim>80</dim>
				</port>
				<port id="1">
					<dim>1</dim>
					<dim>512</dim>
					<dim>1</dim>
					<dim>1</dim>
				</port>
			</input>
			<output>
				<port id="2" precision="FP32" names="1065">
					<dim>1</dim>
					<dim>512</dim>
					<dim>80</dim>
					<dim>80</dim>
				</port>
			</output>
		</layer>
		<layer id="453" name="Add_52/fq_input_0" type="FakeQuantize" version="opset1">
			<data levels="256" auto_broadcast="numpy"/>
			<input>
				<port id="0">
					<dim>1</dim>
					<dim>512</dim>
					<dim>80</dim>
					<dim>80</dim>
				</port>
				<port id="1"/>
				<port id="2"/>
				<port id="3"/>
				<port id="4"/>
			</input>
			<output>
				<port id="5" precision="FP32">
					<dim>1</dim>
					<dim>512</dim>
					<dim>80</dim>
					<dim>80</dim>
				</port>
			</output>
		</layer>
		<layer id="454" name="193161932071347" type="Const" version="opset1">
			<data offset="549680" size="4" shape="" element_type="f32"/>
			<output>
				<port id="0" precision="FP32"/>
			</output>
		</layer>
		<layer id="455" name="193171932167477" type="Const" version="opset1">
			<data offset="549684" size="4" shape="" element_type="f32"/>
			<output>
				<port id="0" precision="FP32"/>
			</output>
		</layer>
		<layer id="456" name="193181932267903" type="Const" version="opset1">
			<data offset="549680" size="4" shape="" element_type="f32"/>
			<output>
				<port id="0" precision="FP32"/>
			</output>
		</layer>
		<layer id="457" name="193191932370351" type="Const" version="opset1">
			<data offset="549684" size="4" shape="" element_type="f32"/>
			<output>
				<port id="0" precision="FP32"/>
			</output>
		</layer>
		<layer id="458" name="Multiply_71517/fq_weights_1/scale4807268419" type="Const" version="opset1">
			<data offset="549688" size="2048" shape="512,1,1,1" element_type="f32"/>
			<output>
				<port id="0" precision="FP32">
					<dim>512</dim>
					<dim>1</dim>
					<dim>1</dim>
					<dim>1</dim>
				</port>
			</output>
		</layer>
		<layer id="459" name="Multiply_72657389439776/restored_convert/quantized4806469952" type="Const" version="opset1">
			<data offset="551736" size="131072" shape="512,256,1,1" element_type="i8"/>
			<output>
				<port id="0" precision="I8">
					<dim>512</dim>
					<dim>256</dim>
					<dim>1</dim>
					<dim>1</dim>
				</port>
			</output>
		</layer>
		<layer id="460" name="Multiply_72657389439776/restored_convert/quantized/to_f32" type="Convert" version="opset1">
			<data destination_type="f32"/>
			<input>
				<port id="0">
					<dim>512</dim>
					<dim>256</dim>
					<dim>1</dim>
					<dim>1</dim>
				</port>
			</input>
			<output>
				<port id="1" precision="FP32">
					<dim>512</dim>
					<dim>256</dim>
					<dim>1</dim>
					<dim>1</dim>
				</port>
			</output>
		</layer>
		<layer id="461" name="Multiply_71517/fq_weights_1/mulpiply_by_scale" type="Multiply" version="opset1">
			<data auto_broadcast="numpy"/>
			<input>
				<port id="0">
					<dim>512</dim>
					<dim>256</dim>
					<dim>1</dim>
					<dim>1</dim>
				</port>
				<port id="1">
					<dim>512</dim>
					<dim>1</dim>
					<dim>1</dim>
					<dim>1</dim>
				</port>
			</input>
			<output>
				<port id="2" precision="FP32">
					<dim>512</dim>
					<dim>256</dim>
					<dim>1</dim>
					<dim>1</dim>
				</port>
			</output>
		</layer>
		<layer id="462" name="Multiply_71517" type="Convolution" version="opset1">
			<data auto_pad="explicit" strides="2,2" dilations="1,1" pads_begin="0,0" pads_end="0,0"/>
			<input>
				<port id="0">
					<dim>1</dim>
					<dim>256</dim>
					<dim>160</dim>
					<dim>160</dim>
				</port>
				<port id="1">
					<dim>512</dim>
					<dim>256</dim>
					<dim>1</dim>
					<dim>1</dim>
				</port>
			</input>
			<output>
				<port id="2" precision="FP32">
					<dim>1</dim>
					<dim>512</dim>
					<dim>80</dim>
					<dim>80</dim>
				</port>
			</output>
		</layer>
		<layer id="463" name="Constant_71522389771839" type="Const" version="opset1">
			<data offset="682808" size="1024" shape="1,512,1,1" element_type="f16"/>
			<output>
				<port id="0" precision="FP16">
					<dim>1</dim>
					<dim>512</dim>
					<dim>1</dim>
					<dim>1</dim>
				</port>
			</output>
		</layer>
		<layer id="464" name="Constant_71522389739777/restored_convert" type="Convert" version="opset1">
			<data destination_type="f32"/>
			<rt_info>
				<attribute name="decompression" version="0"/>
			</rt_info>
			<input>
				<port id="0">
					<dim>1</dim>
					<dim>512</dim>
					<dim>1</dim>
					<dim>1</dim>
				</port>
			</input>
			<output>
				<port id="1" precision="FP32">
					<dim>1</dim>
					<dim>512</dim>
					<dim>1</dim>
					<dim>1</dim>
				</port>
			</output>
		</layer>
		<layer id="465" name="BatchNormalization_43" type="Add" version="opset1">
			<data auto_broadcast="numpy"/>
			<input>
				<port id="0">
					<dim>1</dim>
					<dim>512</dim>
					<dim>80</dim>
					<dim>80</dim>
				</port>
				<port id="1">
					<dim>1</dim>
					<dim>512</dim>
					<dim>1</dim>
					<dim>1</dim>
				</port>
			</input>
			<output>
				<port id="2" precision="FP32" names="1057">
					<dim>1</dim>
					<dim>512</dim>
					<dim>80</dim>
					<dim>80</dim>
				</port>
			</output>
		</layer>
		<layer id="466" name="Add_52/fq_input_1" type="FakeQuantize" version="opset1">
			<data levels="256" auto_broadcast="numpy"/>
			<input>
				<port id="0">
					<dim>1</dim>
					<dim>512</dim>
					<dim>80</dim>
					<dim>80</dim>
				</port>
				<port id="1"/>
				<port id="2"/>
				<port id="3"/>
				<port id="4"/>
			</input>
			<output>
				<port id="5" precision="FP32">
					<dim>1</dim>
					<dim>512</dim>
					<dim>80</dim>
					<dim>80</dim>
				</port>
			</output>
		</layer>
		<layer id="467" name="Add_52" type="Add" version="opset1">
			<data auto_broadcast="numpy"/>
			<input>
				<port id="0">
					<dim>1</dim>
					<dim>512</dim>
					<dim>80</dim>
					<dim>80</dim>
				</port>
				<port id="1">
					<dim>1</dim>
					<dim>512</dim>
					<dim>80</dim>
					<dim>80</dim>
				</port>
			</input>
			<output>
				<port id="2" precision="FP32" names="1066">
					<dim>1</dim>
					<dim>512</dim>
					<dim>80</dim>
					<dim>80</dim>
				</port>
			</output>
		</layer>
		<layer id="468" name="Relu_53" type="ReLU" version="opset1">
			<input>
				<port id="0">
					<dim>1</dim>
					<dim>512</dim>
					<dim>80</dim>
					<dim>80</dim>
				</port>
			</input>
			<output>
				<port id="1" precision="FP32" names="1067">
					<dim>1</dim>
					<dim>512</dim>
					<dim>80</dim>
					<dim>80</dim>
				</port>
			</output>
		</layer>
		<layer id="469" name="Add_62/fq_input_1" type="FakeQuantize" version="opset1">
			<data levels="256" auto_broadcast="numpy"/>
			<input>
				<port id="0">
					<dim>1</dim>
					<dim>512</dim>
					<dim>80</dim>
					<dim>80</dim>
				</port>
				<port id="1"/>
				<port id="2"/>
				<port id="3"/>
				<port id="4"/>
			</input>
			<output>
				<port id="5" precision="FP32">
					<dim>1</dim>
					<dim>512</dim>
					<dim>80</dim>
					<dim>80</dim>
				</port>
			</output>
		</layer>
		<layer id="470" name="Multiply_71524/fq_weights_1/scale4861274005" type="Const" version="opset1">
			<data offset="683832" size="512" shape="128,1,1,1" element_type="f32"/>
			<output>
				<port id="0" precision="FP32">
					<dim>128</dim>
					<dim>1</dim>
					<dim>1</dim>
					<dim>1</dim>
				</port>
			</output>
		</layer>
		<layer id="471" name="Multiply_72666390239778/restored_convert/quantized4860466445" type="Const" version="opset1">
			<data offset="684344" size="65536" shape="128,512,1,1" element_type="i8"/>
			<output>
				<port id="0" precision="I8">
					<dim>128</dim>
					<dim>512</dim>
					<dim>1</dim>
					<dim>1</dim>
				</port>
			</output>
		</layer>
		<layer id="472" name="Multiply_72666390239778/restored_convert/quantized/to_f32" type="Convert" version="opset1">
			<data destination_type="f32"/>
			<input>
				<port id="0">
					<dim>128</dim>
					<dim>512</dim>
					<dim>1</dim>
					<dim>1</dim>
				</port>
			</input>
			<output>
				<port id="1" precision="FP32">
					<dim>128</dim>
					<dim>512</dim>
					<dim>1</dim>
					<dim>1</dim>
				</port>
			</output>
		</layer>
		<layer id="473" name="Multiply_71524/fq_weights_1/mulpiply_by_scale" type="Multiply" version="opset1">
			<data auto_broadcast="numpy"/>
			<input>
				<port id="0">
					<dim>128</dim>
					<dim>512</dim>
					<dim>1</dim>
					<dim>1</dim>
				</port>
				<port id="1">
					<dim>128</dim>
					<dim>1</dim>
					<dim>1</dim>
					<dim>1</dim>
				</port>
			</input>
			<output>
				<port id="2" precision="FP32">
					<dim>128</dim>
					<dim>512</dim>
					<dim>1</dim>
					<dim>1</dim>
				</port>
			</output>
		</layer>
		<layer id="474" name="Multiply_71524" type="Convolution" version="opset1">
			<data auto_pad="explicit" strides="1,1" dilations="1,1" pads_begin="0,0" pads_end="0,0"/>
			<input>
				<port id="0">
					<dim>1</dim>
					<dim>512</dim>
					<dim>80</dim>
					<dim>80</dim>
				</port>
				<port id="1">
					<dim>128</dim>
					<dim>512</dim>
					<dim>1</dim>
					<dim>1</dim>
				</port>
			</input>
			<output>
				<port id="2" precision="FP32">
					<dim>1</dim>
					<dim>128</dim>
					<dim>80</dim>
					<dim>80</dim>
				</port>
			</output>
		</layer>
		<layer id="475" name="Constant_71529390572130" type="Const" version="opset1">
			<data offset="749880" size="256" shape="1,128,1,1" element_type="f16"/>
			<output>
				<port id="0" precision="FP16">
					<dim>1</dim>
					<dim>128</dim>
					<dim>1</dim>
					<dim>1</dim>
				</port>
			</output>
		</layer>
		<layer id="476" name="Constant_71529390539779/restored_convert" type="Convert" version="opset1">
			<data destination_type="f32"/>
			<rt_info>
				<attribute name="decompression" version="0"/>
			</rt_info>
			<input>
				<port id="0">
					<dim>1</dim>
					<dim>128</dim>
					<dim>1</dim>
					<dim>1</dim>
				</port>
			</input>
			<output>
				<port id="1" precision="FP32">
					<dim>1</dim>
					<dim>128</dim>
					<dim>1</dim>
					<dim>1</dim>
				</port>
			</output>
		</layer>
		<layer id="477" name="BatchNormalization_55" type="Add" version="opset1">
			<data auto_broadcast="numpy"/>
			<input>
				<port id="0">
					<dim>1</dim>
					<dim>128</dim>
					<dim>80</dim>
					<dim>80</dim>
				</port>
				<port id="1">
					<dim>1</dim>
					<dim>128</dim>
					<dim>1</dim>
					<dim>1</dim>
				</port>
			</input>
			<output>
				<port id="2" precision="FP32" names="1069">
					<dim>1</dim>
					<dim>128</dim>
					<dim>80</dim>
					<dim>80</dim>
				</port>
			</output>
		</layer>
		<layer id="478" name="Relu_56" type="ReLU" version="opset1">
			<input>
				<port id="0">
					<dim>1</dim>
					<dim>128</dim>
					<dim>80</dim>
					<dim>80</dim>
				</port>
			</input>
			<output>
				<port id="1" precision="FP32" names="1070">
					<dim>1</dim>
					<dim>128</dim>
					<dim>80</dim>
					<dim>80</dim>
				</port>
			</output>
		</layer>
		<layer id="479" name="Multiply_71531/fq_input_0" type="FakeQuantize" version="opset1">
			<data levels="256" auto_broadcast="numpy"/>
			<input>
				<port id="0">
					<dim>1</dim>
					<dim>128</dim>
					<dim>80</dim>
					<dim>80</dim>
				</port>
				<port id="1"/>
				<port id="2"/>
				<port id="3"/>
				<port id="4"/>
			</input>
			<output>
				<port id="5" precision="FP32">
					<dim>1</dim>
					<dim>128</dim>
					<dim>80</dim>
					<dim>80</dim>
				</port>
			</output>
		</layer>
		<layer id="480" name="Multiply_71531/fq_weights_1/scale4591268545" type="Const" version="opset1">
			<data offset="750136" size="512" shape="128,1,1,1" element_type="f32"/>
			<output>
				<port id="0" precision="FP32">
					<dim>128</dim>
					<dim>1</dim>
					<dim>1</dim>
					<dim>1</dim>
				</port>
			</output>
		</layer>
		<layer id="481" name="Multiply_72675390939780/restored_convert/quantized4590470555" type="Const" version="opset1">
			<data offset="750648" size="147456" shape="128,128,3,3" element_type="i8"/>
			<output>
				<port id="0" precision="I8">
					<dim>128</dim>
					<dim>128</dim>
					<dim>3</dim>
					<dim>3</dim>
				</port>
			</output>
		</layer>
		<layer id="482" name="Multiply_72675390939780/restored_convert/quantized/to_f32" type="Convert" version="opset1">
			<data destination_type="f32"/>
			<input>
				<port id="0">
					<dim>128</dim>
					<dim>128</dim>
					<dim>3</dim>
					<dim>3</dim>
				</port>
			</input>
			<output>
				<port id="1" precision="FP32">
					<dim>128</dim>
					<dim>128</dim>
					<dim>3</dim>
					<dim>3</dim>
				</port>
			</output>
		</layer>
		<layer id="483" name="Multiply_71531/fq_weights_1/mulpiply_by_scale" type="Multiply" version="opset1">
			<data auto_broadcast="numpy"/>
			<input>
				<port id="0">
					<dim>128</dim>
					<dim>128</dim>
					<dim>3</dim>
					<dim>3</dim>
				</port>
				<port id="1">
					<dim>128</dim>
					<dim>1</dim>
					<dim>1</dim>
					<dim>1</dim>
				</port>
			</input>
			<output>
				<port id="2" precision="FP32">
					<dim>128</dim>
					<dim>128</dim>
					<dim>3</dim>
					<dim>3</dim>
				</port>
			</output>
		</layer>
		<layer id="484" name="Multiply_71531" type="Convolution" version="opset1">
			<data auto_pad="explicit" strides="1,1" dilations="1,1" pads_begin="1,1" pads_end="1,1"/>
			<input>
				<port id="0">
					<dim>1</dim>
					<dim>128</dim>
					<dim>80</dim>
					<dim>80</dim>
				</port>
				<port id="1">
					<dim>128</dim>
					<dim>128</dim>
					<dim>3</dim>
					<dim>3</dim>
				</port>
			</input>
			<output>
				<port id="2" precision="FP32">
					<dim>1</dim>
					<dim>128</dim>
					<dim>80</dim>
					<dim>80</dim>
				</port>
			</output>
		</layer>
		<layer id="485" name="Constant_71536391269328" type="Const" version="opset1">
			<data offset="898104" size="256" shape="1,128,1,1" element_type="f16"/>
			<output>
				<port id="0" precision="FP16">
					<dim>1</dim>
					<dim>128</dim>
					<dim>1</dim>
					<dim>1</dim>
				</port>
			</output>
		</layer>
		<layer id="486" name="Constant_71536391239781/restored_convert" type="Convert" version="opset1">
			<data destination_type="f32"/>
			<rt_info>
				<attribute name="decompression" version="0"/>
			</rt_info>
			<input>
				<port id="0">
					<dim>1</dim>
					<dim>128</dim>
					<dim>1</dim>
					<dim>1</dim>
				</port>
			</input>
			<output>
				<port id="1" precision="FP32">
					<dim>1</dim>
					<dim>128</dim>
					<dim>1</dim>
					<dim>1</dim>
				</port>
			</output>
		</layer>
		<layer id="487" name="BatchNormalization_58" type="Add" version="opset1">
			<data auto_broadcast="numpy"/>
			<input>
				<port id="0">
					<dim>1</dim>
					<dim>128</dim>
					<dim>80</dim>
					<dim>80</dim>
				</port>
				<port id="1">
					<dim>1</dim>
					<dim>128</dim>
					<dim>1</dim>
					<dim>1</dim>
				</port>
			</input>
			<output>
				<port id="2" precision="FP32" names="1072">
					<dim>1</dim>
					<dim>128</dim>
					<dim>80</dim>
					<dim>80</dim>
				</port>
			</output>
		</layer>
		<layer id="488" name="Relu_59" type="ReLU" version="opset1">
			<input>
				<port id="0">
					<dim>1</dim>
					<dim>128</dim>
					<dim>80</dim>
					<dim>80</dim>
				</port>
			</input>
			<output>
				<port id="1" precision="FP32" names="1073">
					<dim>1</dim>
					<dim>128</dim>
					<dim>80</dim>
					<dim>80</dim>
				</port>
			</output>
		</layer>
		<layer id="489" name="Multiply_71538/fq_input_0" type="FakeQuantize" version="opset1">
			<data levels="256" auto_broadcast="numpy"/>
			<input>
				<port id="0">
					<dim>1</dim>
					<dim>128</dim>
					<dim>80</dim>
					<dim>80</dim>
				</port>
				<port id="1"/>
				<port id="2"/>
				<port id="3"/>
				<port id="4"/>
			</input>
			<output>
				<port id="5" precision="FP32">
					<dim>1</dim>
					<dim>128</dim>
					<dim>80</dim>
					<dim>80</dim>
				</port>
			</output>
		</layer>
		<layer id="490" name="Multiply_71538/fq_weights_1/scale4675272907" type="Const" version="opset1">
			<data offset="898360" size="2048" shape="512,1,1,1" element_type="f32"/>
			<output>
				<port id="0" precision="FP32">
					<dim>512</dim>
					<dim>1</dim>
					<dim>1</dim>
					<dim>1</dim>
				</port>
			</output>
		</layer>
		<layer id="491" name="Multiply_72684391639782/restored_convert/quantized4674469160" type="Const" version="opset1">
			<data offset="900408" size="65536" shape="512,128,1,1" element_type="i8"/>
			<output>
				<port id="0" precision="I8">
					<dim>512</dim>
					<dim>128</dim>
					<dim>1</dim>
					<dim>1</dim>
				</port>
			</output>
		</layer>
		<layer id="492" name="Multiply_72684391639782/restored_convert/quantized/to_f32" type="Convert" version="opset1">
			<data destination_type="f32"/>
			<input>
				<port id="0">
					<dim>512</dim>
					<dim>128</dim>
					<dim>1</dim>
					<dim>1</dim>
				</port>
			</input>
			<output>
				<port id="1" precision="FP32">
					<dim>512</dim>
					<dim>128</dim>
					<dim>1</dim>
					<dim>1</dim>
				</port>
			</output>
		</layer>
		<layer id="493" name="Multiply_71538/fq_weights_1/mulpiply_by_scale" type="Multiply" version="opset1">
			<data auto_broadcast="numpy"/>
			<input>
				<port id="0">
					<dim>512</dim>
					<dim>128</dim>
					<dim>1</dim>
					<dim>1</dim>
…
		<edge from-layer="5497" from-port="2" to-layer="5498" to-port="0"/>
		<edge from-layer="5498" from-port="1" to-layer="5499" to-port="0"/>
		<edge from-layer="5434" from-port="0" to-layer="5499" to-port="1"/>
		<edge from-layer="5435" from-port="0" to-layer="5499" to-port="2"/>
		<edge from-layer="5436" from-port="0" to-layer="5499" to-port="3"/>
		<edge from-layer="5437" from-port="0" to-layer="5499" to-port="4"/>
		<edge from-layer="5499" from-port="5" to-layer="5500" to-port="0"/>
		<edge from-layer="3002" from-port="2" to-layer="5500" to-port="1"/>
		<edge from-layer="5500" from-port="2" to-layer="5501" to-port="0"/>
		<edge from-layer="5433" from-port="0" to-layer="5501" to-port="1"/>
		<edge from-layer="5501" from-port="2" to-layer="5502" to-port="0"/>
		<edge from-layer="5429" from-port="0" to-layer="5502" to-port="1"/>
		<edge from-layer="5430" from-port="0" to-layer="5502" to-port="2"/>
		<edge from-layer="5431" from-port="0" to-layer="5502" to-port="3"/>
		<edge from-layer="5432" from-port="0" to-layer="5502" to-port="4"/>
		<edge from-layer="5502" from-port="5" to-layer="5503" to-port="0"/>
		<edge from-layer="5428" from-port="0" to-layer="5503" to-port="1"/>
		<edge from-layer="5503" from-port="2" to-layer="5504" to-port="0"/>
		<edge from-layer="5427" from-port="0" to-layer="5504" to-port="1"/>
		<edge from-layer="5504" from-port="2" to-layer="5505" to-port="0"/>
		<edge from-layer="5426" from-port="0" to-layer="5505" to-port="1"/>
		<edge from-layer="5505" from-port="2" to-layer="5506" to-port="0"/>
		<edge from-layer="5422" from-port="0" to-layer="5506" to-port="1"/>
		<edge from-layer="5423" from-port="0" to-layer="5506" to-port="2"/>
		<edge from-layer="5424" from-port="0" to-layer="5506" to-port="3"/>
		<edge from-layer="5425" from-port="0" to-layer="5506" to-port="4"/>
		<edge from-layer="5501" from-port="2" to-layer="5507" to-port="0"/>
		<edge from-layer="5506" from-port="5" to-layer="5508" to-port="0"/>
		<edge from-layer="5507" from-port="1" to-layer="5508" to-port="1"/>
		<edge from-layer="5509" from-port="0" to-layer="5510" to-port="0"/>
		<edge from-layer="5508" from-port="2" to-layer="5511" to-port="0"/>
		<edge from-layer="5510" from-port="1" to-layer="5511" to-port="1"/>
		<edge from-layer="5512" from-port="0" to-layer="5513" to-port="0"/>
		<edge from-layer="5511" from-port="2" to-layer="5514" to-port="0"/>
		<edge from-layer="5513" from-port="1" to-layer="5514" to-port="1"/>
		<edge from-layer="5514" from-port="2" to-layer="5515" to-port="0"/>
		<edge from-layer="5515" from-port="1" to-layer="5516" to-port="0"/>
		<edge from-layer="5418" from-port="0" to-layer="5516" to-port="1"/>
		<edge from-layer="5419" from-port="0" to-layer="5516" to-port="2"/>
		<edge from-layer="5420" from-port="0" to-layer="5516" to-port="3"/>
		<edge from-layer="5421" from-port="0" to-layer="5516" to-port="4"/>
		<edge from-layer="5516" from-port="5" to-layer="5517" to-port="0"/>
		<edge from-layer="3023" from-port="2" to-layer="5517" to-port="1"/>
		<edge from-layer="5517" from-port="2" to-layer="5518" to-port="0"/>
		<edge from-layer="5417" from-port="0" to-layer="5518" to-port="1"/>
		<edge from-layer="5518" from-port="2" to-layer="5519" to-port="0"/>
		<edge from-layer="5413" from-port="0" to-layer="5519" to-port="1"/>
		<edge from-layer="5414" from-port="0" to-layer="5519" to-port="2"/>
		<edge from-layer="5415" from-port="0" to-layer="5519" to-port="3"/>
		<edge from-layer="5416" from-port="0" to-layer="5519" to-port="4"/>
		<edge from-layer="5519" from-port="5" to-layer="5520" to-port="0"/>
		<edge from-layer="5412" from-port="0" to-layer="5520" to-port="1"/>
		<edge from-layer="5520" from-port="2" to-layer="5521" to-port="0"/>
		<edge from-layer="5411" from-port="0" to-layer="5521" to-port="1"/>
		<edge from-layer="5521" from-port="2" to-layer="5522" to-port="0"/>
		<edge from-layer="5410" from-port="0" to-layer="5522" to-port="1"/>
		<edge from-layer="5522" from-port="2" to-layer="5523" to-port="0"/>
		<edge from-layer="5406" from-port="0" to-layer="5523" to-port="1"/>
		<edge from-layer="5407" from-port="0" to-layer="5523" to-port="2"/>
		<edge from-layer="5408" from-port="0" to-layer="5523" to-port="3"/>
		<edge from-layer="5409" from-port="0" to-layer="5523" to-port="4"/>
		<edge from-layer="5518" from-port="2" to-layer="5524" to-port="0"/>
		<edge from-layer="5523" from-port="5" to-layer="5525" to-port="0"/>
		<edge from-layer="5524" from-port="1" to-layer="5525" to-port="1"/>
		<edge from-layer="5526" from-port="0" to-layer="5527" to-port="0"/>
		<edge from-layer="5525" from-port="2" to-layer="5528" to-port="0"/>
		<edge from-layer="5527" from-port="1" to-layer="5528" to-port="1"/>
		<edge from-layer="5529" from-port="0" to-layer="5530" to-port="0"/>
		<edge from-layer="5528" from-port="2" to-layer="5531" to-port="0"/>
		<edge from-layer="5530" from-port="1" to-layer="5531" to-port="1"/>
		<edge from-layer="5531" from-port="2" to-layer="5532" to-port="0"/>
		<edge from-layer="5532" from-port="1" to-layer="5533" to-port="0"/>
		<edge from-layer="5402" from-port="0" to-layer="5533" to-port="1"/>
		<edge from-layer="5403" from-port="0" to-layer="5533" to-port="2"/>
		<edge from-layer="5404" from-port="0" to-layer="5533" to-port="3"/>
		<edge from-layer="5405" from-port="0" to-layer="5533" to-port="4"/>
		<edge from-layer="5535" from-port="0" to-layer="5536" to-port="0"/>
		<edge from-layer="5536" from-port="1" to-layer="5537" to-port="0"/>
		<edge from-layer="5534" from-port="0" to-layer="5537" to-port="1"/>
		<edge from-layer="5533" from-port="5" to-layer="5538" to-port="0"/>
		<edge from-layer="5537" from-port="2" to-layer="5538" to-port="1"/>
		<edge from-layer="5539" from-port="0" to-layer="5540" to-port="0"/>
		<edge from-layer="5538" from-port="2" to-layer="5541" to-port="0"/>
		<edge from-layer="5540" from-port="1" to-layer="5541" to-port="1"/>
		<edge from-layer="5541" from-port="2" to-layer="5544" to-port="0"/>
		<edge from-layer="5542" from-port="0" to-layer="5544" to-port="1"/>
		<edge from-layer="5543" from-port="0" to-layer="5544" to-port="2"/>
		<edge from-layer="5544" from-port="3" to-layer="5546" to-port="0"/>
		<edge from-layer="5545" from-port="0" to-layer="5546" to-port="1"/>
		<edge from-layer="5546" from-port="2" to-layer="5548" to-port="0"/>
		<edge from-layer="5547" from-port="0" to-layer="5548" to-port="1"/>
		<edge from-layer="5549" from-port="0" to-layer="5550" to-port="0"/>
		<edge from-layer="5548" from-port="2" to-layer="5552" to-port="0"/>
		<edge from-layer="5552" from-port="1" to-layer="5555" to-port="0"/>
		<edge from-layer="5553" from-port="0" to-layer="5555" to-port="1"/>
		<edge from-layer="5554" from-port="0" to-layer="5555" to-port="2"/>
		<edge from-layer="5555" from-port="3" to-layer="5557" to-port="0"/>
		<edge from-layer="5556" from-port="0" to-layer="5557" to-port="1"/>
		<edge from-layer="5557" from-port="2" to-layer="5559" to-port="0"/>
		<edge from-layer="5558" from-port="0" to-layer="5559" to-port="1"/>
		<edge from-layer="5551" from-port="0" to-layer="5560" to-port="0"/>
		<edge from-layer="5559" from-port="2" to-layer="5560" to-port="1"/>
		<edge from-layer="5550" from-port="1" to-layer="5561" to-port="0"/>
		<edge from-layer="5560" from-port="2" to-layer="5561" to-port="1"/>
		<edge from-layer="5548" from-port="2" to-layer="5562" to-port="0"/>
		<edge from-layer="5561" from-port="2" to-layer="5562" to-port="1"/>
		<edge from-layer="5563" from-port="0" to-layer="5564" to-port="0"/>
		<edge from-layer="5552" from-port="1" to-layer="5568" to-port="0"/>
		<edge from-layer="5566" from-port="0" to-layer="5568" to-port="1"/>
		<edge from-layer="5567" from-port="0" to-layer="5568" to-port="2"/>
		<edge from-layer="5568" from-port="3" to-layer="5570" to-port="0"/>
		<edge from-layer="5569" from-port="0" to-layer="5570" to-port="1"/>
		<edge from-layer="5570" from-port="2" to-layer="5572" to-port="0"/>
		<edge from-layer="5571" from-port="0" to-layer="5572" to-port="1"/>
		<edge from-layer="5565" from-port="0" to-layer="5573" to-port="0"/>
		<edge from-layer="5572" from-port="2" to-layer="5573" to-port="1"/>
		<edge from-layer="5564" from-port="1" to-layer="5574" to-port="0"/>
		<edge from-layer="5573" from-port="2" to-layer="5574" to-port="1"/>
		<edge from-layer="5562" from-port="2" to-layer="5575" to-port="0"/>
		<edge from-layer="5574" from-port="2" to-layer="5575" to-port="1"/>
		<edge from-layer="5575" from-port="2" to-layer="5579" to-port="0"/>
		<edge from-layer="5576" from-port="0" to-layer="5579" to-port="1"/>
		<edge from-layer="5577" from-port="0" to-layer="5579" to-port="2"/>
		<edge from-layer="5578" from-port="0" to-layer="5579" to-port="3"/>
		<edge from-layer="5579" from-port="4" to-layer="5580" to-port="0"/>
		<edge from-layer="5401" from-port="2" to-layer="5581" to-port="0"/>
		<edge from-layer="5580" from-port="1" to-layer="5581" to-port="1"/>
		<edge from-layer="5389" from-port="2" to-layer="5584" to-port="0"/>
		<edge from-layer="5582" from-port="0" to-layer="5584" to-port="1"/>
		<edge from-layer="5583" from-port="0" to-layer="5584" to-port="2"/>
		<edge from-layer="5389" from-port="2" to-layer="5587" to-port="0"/>
		<edge from-layer="5585" from-port="0" to-layer="5587" to-port="1"/>
		<edge from-layer="5586" from-port="0" to-layer="5587" to-port="2"/>
		<edge from-layer="5584" from-port="3" to-layer="5588" to-port="0"/>
		<edge from-layer="5587" from-port="3" to-layer="5588" to-port="1"/>
		<edge from-layer="5588" from-port="2" to-layer="5590" to-port="0"/>
		<edge from-layer="5589" from-port="0" to-layer="5590" to-port="1"/>
		<edge from-layer="5575" from-port="2" to-layer="5594" to-port="0"/>
		<edge from-layer="5591" from-port="0" to-layer="5594" to-port="1"/>
		<edge from-layer="5592" from-port="0" to-layer="5594" to-port="2"/>
		<edge from-layer="5593" from-port="0" to-layer="5594" to-port="3"/>
		<edge from-layer="5594" from-port="4" to-layer="5595" to-port="0"/>
		<edge from-layer="5595" from-port="1" to-layer="5596" to-port="0"/>
		<edge from-layer="5590" from-port="2" to-layer="5597" to-port="0"/>
		<edge from-layer="5596" from-port="1" to-layer="5597" to-port="1"/>
		<edge from-layer="5597" from-port="2" to-layer="5598" to-port="0"/>
		<edge from-layer="5579" from-port="4" to-layer="5598" to-port="1"/>
		<edge from-layer="5581" from-port="2" to-layer="5599" to-port="0"/>
		<edge from-layer="5598" from-port="2" to-layer="5599" to-port="1"/>
		<edge from-layer="5595" from-port="1" to-layer="5600" to-port="0"/>
		<edge from-layer="5597" from-port="2" to-layer="5601" to-port="0"/>
		<edge from-layer="5600" from-port="1" to-layer="5601" to-port="1"/>
		<edge from-layer="5602" from-port="0" to-layer="5603" to-port="0"/>
		<edge from-layer="5601" from-port="2" to-layer="5604" to-port="0"/>
		<edge from-layer="5603" from-port="1" to-layer="5604" to-port="1"/>
		<edge from-layer="5599" from-port="2" to-layer="5605" to-port="0"/>
		<edge from-layer="5604" from-port="2" to-layer="5605" to-port="1"/>
		<edge from-layer="5605" from-port="2" to-layer="5607" to-port="0"/>
		<edge from-layer="5606" from-port="0" to-layer="5607" to-port="1"/>
		<edge from-layer="5608" from-port="0" to-layer="5609" to-port="0"/>
		<edge from-layer="5605" from-port="2" to-layer="5610" to-port="0"/>
		<edge from-layer="5609" from-port="1" to-layer="5611" to-port="0"/>
		<edge from-layer="5610" from-port="1" to-layer="5611" to-port="1"/>
		<edge from-layer="5611" from-port="2" to-layer="5613" to-port="0"/>
		<edge from-layer="5612" from-port="0" to-layer="5613" to-port="1"/>
		<edge from-layer="5607" from-port="2" to-layer="5614" to-port="0"/>
		<edge from-layer="5613" from-port="2" to-layer="5614" to-port="1"/>
		<edge from-layer="5614" from-port="2" to-layer="5616" to-port="0"/>
		<edge from-layer="5615" from-port="0" to-layer="5616" to-port="1"/>
		<edge from-layer="5616" from-port="2" to-layer="5618" to-port="0"/>
		<edge from-layer="5617" from-port="0" to-layer="5618" to-port="1"/>
		<edge from-layer="3130" from-port="4" to-layer="5621" to-port="0"/>
		<edge from-layer="5619" from-port="0" to-layer="5621" to-port="1"/>
		<edge from-layer="5620" from-port="0" to-layer="5621" to-port="2"/>
		<edge from-layer="5621" from-port="3" to-layer="5622" to-port="0"/>
		<edge from-layer="5622" from-port="1" to-layer="5624" to-port="0"/>
		<edge from-layer="5623" from-port="0" to-layer="5624" to-port="1"/>
		<edge from-layer="5616" from-port="2" to-layer="5625" to-port="0"/>
		<edge from-layer="5624" from-port="2" to-layer="5626" to-port="0"/>
		<edge from-layer="5625" from-port="1" to-layer="5626" to-port="1"/>
		<edge from-layer="5626" from-port="2" to-layer="5628" to-port="0"/>
		<edge from-layer="5627" from-port="0" to-layer="5628" to-port="1"/>
		<edge from-layer="5618" from-port="2" to-layer="5629" to-port="0"/>
		<edge from-layer="5628" from-port="2" to-layer="5629" to-port="1"/>
		<edge from-layer="5629" from-port="2" to-layer="5631" to-port="0"/>
		<edge from-layer="5630" from-port="0" to-layer="5631" to-port="1"/>
		<edge from-layer="5631" from-port="2" to-layer="5633" to-port="0"/>
		<edge from-layer="5632" from-port="0" to-layer="5633" to-port="1"/>
		<edge from-layer="5389" from-port="2" to-layer="5636" to-port="0"/>
		<edge from-layer="5634" from-port="0" to-layer="5636" to-port="1"/>
		<edge from-layer="5635" from-port="0" to-layer="5636" to-port="2"/>
		<edge from-layer="5389" from-port="2" to-layer="5639" to-port="0"/>
		<edge from-layer="5637" from-port="0" to-layer="5639" to-port="1"/>
		<edge from-layer="5638" from-port="0" to-layer="5639" to-port="2"/>
		<edge from-layer="5636" from-port="3" to-layer="5640" to-port="0"/>
		<edge from-layer="5639" from-port="3" to-layer="5640" to-port="1"/>
		<edge from-layer="5641" from-port="0" to-layer="5642" to-port="0"/>
		<edge from-layer="5640" from-port="2" to-layer="5643" to-port="0"/>
		<edge from-layer="5642" from-port="1" to-layer="5643" to-port="1"/>
		<edge from-layer="5643" from-port="2" to-layer="5645" to-port="0"/>
		<edge from-layer="5644" from-port="0" to-layer="5645" to-port="1"/>
		<edge from-layer="5575" from-port="2" to-layer="5649" to-port="0"/>
		<edge from-layer="5646" from-port="0" to-layer="5649" to-port="1"/>
		<edge from-layer="5647" from-port="0" to-layer="5649" to-port="2"/>
		<edge from-layer="5648" from-port="0" to-layer="5649" to-port="3"/>
		<edge from-layer="5649" from-port="4" to-layer="5650" to-port="0"/>
		<edge from-layer="5645" from-port="2" to-layer="5651" to-port="0"/>
		<edge from-layer="5650" from-port="1" to-layer="5651" to-port="1"/>
		<edge from-layer="5389" from-port="2" to-layer="5654" to-port="0"/>
		<edge from-layer="5652" from-port="0" to-layer="5654" to-port="1"/>
		<edge from-layer="5653" from-port="0" to-layer="5654" to-port="2"/>
		<edge from-layer="5389" from-port="2" to-layer="5657" to-port="0"/>
		<edge from-layer="5655" from-port="0" to-layer="5657" to-port="1"/>
		<edge from-layer="5656" from-port="0" to-layer="5657" to-port="2"/>
		<edge from-layer="5654" from-port="3" to-layer="5658" to-port="0"/>
		<edge from-layer="5657" from-port="3" to-layer="5658" to-port="1"/>
		<edge from-layer="5658" from-port="2" to-layer="5660" to-port="0"/>
		<edge from-layer="5659" from-port="0" to-layer="5660" to-port="1"/>
		<edge from-layer="5575" from-port="2" to-layer="5664" to-port="0"/>
		<edge from-layer="5661" from-port="0" to-layer="5664" to-port="1"/>
		<edge from-layer="5662" from-port="0" to-layer="5664" to-port="2"/>
		<edge from-layer="5663" from-port="0" to-layer="5664" to-port="3"/>
		<edge from-layer="5664" from-port="4" to-layer="5665" to-port="0"/>
		<edge from-layer="5665" from-port="1" to-layer="5666" to-port="0"/>
		<edge from-layer="5660" from-port="2" to-layer="5667" to-port="0"/>
		<edge from-layer="5666" from-port="1" to-layer="5667" to-port="1"/>
		<edge from-layer="5667" from-port="2" to-layer="5668" to-port="0"/>
		<edge from-layer="5649" from-port="4" to-layer="5668" to-port="1"/>
		<edge from-layer="5651" from-port="2" to-layer="5669" to-port="0"/>
		<edge from-layer="5668" from-port="2" to-layer="5669" to-port="1"/>
		<edge from-layer="5665" from-port="1" to-layer="5670" to-port="0"/>
		<edge from-layer="5667" from-port="2" to-layer="5671" to-port="0"/>
		<edge from-layer="5670" from-port="1" to-layer="5671" to-port="1"/>
		<edge from-layer="5672" from-port="0" to-layer="5673" to-port="0"/>
		<edge from-layer="5671" from-port="2" to-layer="5674" to-port="0"/>
		<edge from-layer="5673" from-port="1" to-layer="5674" to-port="1"/>
		<edge from-layer="5669" from-port="2" to-layer="5675" to-port="0"/>
		<edge from-layer="5674" from-port="2" to-layer="5675" to-port="1"/>
		<edge from-layer="5675" from-port="2" to-layer="5677" to-port="0"/>
		<edge from-layer="5676" from-port="0" to-layer="5677" to-port="1"/>
		<edge from-layer="5678" from-port="0" to-layer="5679" to-port="0"/>
		<edge from-layer="5675" from-port="2" to-layer="5680" to-port="0"/>
		<edge from-layer="5679" from-port="1" to-layer="5681" to-port="0"/>
		<edge from-layer="5680" from-port="1" to-layer="5681" to-port="1"/>
		<edge from-layer="5681" from-port="2" to-layer="5683" to-port="0"/>
		<edge from-layer="5682" from-port="0" to-layer="5683" to-port="1"/>
		<edge from-layer="5677" from-port="2" to-layer="5684" to-port="0"/>
		<edge from-layer="5683" from-port="2" to-layer="5684" to-port="1"/>
		<edge from-layer="5684" from-port="2" to-layer="5686" to-port="0"/>
		<edge from-layer="5685" from-port="0" to-layer="5686" to-port="1"/>
		<edge from-layer="5686" from-port="2" to-layer="5688" to-port="0"/>
		<edge from-layer="5687" from-port="0" to-layer="5688" to-port="1"/>
		<edge from-layer="3130" from-port="4" to-layer="5691" to-port="0"/>
		<edge from-layer="5689" from-port="0" to-layer="5691" to-port="1"/>
		<edge from-layer="5690" from-port="0" to-layer="5691" to-port="2"/>
		<edge from-layer="5691" from-port="3" to-layer="5692" to-port="0"/>
		<edge from-layer="5692" from-port="1" to-layer="5694" to-port="0"/>
		<edge from-layer="5693" from-port="0" to-layer="5694" to-port="1"/>
		<edge from-layer="5686" from-port="2" to-layer="5695" to-port="0"/>
		<edge from-layer="5694" from-port="2" to-layer="5696" to-port="0"/>
		<edge from-layer="5695" from-port="1" to-layer="5696" to-port="1"/>
		<edge from-layer="5696" from-port="2" to-layer="5698" to-port="0"/>
		<edge from-layer="5697" from-port="0" to-layer="5698" to-port="1"/>
		<edge from-layer="5688" from-port="2" to-layer="5699" to-port="0"/>
		<edge from-layer="5698" from-port="2" to-layer="5699" to-port="1"/>
		<edge from-layer="5699" from-port="2" to-layer="5701" to-port="0"/>
		<edge from-layer="5700" from-port="0" to-layer="5701" to-port="1"/>
		<edge from-layer="5701" from-port="2" to-layer="5703" to-port="0"/>
		<edge from-layer="5702" from-port="0" to-layer="5703" to-port="1"/>
		<edge from-layer="5704" from-port="0" to-layer="5705" to-port="0"/>
		<edge from-layer="5601" from-port="2" to-layer="5706" to-port="0"/>
		<edge from-layer="5705" from-port="1" to-layer="5706" to-port="1"/>
		<edge from-layer="5599" from-port="2" to-layer="5707" to-port="0"/>
		<edge from-layer="5706" from-port="2" to-layer="5707" to-port="1"/>
		<edge from-layer="5707" from-port="2" to-layer="5709" to-port="0"/>
		<edge from-layer="5708" from-port="0" to-layer="5709" to-port="1"/>
		<edge from-layer="5710" from-port="0" to-layer="5711" to-port="0"/>
		<edge from-layer="5707" from-port="2" to-layer="5712" to-port="0"/>
		<edge from-layer="5711" from-port="1" to-layer="5713" to-port="0"/>
		<edge from-layer="5712" from-port="1" to-layer="5713" to-port="1"/>
		<edge from-layer="5713" from-port="2" to-layer="5715" to-port="0"/>
		<edge from-layer="5714" from-port="0" to-layer="5715" to-port="1"/>
		<edge from-layer="5709" from-port="2" to-layer="5716" to-port="0"/>
		<edge from-layer="5715" from-port="2" to-layer="5716" to-port="1"/>
		<edge from-layer="5716" from-port="2" to-layer="5718" to-port="0"/>
		<edge from-layer="5717" from-port="0" to-layer="5718" to-port="1"/>
		<edge from-layer="5718" from-port="2" to-layer="5720" to-port="0"/>
		<edge from-layer="5719" from-port="0" to-layer="5720" to-port="1"/>
		<edge from-layer="3130" from-port="4" to-layer="5723" to-port="0"/>
		<edge from-layer="5721" from-port="0" to-layer="5723" to-port="1"/>
		<edge from-layer="5722" from-port="0" to-layer="5723" to-port="2"/>
		<edge from-layer="5723" from-port="3" to-layer="5724" to-port="0"/>
		<edge from-layer="5724" from-port="1" to-layer="5726" to-port="0"/>
		<edge from-layer="5725" from-port="0" to-layer="5726" to-port="1"/>
		<edge from-layer="5718" from-port="2" to-layer="5727" to-port="0"/>
		<edge from-layer="5726" from-port="2" to-layer="5728" to-port="0"/>
		<edge from-layer="5727" from-port="1" to-layer="5728" to-port="1"/>
		<edge from-layer="5728" from-port="2" to-layer="5730" to-port="0"/>
		<edge from-layer="5729" from-port="0" to-layer="5730" to-port="1"/>
		<edge from-layer="5720" from-port="2" to-layer="5731" to-port="0"/>
		<edge from-layer="5730" from-port="2" to-layer="5731" to-port="1"/>
		<edge from-layer="5731" from-port="2" to-layer="5733" to-port="0"/>
		<edge from-layer="5732" from-port="0" to-layer="5733" to-port="1"/>
		<edge from-layer="5733" from-port="2" to-layer="5735" to-port="0"/>
		<edge from-layer="5734" from-port="0" to-layer="5735" to-port="1"/>
		<edge from-layer="5736" from-port="0" to-layer="5737" to-port="0"/>
		<edge from-layer="5671" from-port="2" to-layer="5738" to-port="0"/>
		<edge from-layer="5737" from-port="1" to-layer="5738" to-port="1"/>
		<edge from-layer="5669" from-port="2" to-layer="5739" to-port="0"/>
		<edge from-layer="5738" from-port="2" to-layer="5739" to-port="1"/>
		<edge from-layer="5739" from-port="2" to-layer="5741" to-port="0"/>
		<edge from-layer="5740" from-port="0" to-layer="5741" to-port="1"/>
		<edge from-layer="5742" from-port="0" to-layer="5743" to-port="0"/>
		<edge from-layer="5739" from-port="2" to-layer="5744" to-port="0"/>
		<edge from-layer="5743" from-port="1" to-layer="5745" to-port="0"/>
		<edge from-layer="5744" from-port="1" to-layer="5745" to-port="1"/>
		<edge from-layer="5745" from-port="2" to-layer="5747" to-port="0"/>
		<edge from-layer="5746" from-port="0" to-layer="5747" to-port="1"/>
		<edge from-layer="5741" from-port="2" to-layer="5748" to-port="0"/>
		<edge from-layer="5747" from-port="2" to-layer="5748" to-port="1"/>
		<edge from-layer="5748" from-port="2" to-layer="5750" to-port="0"/>
		<edge from-layer="5749" from-port="0" to-layer="5750" to-port="1"/>
		<edge from-layer="5750" from-port="2" to-layer="5752" to-port="0"/>
		<edge from-layer="5751" from-port="0" to-layer="5752" to-port="1"/>
		<edge from-layer="3130" from-port="4" to-layer="5755" to-port="0"/>
		<edge from-layer="5753" from-port="0" to-layer="5755" to-port="1"/>
		<edge from-layer="5754" from-port="0" to-layer="5755" to-port="2"/>
		<edge from-layer="5755" from-port="3" to-layer="5756" to-port="0"/>
		<edge from-layer="5756" from-port="1" to-layer="5758" to-port="0"/>
		<edge from-layer="5757" from-port="0" to-layer="5758" to-port="1"/>
		<edge from-layer="5750" from-port="2" to-layer="5759" to-port="0"/>
		<edge from-layer="5758" from-port="2" to-layer="5760" to-port="0"/>
		<edge from-layer="5759" from-port="1" to-layer="5760" to-port="1"/>
		<edge from-layer="5760" from-port="2" to-layer="5762" to-port="0"/>
		<edge from-layer="5761" from-port="0" to-layer="5762" to-port="1"/>
		<edge from-layer="5752" from-port="2" to-layer="5763" to-port="0"/>
		<edge from-layer="5762" from-port="2" to-layer="5763" to-port="1"/>
		<edge from-layer="5763" from-port="2" to-layer="5765" to-port="0"/>
		<edge from-layer="5764" from-port="0" to-layer="5765" to-port="1"/>
		<edge from-layer="5765" from-port="2" to-layer="5767" to-port="0"/>
		<edge from-layer="5766" from-port="0" to-layer="5767" to-port="1"/>
		<edge from-layer="5633" from-port="2" to-layer="5768" to-port="0"/>
		<edge from-layer="5703" from-port="2" to-layer="5768" to-port="1"/>
		<edge from-layer="5735" from-port="2" to-layer="5768" to-port="2"/>
		<edge from-layer="5767" from-port="2" to-layer="5768" to-port="3"/>
		<edge from-layer="5768" from-port="4" to-layer="5769" to-port="0"/>
		<edge from-layer="5552" from-port="1" to-layer="5769" to-port="1"/>
		<edge from-layer="3281" from-port="2" to-layer="5770" to-port="0"/>
		<edge from-layer="3903" from-port="2" to-layer="5770" to-port="1"/>
		<edge from-layer="4525" from-port="2" to-layer="5770" to-port="2"/>
		<edge from-layer="5147" from-port="2" to-layer="5770" to-port="3"/>
		<edge from-layer="5769" from-port="2" to-layer="5770" to-port="4"/>
		<edge from-layer="5770" from-port="5" to-layer="5772" to-port="0"/>
		<edge from-layer="5771" from-port="0" to-layer="5772" to-port="1"/>
		<edge from-layer="2828" from-port="2" to-layer="5775" to-port="0"/>
		<edge from-layer="5773" from-port="0" to-layer="5775" to-port="1"/>
		<edge from-layer="5774" from-port="0" to-layer="5775" to-port="2"/>
		<edge from-layer="5775" from-port="3" to-layer="5776" to-port="0"/>
		<edge from-layer="5776" from-port="1" to-layer="5779" to-port="0"/>
		<edge from-layer="5777" from-port="0" to-layer="5779" to-port="1"/>
		<edge from-layer="5778" from-port="0" to-layer="5779" to-port="2"/>
		<edge from-layer="5775" from-port="3" to-layer="5780" to-port="0"/>
		<edge from-layer="5779" from-port="3" to-layer="5780" to-port="1"/>
		<edge from-layer="5780" from-port="2" to-layer="5782" to-port="0"/>
		<edge from-layer="5781" from-port="0" to-layer="5782" to-port="1"/>
		<edge from-layer="5782" from-port="2" to-layer="5783" to-port="0"/>
		<edge from-layer="3471" from-port="2" to-layer="5786" to-port="0"/>
		<edge from-layer="5784" from-port="0" to-layer="5786" to-port="1"/>
		<edge from-layer="5785" from-port="0" to-layer="5786" to-port="2"/>
		<edge from-layer="5786" from-port="3" to-layer="5787" to-port="0"/>
		<edge from-layer="5787" from-port="1" to-layer="5790" to-port="0"/>
		<edge from-layer="5788" from-port="0" to-layer="5790" to-port="1"/>
		<edge from-layer="5789" from-port="0" to-layer="5790" to-port="2"/>
		<edge from-layer="5786" from-port="3" to-layer="5791" to-port="0"/>
		<edge from-layer="5790" from-port="3" to-layer="5791" to-port="1"/>
		<edge from-layer="5791" from-port="2" to-layer="5793" to-port="0"/>
		<edge from-layer="5792" from-port="0" to-layer="5793" to-port="1"/>
		<edge from-layer="5793" from-port="2" to-layer="5794" to-port="0"/>
		<edge from-layer="4093" from-port="2" to-layer="5797" to-port="0"/>
		<edge from-layer="5795" from-port="0" to-layer="5797" to-port="1"/>
		<edge from-layer="5796" from-port="0" to-layer="5797" to-port="2"/>
		<edge from-layer="5797" from-port="3" to-layer="5798" to-port="0"/>
		<edge from-layer="5798" from-port="1" to-layer="5801" to-port="0"/>
		<edge from-layer="5799" from-port="0" to-layer="5801" to-port="1"/>
		<edge from-layer="5800" from-port="0" to-layer="5801" to-port="2"/>
		<edge from-layer="5797" from-port="3" to-layer="5802" to-port="0"/>
		<edge from-layer="5801" from-port="3" to-layer="5802" to-port="1"/>
		<edge from-layer="5802" from-port="2" to-layer="5804" to-port="0"/>
		<edge from-layer="5803" from-port="0" to-layer="5804" to-port="1"/>
		<edge from-layer="5804" from-port="2" to-layer="5805" to-port="0"/>
		<edge from-layer="4715" from-port="2" to-layer="5808" to-port="0"/>
		<edge from-layer="5806" from-port="0" to-layer="5808" to-port="1"/>
		<edge from-layer="5807" from-port="0" to-layer="5808" to-port="2"/>
		<edge from-layer="5808" from-port="3" to-layer="5809" to-port="0"/>
		<edge from-layer="5809" from-port="1" to-layer="5812" to-port="0"/>
		<edge from-layer="5810" from-port="0" to-layer="5812" to-port="1"/>
		<edge from-layer="5811" from-port="0" to-layer="5812" to-port="2"/>
		<edge from-layer="5808" from-port="3" to-layer="5813" to-port="0"/>
		<edge from-layer="5812" from-port="3" to-layer="5813" to-port="1"/>
		<edge from-layer="5813" from-port="2" to-layer="5815" to-port="0"/>
		<edge from-layer="5814" from-port="0" to-layer="5815" to-port="1"/>
		<edge from-layer="5815" from-port="2" to-layer="5816" to-port="0"/>
		<edge from-layer="5337" from-port="2" to-layer="5819" to-port="0"/>
		<edge from-layer="5817" from-port="0" to-layer="5819" to-port="1"/>
		<edge from-layer="5818" from-port="0" to-layer="5819" to-port="2"/>
		<edge from-layer="5819" from-port="3" to-layer="5820" to-port="0"/>
		<edge from-layer="5820" from-port="1" to-layer="5823" to-port="0"/>
		<edge from-layer="5821" from-port="0" to-layer="5823" to-port="1"/>
		<edge from-layer="5822" from-port="0" to-layer="5823" to-port="2"/>
		<edge from-layer="5819" from-port="3" to-layer="5824" to-port="0"/>
		<edge from-layer="5823" from-port="3" to-layer="5824" to-port="1"/>
		<edge from-layer="5824" from-port="2" to-layer="5826" to-port="0"/>
		<edge from-layer="5825" from-port="0" to-layer="5826" to-port="1"/>
		<edge from-layer="5826" from-port="2" to-layer="5827" to-port="0"/>
		<edge from-layer="5783" from-port="1" to-layer="5828" to-port="0"/>
		<edge from-layer="5794" from-port="1" to-layer="5828" to-port="1"/>
		<edge from-layer="5805" from-port="1" to-layer="5828" to-port="2"/>
		<edge from-layer="5816" from-port="1" to-layer="5828" to-port="3"/>
		<edge from-layer="5827" from-port="1" to-layer="5828" to-port="4"/>
		<edge from-layer="5830" from-port="0" to-layer="5831" to-port="0"/>
		<edge from-layer="5831" from-port="1" to-layer="5832" to-port="0"/>
		<edge from-layer="5829" from-port="0" to-layer="5832" to-port="1"/>
		<edge from-layer="3040" from-port="5" to-layer="5833" to-port="0"/>
		<edge from-layer="5832" from-port="2" to-layer="5833" to-port="1"/>
		<edge from-layer="5834" from-port="0" to-layer="5835" to-port="0"/>
		<edge from-layer="5833" from-port="2" to-layer="5836" to-port="0"/>
		<edge from-layer="5835" from-port="1" to-layer="5836" to-port="1"/>
		<edge from-layer="5836" from-port="2" to-layer="5839" to-port="0"/>
		<edge from-layer="5837" from-port="0" to-layer="5839" to-port="1"/>
		<edge from-layer="5838" from-port="0" to-layer="5839" to-port="2"/>
		<edge from-layer="5839" from-port="3" to-layer="5840" to-port="0"/>
		<edge from-layer="5840" from-port="1" to-layer="5843" to-port="0"/>
		<edge from-layer="5841" from-port="0" to-layer="5843" to-port="1"/>
		<edge from-layer="5842" from-port="0" to-layer="5843" to-port="2"/>
		<edge from-layer="5839" from-port="3" to-layer="5844" to-port="0"/>
		<edge from-layer="5843" from-port="3" to-layer="5844" to-port="1"/>
		<edge from-layer="5844" from-port="2" to-layer="5846" to-port="0"/>
		<edge from-layer="5845" from-port="0" to-layer="5846" to-port="1"/>
		<edge from-layer="5846" from-port="2" to-layer="5847" to-port="0"/>
		<edge from-layer="3667" from-port="5" to-layer="5848" to-port="0"/>
		<edge from-layer="5832" from-port="2" to-layer="5848" to-port="1"/>
		<edge from-layer="5849" from-port="0" to-layer="5850" to-port="0"/>
		<edge from-layer="5848" from-port="2" to-layer="5851" to-port="0"/>
		<edge from-layer="5850" from-port="1" to-layer="5851" to-port="1"/>
		<edge from-layer="5851" from-port="2" to-layer="5854" to-port="0"/>
		<edge from-layer="5852" from-port="0" to-layer="5854" to-port="1"/>
		<edge from-layer="5853" from-port="0" to-layer="5854" to-port="2"/>
		<edge from-layer="5854" from-port="3" to-layer="5855" to-port="0"/>
		<edge from-layer="5855" from-port="1" to-layer="5858" to-port="0"/>
		<edge from-layer="5856" from-port="0" to-layer="5858" to-port="1"/>
		<edge from-layer="5857" from-port="0" to-layer="5858" to-port="2"/>
		<edge from-layer="5854" from-port="3" to-layer="5859" to-port="0"/>
		<edge from-layer="5858" from-port="3" to-layer="5859" to-port="1"/>
		<edge from-layer="5859" from-port="2" to-layer="5861" to-port="0"/>
		<edge from-layer="5860" from-port="0" to-layer="5861" to-port="1"/>
		<edge from-layer="5861" from-port="2" to-layer="5862" to-port="0"/>
		<edge from-layer="4289" from-port="5" to-layer="5863" to-port="0"/>
		<edge from-layer="5832" from-port="2" to-layer="5863" to-port="1"/>
		<edge from-layer="5864" from-port="0" to-layer="5865" to-port="0"/>
		<edge from-layer="5863" from-port="2" to-layer="5866" to-port="0"/>
		<edge from-layer="5865" from-port="1" to-layer="5866" to-port="1"/>
		<edge from-layer="5866" from-port="2" to-layer="5869" to-port="0"/>
		<edge from-layer="5867" from-port="0" to-layer="5869" to-port="1"/>
		<edge from-layer="5868" from-port="0" to-layer="5869" to-port="2"/>
		<edge from-layer="5869" from-port="3" to-layer="5870" to-port="0"/>
		<edge from-layer="5870" from-port="1" to-layer="5873" to-port="0"/>
		<edge from-layer="5871" from-port="0" to-layer="5873" to-port="1"/>
		<edge from-layer="5872" from-port="0" to-layer="5873" to-port="2"/>
		<edge from-layer="5869" from-port="3" to-layer="5874" to-port="0"/>
		<edge from-layer="5873" from-port="3" to-layer="5874" to-port="1"/>
		<edge from-layer="5874" from-port="2" to-layer="5876" to-port="0"/>
		<edge from-layer="5875" from-port="0" to-layer="5876" to-port="1"/>
		<edge from-layer="5876" from-port="2" to-layer="5877" to-port="0"/>
		<edge from-layer="4911" from-port="5" to-layer="5878" to-port="0"/>
		<edge from-layer="5832" from-port="2" to-layer="5878" to-port="1"/>
		<edge from-layer="5879" from-port="0" to-layer="5880" to-port="0"/>
		<edge from-layer="5878" from-port="2" to-layer="5881" to-port="0"/>
		<edge from-layer="5880" from-port="1" to-layer="5881" to-port="1"/>
		<edge from-layer="5881" from-port="2" to-layer="5884" to-port="0"/>
		<edge from-layer="5882" from-port="0" to-layer="5884" to-port="1"/>
		<edge from-layer="5883" from-port="0" to-layer="5884" to-port="2"/>
		<edge from-layer="5884" from-port="3" to-layer="5885" to-port="0"/>
		<edge from-layer="5885" from-port="1" to-layer="5888" to-port="0"/>
		<edge from-layer="5886" from-port="0" to-layer="5888" to-port="1"/>
		<edge from-layer="5887" from-port="0" to-layer="5888" to-port="2"/>
		<edge from-layer="5884" from-port="3" to-layer="5889" to-port="0"/>
		<edge from-layer="5888" from-port="3" to-layer="5889" to-port="1"/>
		<edge from-layer="5889" from-port="2" to-layer="5891" to-port="0"/>
		<edge from-layer="5890" from-port="0" to-layer="5891" to-port="1"/>
		<edge from-layer="5891" from-port="2" to-layer="5892" to-port="0"/>
		<edge from-layer="5533" from-port="5" to-layer="5893" to-port="0"/>
		<edge from-layer="5832" from-port="2" to-layer="5893" to-port="1"/>
		<edge from-layer="5894" from-port="0" to-layer="5895" to-port="0"/>
		<edge from-layer="5893" from-port="2" to-layer="5896" to-port="0"/>
		<edge from-layer="5895" from-port="1" to-layer="5896" to-port="1"/>
		<edge from-layer="5896" from-port="2" to-layer="5899" to-port="0"/>
		<edge from-layer="5897" from-port="0" to-layer="5899" to-port="1"/>
		<edge from-layer="5898" from-port="0" to-layer="5899" to-port="2"/>
		<edge from-layer="5899" from-port="3" to-layer="5900" to-port="0"/>
		<edge from-layer="5900" from-port="1" to-layer="5903" to-port="0"/>
		<edge from-layer="5901" from-port="0" to-layer="5903" to-port="1"/>
		<edge from-layer="5902" from-port="0" to-layer="5903" to-port="2"/>
		<edge from-layer="5899" from-port="3" to-layer="5904" to-port="0"/>
		<edge from-layer="5903" from-port="3" to-layer="5904" to-port="1"/>
		<edge from-layer="5904" from-port="2" to-layer="5906" to-port="0"/>
		<edge from-layer="5905" from-port="0" to-layer="5906" to-port="1"/>
		<edge from-layer="5906" from-port="2" to-layer="5907" to-port="0"/>
		<edge from-layer="5847" from-port="1" to-layer="5908" to-port="0"/>
		<edge from-layer="5862" from-port="1" to-layer="5908" to-port="1"/>
		<edge from-layer="5877" from-port="1" to-layer="5908" to-port="2"/>
		<edge from-layer="5892" from-port="1" to-layer="5908" to-port="3"/>
		<edge from-layer="5907" from-port="1" to-layer="5908" to-port="4"/>
		<edge from-layer="5908" from-port="5" to-layer="5909" to-port="0"/>
		<edge from-layer="5909" from-port="1" to-layer="5911" to-port="0"/>
		<edge from-layer="5910" from-port="0" to-layer="5911" to-port="1"/>
		<edge from-layer="5908" from-port="5" to-layer="5912" to-port="0"/>
		<edge from-layer="5911" from-port="2" to-layer="5912" to-port="1"/>
		<edge from-layer="5828" from-port="5" to-layer="5913" to-port="0"/>
		<edge from-layer="5912" from-port="2" to-layer="5913" to-port="1"/>
		<edge from-layer="5913" from-port="2" to-layer="5914" to-port="0"/>
		<edge from-layer="5914" from-port="1" to-layer="5916" to-port="0"/>
		<edge from-layer="5915" from-port="0" to-layer="5916" to-port="1"/>
		<edge from-layer="5916" from-port="2" to-layer="5918" to-port="0"/>
		<edge from-layer="5917" from-port="0" to-layer="5918" to-port="1"/>
		<edge from-layer="5918" from-port="2" to-layer="5920" to-port="0"/>
		<edge from-layer="5919" from-port="0" to-layer="5920" to-port="1"/>
		<edge from-layer="5920" from-port="2" to-layer="5922" to-port="0"/>
		<edge from-layer="5921" from-port="0" to-layer="5922" to-port="1"/>
		<edge from-layer="5918" from-port="2" to-layer="5922" to-port="2"/>
		<edge from-layer="5772" from-port="2" to-layer="5923" to-port="0"/>
		<edge from-layer="5922" from-port="3" to-layer="5923" to-port="1"/>
		<edge from-layer="5923" from-port="2" to-layer="5925" to-port="0"/>
		<edge from-layer="5924" from-port="0" to-layer="5925" to-port="1"/>
		<edge from-layer="5914" from-port="1" to-layer="5929" to-port="0"/>
		<edge from-layer="5927" from-port="0" to-layer="5929" to-port="1"/>
		<edge from-layer="5928" from-port="0" to-layer="5929" to-port="2"/>
		<edge from-layer="5926" from-port="0" to-layer="5930" to-port="0"/>
		<edge from-layer="5929" from-port="3" to-layer="5930" to-port="1"/>
		<edge from-layer="5930" from-port="2" to-layer="5931" to-port="0"/>
		<edge from-layer="5931" from-port="1" to-layer="5933" to-port="0"/>
		<edge from-layer="5932" from-port="0" to-layer="5933" to-port="1"/>
		<edge from-layer="5933" from-port="2" to-layer="5935" to-port="0"/>
		<edge from-layer="5934" from-port="0" to-layer="5935" to-port="1"/>
		<edge from-layer="5935" from-port="2" to-layer="5936" to-port="0"/>
		<edge from-layer="5914" from-port="1" to-layer="5936" to-port="1"/>
		<edge from-layer="5936" from-port="2" to-layer="5938" to-port="0"/>
		<edge from-layer="5937" from-port="0" to-layer="5938" to-port="1"/>
		<edge from-layer="5938" from-port="2" to-layer="5939" to-port="0"/>
		<edge from-layer="5925" from-port="2" to-layer="5941" to-port="0"/>
		<edge from-layer="5940" from-port="0" to-layer="5941" to-port="1"/>
		<edge from-layer="5942" from-port="0" to-layer="5943" to-port="0"/>
		<edge from-layer="5941" from-port="2" to-layer="5944" to-port="0"/>
		<edge from-layer="5943" from-port="1" to-layer="5944" to-port="1"/>
		<edge from-layer="5939" from-port="1" to-layer="5945" to-port="0"/>
		<edge from-layer="5944" from-port="2" to-layer="5945" to-port="1"/>
		<edge from-layer="5945" from-port="2" to-layer="5947" to-port="0"/>
		<edge from-layer="5946" from-port="0" to-layer="5947" to-port="1"/>
		<edge from-layer="5925" from-port="2" to-layer="5948" to-port="0"/>
		<edge from-layer="5947" from-port="2" to-layer="5948" to-port="1"/>
		<edge from-layer="5913" from-port="2" to-layer="5950" to-port="0"/>
		<edge from-layer="5949" from-port="0" to-layer="5950" to-port="1"/>
		<edge from-layer="5950" from-port="2" to-layer="5952" to-port="0"/>
		<edge from-layer="5951" from-port="0" to-layer="5952" to-port="1"/>
		<edge from-layer="5948" from-port="2" to-layer="5953" to-port="0"/>
		<edge from-layer="5952" from-port="2" to-layer="5953" to-port="1"/>
		<edge from-layer="5953" from-port="2" to-layer="5957" to-port="0"/>
		<edge from-layer="5954" from-port="0" to-layer="5957" to-port="1"/>
		<edge from-layer="5955" from-port="0" to-layer="5957" to-port="2"/>
		<edge from-layer="5956" from-port="0" to-layer="5957" to-port="3"/>
		<edge from-layer="5957" from-port="4" to-layer="5959" to-port="0"/>
		<edge from-layer="5958" from-port="0" to-layer="5959" to-port="1"/>
		<edge from-layer="5953" from-port="2" to-layer="5963" to-port="0"/>
		<edge from-layer="5960" from-port="0" to-layer="5963" to-port="1"/>
		<edge from-layer="5961" from-port="0" to-layer="5963" to-port="2"/>
		<edge from-layer="5962" from-port="0" to-layer="5963" to-port="3"/>
		<edge from-layer="5963" from-port="4" to-layer="5965" to-port="0"/>
		<edge from-layer="5964" from-port="0" to-layer="5965" to-port="1"/>
		<edge from-layer="5966" from-port="0" to-layer="5967" to-port="0"/>
		<edge from-layer="5968" from-port="0" to-layer="5969" to-port="0"/>
		<edge from-layer="5959" from-port="2" to-layer="5971" to-port="0"/>
		<edge from-layer="5965" from-port="2" to-layer="5971" to-port="1"/>
		<edge from-layer="5970" from-port="0" to-layer="5971" to-port="2"/>
		<edge from-layer="5967" from-port="1" to-layer="5971" to-port="3"/>
		<edge from-layer="5969" from-port="1" to-layer="5971" to-port="4"/>
		<edge from-layer="5965" from-port="2" to-layer="5975" to-port="0"/>
		<edge from-layer="5974" from-port="0" to-layer="5975" to-port="1"/>
		<edge from-layer="5971" from-port="5" to-layer="5979" to-port="0"/>
		<edge from-layer="5976" from-port="0" to-layer="5979" to-port="1"/>
		<edge from-layer="5977" from-port="0" to-layer="5979" to-port="2"/>
		<edge from-layer="5978" from-port="0" to-layer="5979" to-port="3"/>
		<edge from-layer="5979" from-port="4" to-layer="5981" to-port="0"/>
		<edge from-layer="5980" from-port="0" to-layer="5981" to-port="1"/>
		<edge from-layer="5981" from-port="2" to-layer="5982" to-port="0"/>
		<edge from-layer="5982" from-port="1" to-layer="5983" to-port="0"/>
		<edge from-layer="5975" from-port="2" to-layer="5985" to-port="0"/>
		<edge from-layer="5983" from-port="1" to-layer="5985" to-port="1"/>
		<edge from-layer="5984" from-port="0" to-layer="5985" to-port="2"/>
		<edge from-layer="5985" from-port="3" to-layer="5986" to-port="0"/>
		<edge from-layer="5986" from-port="1" to-layer="5988" to-port="0"/>
		<edge from-layer="5987" from-port="0" to-layer="5988" to-port="1"/>
		<edge from-layer="5988" from-port="2" to-layer="5990" to-port="0"/>
		<edge from-layer="5989" from-port="0" to-layer="5990" to-port="1"/>
		<edge from-layer="5990" from-port="2" to-layer="5991" to-port="0"/>
		<edge from-layer="5985" from-port="3" to-layer="5992" to-port="0"/>
		<edge from-layer="5991" from-port="1" to-layer="5992" to-port="1"/>
		<edge from-layer="5992" from-port="3" to-layer="5994" to-port="0"/>
		<edge from-layer="5981" from-port="2" to-layer="5996" to-port="0"/>
		<edge from-layer="5994" from-port="1" to-layer="5996" to-port="1"/>
		<edge from-layer="5995" from-port="0" to-layer="5996" to-port="2"/>
		<edge from-layer="5996" from-port="3" to-layer="5997" to-port="0"/>
		<edge from-layer="5997" from-port="1" to-layer="5998" to-port="0"/>
		<edge from-layer="5925" from-port="2" to-layer="6000" to-port="0"/>
		<edge from-layer="5998" from-port="1" to-layer="6000" to-port="1"/>
		<edge from-layer="5999" from-port="0" to-layer="6000" to-port="2"/>
		<edge from-layer="5996" from-port="3" to-layer="6001" to-port="0"/>
		<edge from-layer="6001" from-port="1" to-layer="6002" to-port="0"/>
		<edge from-layer="5953" from-port="2" to-layer="6004" to-port="0"/>
		<edge from-layer="6002" from-port="1" to-layer="6004" to-port="1"/>
		<edge from-layer="6003" from-port="0" to-layer="6004" to-port="2"/>
		<edge from-layer="6004" from-port="3" to-layer="6008" to-port="0"/>
		<edge from-layer="6005" from-port="0" to-layer="6008" to-port="1"/>
		<edge from-layer="6006" from-port="0" to-layer="6008" to-port="2"/>
		<edge from-layer="6007" from-port="0" to-layer="6008" to-port="3"/>
		<edge from-layer="6008" from-port="4" to-layer="6010" to-port="0"/>
		<edge from-layer="6009" from-port="0" to-layer="6010" to-port="1"/>
		<edge from-layer="6010" from-port="2" to-layer="6012" to-port="0"/>
		<edge from-layer="6011" from-port="0" to-layer="6012" to-port="1"/>
		<edge from-layer="6000" from-port="3" to-layer="6013" to-port="0"/>
		<edge from-layer="6012" from-port="2" to-layer="6013" to-port="1"/>
		<edge from-layer="5996" from-port="3" to-layer="6014" to-port="0"/>
		<edge from-layer="6014" from-port="1" to-layer="6015" to-port="0"/>
		<edge from-layer="5938" from-port="2" to-layer="6017" to-port="0"/>
		<edge from-layer="6015" from-port="1" to-layer="6017" to-port="1"/>
		<edge from-layer="6016" from-port="0" to-layer="6017" to-port="2"/>
		<edge from-layer="6017" from-port="3" to-layer="6018" to-port="0"/>
		<edge from-layer="6018" from-port="1" to-layer="6020" to-port="0"/>
		<edge from-layer="6019" from-port="0" to-layer="6020" to-port="1"/>
		<edge from-layer="6013" from-port="2" to-layer="6021" to-port="0"/>
		<edge from-layer="6020" from-port="2" to-layer="6021" to-port="1"/>
		<edge from-layer="6021" from-port="2" to-layer="6025" to-port="0"/>
		<edge from-layer="6022" from-port="0" to-layer="6025" to-port="1"/>
		<edge from-layer="6023" from-port="0" to-layer="6025" to-port="2"/>
		<edge from-layer="6024" from-port="0" to-layer="6025" to-port="3"/>
		<edge from-layer="6021" from-port="2" to-layer="6029" to-port="0"/>
		<edge from-layer="6027" from-port="0" to-layer="6029" to-port="1"/>
		<edge from-layer="6028" from-port="0" to-layer="6029" to-port="2"/>
		<edge from-layer="6029" from-port="3" to-layer="6030" to-port="0"/>
		<edge from-layer="6030" from-port="1" to-layer="6032" to-port="0"/>
		<edge from-layer="6031" from-port="0" to-layer="6032" to-port="1"/>
		<edge from-layer="6025" from-port="4" to-layer="6026" to-port="0"/>
		<edge from-layer="6032" from-port="2" to-layer="6033" to-port="0"/>
	</edges>
	<meta_data>
		<MO_version value="custom_HEAD_0e242b324458ed332f0907ac6d88fc24b610d9b9"/>
		<Runtime_version value="2022.3.0-000-0e242b32445-HEAD"/>
		<legacy_path value="True"/>
		<cli_parameters>
			<caffe_parser_path value="DIR"/>
			<data_type value="FP16"/>
			<disable_nhwc_to_nchw value="False"/>
			<disable_omitting_optional value="False"/>
			<disable_resnet_optimization value="False"/>
			<disable_weights_compression value="False"/>
			<enable_concat_optimization value="False"/>
			<enable_flattening_nested_params value="False"/>
			<enable_ssd_gluoncv value="False"/>
			<extensions value="['/opt/home/sys_k8sworker/workspace/DL-Benchmark/try/convert']"/>
			<framework value="onnx"/>
			<input value="image"/>
			<input_model value="DIR/model_no_custom.onnx"/>
			<input_model_is_text value="False"/>
			<input_shape value="[1,3,640,640]"/>
			<k value="DIR/CustomLayersMapping.xml"/>
			<layout value="image(nchw)"/>
			<legacy_mxnet_model value="False"/>
			<log_level value="ERROR"/>
			<mean_values value="image[123.675,116.28,103.53]"/>
			<model_name value="face-detection-0206"/>
			<output value="boxes,labels"/>
			<output_dir value="DIR"/>
			<progress value="False"/>
			<remove_memory value="False"/>
			<remove_output_softmax value="False"/>
			<reverse_input_channels value="True"/>
			<save_params_from_nd value="False"/>
			<scale_values value="image[58.395,57.12,57.375]"/>
			<silent value="True"/>
			<source_layout value="()"/>
			<static_shape value="False"/>
			<stream_output value="False"/>
			<target_layout value="()"/>
			<transform value=""/>
			<use_legacy_frontend value="False"/>
			<use_new_frontend value="False"/>
			<unset unset_cli_parameters="batch, counts, disable_fusing, finegrain_fusing, freeze_placeholder_with_value, input_checkpoint, input_meta_graph, input_proto, input_symbol, mean_file, mean_file_offsets, nd_prefix_name, pretrained_model_name, saved_model_dir, saved_model_tags, scale, tensorboard_logdir, tensorflow_custom_layer_libraries, tensorflow_custom_operations_config_update, tensorflow_object_detection_api_pipeline_config, tensorflow_use_custom_operations_config, transformations_config"/>
		</cli_parameters>
	</meta_data>
	<quantization_parameters>
		<config>{
		'compression': {
			'algorithms': [
				{
					'name': 'DefaultQuantization',
					'params': {
						'num_samples_for_tuning': 2000,
						'preset': 'performance',
						'stat_subset_size': 300,
						'use_layerwise_tuning': false
					}
				}
			],
			'dump_intermediate_model': true,
			'target_device': 'ANY'
		},
		'engine': {
			'models': [
				{
					'name': 'face-detection-0206',
					'launchers': [
						{
							'framework': 'openvino',
							'adapter': {
								'type': 'class_agnostic_detection',
								'scale': 0.0015625
							},
							'device': 'cpu'
						}
					],
					'datasets': [
						{
							'name': 'wider',
							'data_source': 'PATH',
							'annotation_conversion': {
								'converter': 'wider',
								'annotation_file': 'PATH'
							},
							'annotation': 'PATH',
							'dataset_meta': 'PATH',
							'preprocessing': [
								{
									'type': 'resize',
									'size': 640
								}
							],
							'postprocessing': [
								{
									'type': 'resize_prediction_boxes'
								},
								{
									'type': 'cast_to_int'
								},
								{
									'type': 'clip_boxes',
									'size': 1024,
									'apply_to': 'annotation'
								},
								{
									'type': 'filter',
									'apply_to': 'annotation',
									'height_range': '64, 1024',
									'is_empty': true
								}
							],
							'metrics': [
								{
									'type': 'map',
									'ignore_difficult': true,
									'include_boundaries': false,
									'allow_multiple_matches_per_ignored': true,
									'distinct_conf': false,
									'reference': 0.9427
								}
							],
							'_command_line_mapping': {
								'annotation_file': 'PATH'
							}
						}
					]
				}
			],
			'stat_requests_number': null,
			'eval_requests_number': null,
			'type': 'accuracy_checker'
		}
	}</config>
		<version value="invalid version"/>
		<cli_params value="{'quantize': None, 'preset': None, 'model': None, 'weights': None, 'name': None, 'engine': None, 'ac_config': None, 'max_drop': None, 'evaluate': False, 'output_dir': 'PATH', 'direct_dump': True, 'log_level': 'INFO', 'pbar': False, 'stream_output': False, 'keep_uncompressed_weights': False, 'data_source': None}"/>
	</quantization_parameters>
</net>
