<?xml version="1.0"?>
<net name="torch-jit-export" version="11">
	<layers>
		<layer id="0" name="image" type="Parameter" version="opset1">
			<data shape="1,3,640,640" element_type="f32" />
			<output>
				<port id="0" precision="FP32" names="image">
					<dim>1</dim>
					<dim>3</dim>
					<dim>640</dim>
					<dim>640</dim>
					<rt_info>
						<attribute name="layout" version="0" layout="[N,C,H,W]" />
					</rt_info>
				</port>
			</output>
		</layer>
		<layer id="1" name="2334" type="Const" version="opset1">
			<data element_type="f32" shape="1, 1, 4" offset="0" size="16" />
			<output>
				<port id="0" precision="FP32" names="2334">
					<dim>1</dim>
					<dim>1</dim>
					<dim>4</dim>
				</port>
			</output>
		</layer>
		<layer id="2" name="Constant_3645" type="Const" version="opset1">
			<data element_type="i64" shape="" offset="16" size="8" />
			<output>
				<port id="0" precision="I64" />
			</output>
		</layer>
		<layer id="3" name="Gather_47928" type="Const" version="opset1">
			<data element_type="f32" shape="1, 3, 1, 1" offset="24" size="12" />
			<rt_info>
				<attribute name="preprocessing" version="0" />
			</rt_info>
			<output>
				<port id="0" precision="FP32">
					<dim>1</dim>
					<dim>3</dim>
					<dim>1</dim>
					<dim>1</dim>
				</port>
			</output>
		</layer>
		<layer id="4" name="Subtract_6853" type="Subtract" version="opset1">
			<data auto_broadcast="numpy" />
			<rt_info>
				<attribute name="preprocessing" version="0" />
			</rt_info>
			<input>
				<port id="0" precision="FP32">
					<dim>1</dim>
					<dim>3</dim>
					<dim>640</dim>
					<dim>640</dim>
				</port>
				<port id="1" precision="FP32">
					<dim>1</dim>
					<dim>3</dim>
					<dim>1</dim>
					<dim>1</dim>
				</port>
			</input>
			<output>
				<port id="2" precision="FP32">
					<dim>1</dim>
					<dim>3</dim>
					<dim>640</dim>
					<dim>640</dim>
				</port>
			</output>
		</layer>
		<layer id="5" name="Gather_47931" type="Const" version="opset1">
			<data element_type="f32" shape="1, 3, 1, 1" offset="36" size="12" />
			<rt_info>
				<attribute name="preprocessing" version="0" />
			</rt_info>
			<output>
				<port id="0" precision="FP32">
					<dim>1</dim>
					<dim>3</dim>
					<dim>1</dim>
					<dim>1</dim>
				</port>
			</output>
		</layer>
		<layer id="6" name="Divide_6855" type="Multiply" version="opset1">
			<data auto_broadcast="numpy" />
			<rt_info>
				<attribute name="preprocessing" version="0" />
			</rt_info>
			<input>
				<port id="0" precision="FP32">
					<dim>1</dim>
					<dim>3</dim>
					<dim>640</dim>
					<dim>640</dim>
				</port>
				<port id="1" precision="FP32">
					<dim>1</dim>
					<dim>3</dim>
					<dim>1</dim>
					<dim>1</dim>
				</port>
			</input>
			<output>
				<port id="2" precision="FP32">
					<dim>1</dim>
					<dim>3</dim>
					<dim>640</dim>
					<dim>640</dim>
				</port>
			</output>
		</layer>
		<layer id="7" name="Gather_47934" type="Const" version="opset1">
			<data element_type="f32" shape="64, 3, 7, 7" offset="48" size="37632" />
			<rt_info>
				<attribute name="preprocessing" version="0" />
			</rt_info>
			<output>
				<port id="0" precision="FP32">
					<dim>64</dim>
					<dim>3</dim>
					<dim>7</dim>
					<dim>7</dim>
				</port>
			</output>
		</layer>
		<layer id="8" name="Multiply_44124" type="Convolution" version="opset1">
			<data strides="2, 2" dilations="1, 1" pads_begin="3, 3" pads_end="3, 3" auto_pad="explicit" />
			<input>
				<port id="0" precision="FP32">
					<dim>1</dim>
					<dim>3</dim>
					<dim>640</dim>
					<dim>640</dim>
				</port>
				<port id="1" precision="FP32">
					<dim>64</dim>
					<dim>3</dim>
					<dim>7</dim>
					<dim>7</dim>
				</port>
			</input>
			<output>
				<port id="2" precision="FP32">
					<dim>1</dim>
					<dim>64</dim>
					<dim>320</dim>
					<dim>320</dim>
				</port>
			</output>
		</layer>
		<layer id="9" name="Constant_44129" type="Const" version="opset1">
			<data element_type="f32" shape="1, 64, 1, 1" offset="37680" size="256" />
			<output>
				<port id="0" precision="FP32">
					<dim>1</dim>
					<dim>64</dim>
					<dim>1</dim>
					<dim>1</dim>
				</port>
			</output>
		</layer>
		<layer id="10" name="BatchNormalization_7" type="Add" version="opset1">
			<data auto_broadcast="numpy" />
			<input>
				<port id="0" precision="FP32">
					<dim>1</dim>
					<dim>64</dim>
					<dim>320</dim>
					<dim>320</dim>
				</port>
				<port id="1" precision="FP32">
					<dim>1</dim>
					<dim>64</dim>
					<dim>1</dim>
					<dim>1</dim>
				</port>
			</input>
			<output>
				<port id="2" precision="FP32" names="1021">
					<dim>1</dim>
					<dim>64</dim>
					<dim>320</dim>
					<dim>320</dim>
				</port>
			</output>
		</layer>
		<layer id="11" name="Relu_8" type="ReLU" version="opset1">
			<input>
				<port id="0" precision="FP32">
					<dim>1</dim>
					<dim>64</dim>
					<dim>320</dim>
					<dim>320</dim>
				</port>
			</input>
			<output>
				<port id="1" precision="FP32" names="1022">
					<dim>1</dim>
					<dim>64</dim>
					<dim>320</dim>
					<dim>320</dim>
				</port>
			</output>
		</layer>
		<layer id="12" name="MaxPool_9" type="MaxPool" version="opset8">
			<data strides="2, 2" dilations="1, 1" pads_begin="1, 1" pads_end="1, 1" kernel="3, 3" rounding_type="floor" auto_pad="explicit" index_element_type="i64" axis="0" />
			<input>
				<port id="0" precision="FP32">
					<dim>1</dim>
					<dim>64</dim>
					<dim>320</dim>
					<dim>320</dim>
				</port>
			</input>
			<output>
				<port id="1" precision="FP32" names="1023">
					<dim>1</dim>
					<dim>64</dim>
					<dim>160</dim>
					<dim>160</dim>
				</port>
				<port id="2" precision="I64">
					<dim>1</dim>
					<dim>64</dim>
					<dim>160</dim>
					<dim>160</dim>
				</port>
			</output>
		</layer>
		<layer id="13" name="Multiply_45239" type="Const" version="opset1">
			<data element_type="f32" shape="64, 64, 1, 1" offset="37936" size="16384" />
			<output>
				<port id="0" precision="FP32">
					<dim>64</dim>
					<dim>64</dim>
					<dim>1</dim>
					<dim>1</dim>
				</port>
			</output>
		</layer>
		<layer id="14" name="Multiply_44131" type="Convolution" version="opset1">
			<data strides="1, 1" dilations="1, 1" pads_begin="0, 0" pads_end="0, 0" auto_pad="explicit" />
			<input>
				<port id="0" precision="FP32">
					<dim>1</dim>
					<dim>64</dim>
					<dim>160</dim>
					<dim>160</dim>
				</port>
				<port id="1" precision="FP32">
					<dim>64</dim>
					<dim>64</dim>
					<dim>1</dim>
					<dim>1</dim>
				</port>
			</input>
			<output>
				<port id="2" precision="FP32">
					<dim>1</dim>
					<dim>64</dim>
					<dim>160</dim>
					<dim>160</dim>
				</port>
			</output>
		</layer>
		<layer id="15" name="Constant_44136" type="Const" version="opset1">
			<data element_type="f32" shape="1, 64, 1, 1" offset="54320" size="256" />
			<output>
				<port id="0" precision="FP32">
					<dim>1</dim>
					<dim>64</dim>
					<dim>1</dim>
					<dim>1</dim>
				</port>
			</output>
		</layer>
		<layer id="16" name="BatchNormalization_13" type="Add" version="opset1">
			<data auto_broadcast="numpy" />
			<input>
				<port id="0" precision="FP32">
					<dim>1</dim>
					<dim>64</dim>
					<dim>160</dim>
					<dim>160</dim>
				</port>
				<port id="1" precision="FP32">
					<dim>1</dim>
					<dim>64</dim>
					<dim>1</dim>
					<dim>1</dim>
				</port>
			</input>
			<output>
				<port id="2" precision="FP32" names="1027">
					<dim>1</dim>
					<dim>64</dim>
					<dim>160</dim>
					<dim>160</dim>
				</port>
			</output>
		</layer>
		<layer id="17" name="Relu_14" type="ReLU" version="opset1">
			<input>
				<port id="0" precision="FP32">
					<dim>1</dim>
					<dim>64</dim>
					<dim>160</dim>
					<dim>160</dim>
				</port>
			</input>
			<output>
				<port id="1" precision="FP32" names="1028">
					<dim>1</dim>
					<dim>64</dim>
					<dim>160</dim>
					<dim>160</dim>
				</port>
			</output>
		</layer>
		<layer id="18" name="Multiply_45245" type="Const" version="opset1">
			<data element_type="f32" shape="64, 64, 3, 3" offset="54576" size="147456" />
			<output>
				<port id="0" precision="FP32">
					<dim>64</dim>
					<dim>64</dim>
					<dim>3</dim>
					<dim>3</dim>
				</port>
			</output>
		</layer>
		<layer id="19" name="Multiply_44138" type="Convolution" version="opset1">
			<data strides="1, 1" dilations="1, 1" pads_begin="1, 1" pads_end="1, 1" auto_pad="explicit" />
			<input>
				<port id="0" precision="FP32">
					<dim>1</dim>
					<dim>64</dim>
					<dim>160</dim>
					<dim>160</dim>
				</port>
				<port id="1" precision="FP32">
					<dim>64</dim>
					<dim>64</dim>
					<dim>3</dim>
					<dim>3</dim>
				</port>
			</input>
			<output>
				<port id="2" precision="FP32">
					<dim>1</dim>
					<dim>64</dim>
					<dim>160</dim>
					<dim>160</dim>
				</port>
			</output>
		</layer>
		<layer id="20" name="Constant_44143" type="Const" version="opset1">
			<data element_type="f32" shape="1, 64, 1, 1" offset="202032" size="256" />
			<output>
				<port id="0" precision="FP32">
					<dim>1</dim>
					<dim>64</dim>
					<dim>1</dim>
					<dim>1</dim>
				</port>
			</output>
		</layer>
		<layer id="21" name="BatchNormalization_16" type="Add" version="opset1">
			<data auto_broadcast="numpy" />
			<input>
				<port id="0" precision="FP32">
					<dim>1</dim>
					<dim>64</dim>
					<dim>160</dim>
					<dim>160</dim>
				</port>
				<port id="1" precision="FP32">
					<dim>1</dim>
					<dim>64</dim>
					<dim>1</dim>
					<dim>1</dim>
				</port>
			</input>
			<output>
				<port id="2" precision="FP32" names="1030">
					<dim>1</dim>
					<dim>64</dim>
					<dim>160</dim>
					<dim>160</dim>
				</port>
			</output>
		</layer>
		<layer id="22" name="Relu_17" type="ReLU" version="opset1">
			<input>
				<port id="0" precision="FP32">
					<dim>1</dim>
					<dim>64</dim>
					<dim>160</dim>
					<dim>160</dim>
				</port>
			</input>
			<output>
				<port id="1" precision="FP32" names="1031">
					<dim>1</dim>
					<dim>64</dim>
					<dim>160</dim>
					<dim>160</dim>
				</port>
			</output>
		</layer>
		<layer id="23" name="Multiply_45251" type="Const" version="opset1">
			<data element_type="f32" shape="256, 64, 1, 1" offset="202288" size="65536" />
			<output>
				<port id="0" precision="FP32">
					<dim>256</dim>
					<dim>64</dim>
					<dim>1</dim>
					<dim>1</dim>
				</port>
			</output>
		</layer>
		<layer id="24" name="Multiply_44145" type="Convolution" version="opset1">
			<data strides="1, 1" dilations="1, 1" pads_begin="0, 0" pads_end="0, 0" auto_pad="explicit" />
			<input>
				<port id="0" precision="FP32">
					<dim>1</dim>
					<dim>64</dim>
					<dim>160</dim>
					<dim>160</dim>
				</port>
				<port id="1" precision="FP32">
					<dim>256</dim>
					<dim>64</dim>
					<dim>1</dim>
					<dim>1</dim>
				</port>
			</input>
			<output>
				<port id="2" precision="FP32">
					<dim>1</dim>
					<dim>256</dim>
					<dim>160</dim>
					<dim>160</dim>
				</port>
			</output>
		</layer>
		<layer id="25" name="Constant_44150" type="Const" version="opset1">
			<data element_type="f32" shape="1, 256, 1, 1" offset="267824" size="1024" />
			<output>
				<port id="0" precision="FP32">
					<dim>1</dim>
					<dim>256</dim>
					<dim>1</dim>
					<dim>1</dim>
				</port>
			</output>
		</layer>
		<layer id="26" name="BatchNormalization_19" type="Add" version="opset1">
			<data auto_broadcast="numpy" />
			<input>
				<port id="0" precision="FP32">
					<dim>1</dim>
					<dim>256</dim>
					<dim>160</dim>
					<dim>160</dim>
				</port>
				<port id="1" precision="FP32">
					<dim>1</dim>
					<dim>256</dim>
					<dim>1</dim>
					<dim>1</dim>
				</port>
			</input>
			<output>
				<port id="2" precision="FP32" names="1033">
					<dim>1</dim>
					<dim>256</dim>
					<dim>160</dim>
					<dim>160</dim>
				</port>
			</output>
		</layer>
		<layer id="27" name="Multiply_45257" type="Const" version="opset1">
			<data element_type="f32" shape="256, 64, 1, 1" offset="268848" size="65536" />
			<output>
				<port id="0" precision="FP32">
					<dim>256</dim>
					<dim>64</dim>
					<dim>1</dim>
					<dim>1</dim>
				</port>
			</output>
		</layer>
		<layer id="28" name="Multiply_44152" type="Convolution" version="opset1">
			<data strides="1, 1" dilations="1, 1" pads_begin="0, 0" pads_end="0, 0" auto_pad="explicit" />
			<input>
				<port id="0" precision="FP32">
					<dim>1</dim>
					<dim>64</dim>
					<dim>160</dim>
					<dim>160</dim>
				</port>
				<port id="1" precision="FP32">
					<dim>256</dim>
					<dim>64</dim>
					<dim>1</dim>
					<dim>1</dim>
				</port>
			</input>
			<output>
				<port id="2" precision="FP32">
					<dim>1</dim>
					<dim>256</dim>
					<dim>160</dim>
					<dim>160</dim>
				</port>
			</output>
		</layer>
		<layer id="29" name="Constant_44157" type="Const" version="opset1">
			<data element_type="f32" shape="1, 256, 1, 1" offset="334384" size="1024" />
			<output>
				<port id="0" precision="FP32">
					<dim>1</dim>
					<dim>256</dim>
					<dim>1</dim>
					<dim>1</dim>
				</port>
			</output>
		</layer>
		<layer id="30" name="BatchNormalization_11" type="Add" version="opset1">
			<data auto_broadcast="numpy" />
			<input>
				<port id="0" precision="FP32">
					<dim>1</dim>
					<dim>256</dim>
					<dim>160</dim>
					<dim>160</dim>
				</port>
				<port id="1" precision="FP32">
					<dim>1</dim>
					<dim>256</dim>
					<dim>1</dim>
					<dim>1</dim>
				</port>
			</input>
			<output>
				<port id="2" precision="FP32" names="1025">
					<dim>1</dim>
					<dim>256</dim>
					<dim>160</dim>
					<dim>160</dim>
				</port>
			</output>
		</layer>
		<layer id="31" name="Add_20" type="Add" version="opset1">
			<data auto_broadcast="numpy" />
			<input>
				<port id="0" precision="FP32">
					<dim>1</dim>
					<dim>256</dim>
					<dim>160</dim>
					<dim>160</dim>
				</port>
				<port id="1" precision="FP32">
					<dim>1</dim>
					<dim>256</dim>
					<dim>160</dim>
					<dim>160</dim>
				</port>
			</input>
			<output>
				<port id="2" precision="FP32" names="1034">
					<dim>1</dim>
					<dim>256</dim>
					<dim>160</dim>
					<dim>160</dim>
				</port>
			</output>
		</layer>
		<layer id="32" name="Relu_21" type="ReLU" version="opset1">
			<input>
				<port id="0" precision="FP32">
					<dim>1</dim>
					<dim>256</dim>
					<dim>160</dim>
					<dim>160</dim>
				</port>
			</input>
			<output>
				<port id="1" precision="FP32" names="1035">
					<dim>1</dim>
					<dim>256</dim>
					<dim>160</dim>
					<dim>160</dim>
				</port>
			</output>
		</layer>
		<layer id="33" name="Multiply_45263" type="Const" version="opset1">
			<data element_type="f32" shape="64, 256, 1, 1" offset="335408" size="65536" />
			<output>
				<port id="0" precision="FP32">
					<dim>64</dim>
					<dim>256</dim>
					<dim>1</dim>
					<dim>1</dim>
				</port>
			</output>
		</layer>
		<layer id="34" name="Multiply_44159" type="Convolution" version="opset1">
			<data strides="1, 1" dilations="1, 1" pads_begin="0, 0" pads_end="0, 0" auto_pad="explicit" />
			<input>
				<port id="0" precision="FP32">
					<dim>1</dim>
					<dim>256</dim>
					<dim>160</dim>
					<dim>160</dim>
				</port>
				<port id="1" precision="FP32">
					<dim>64</dim>
					<dim>256</dim>
					<dim>1</dim>
					<dim>1</dim>
				</port>
			</input>
			<output>
				<port id="2" precision="FP32">
					<dim>1</dim>
					<dim>64</dim>
					<dim>160</dim>
					<dim>160</dim>
				</port>
			</output>
		</layer>
		<layer id="35" name="Constant_44164" type="Const" version="opset1">
			<data element_type="f32" shape="1, 64, 1, 1" offset="400944" size="256" />
			<output>
				<port id="0" precision="FP32">
					<dim>1</dim>
					<dim>64</dim>
					<dim>1</dim>
					<dim>1</dim>
				</port>
			</output>
		</layer>
		<layer id="36" name="BatchNormalization_23" type="Add" version="opset1">
			<data auto_broadcast="numpy" />
			<input>
				<port id="0" precision="FP32">
					<dim>1</dim>
					<dim>64</dim>
					<dim>160</dim>
					<dim>160</dim>
				</port>
				<port id="1" precision="FP32">
					<dim>1</dim>
					<dim>64</dim>
					<dim>1</dim>
					<dim>1</dim>
				</port>
			</input>
			<output>
				<port id="2" precision="FP32" names="1037">
					<dim>1</dim>
					<dim>64</dim>
					<dim>160</dim>
					<dim>160</dim>
				</port>
			</output>
		</layer>
		<layer id="37" name="Relu_24" type="ReLU" version="opset1">
			<input>
				<port id="0" precision="FP32">
					<dim>1</dim>
					<dim>64</dim>
					<dim>160</dim>
					<dim>160</dim>
				</port>
			</input>
			<output>
				<port id="1" precision="FP32" names="1038">
					<dim>1</dim>
					<dim>64</dim>
					<dim>160</dim>
					<dim>160</dim>
				</port>
			</output>
		</layer>
		<layer id="38" name="Multiply_45269" type="Const" version="opset1">
			<data element_type="f32" shape="64, 64, 3, 3" offset="401200" size="147456" />
			<output>
				<port id="0" precision="FP32">
					<dim>64</dim>
					<dim>64</dim>
					<dim>3</dim>
					<dim>3</dim>
				</port>
			</output>
		</layer>
		<layer id="39" name="Multiply_44166" type="Convolution" version="opset1">
			<data strides="1, 1" dilations="1, 1" pads_begin="1, 1" pads_end="1, 1" auto_pad="explicit" />
			<input>
				<port id="0" precision="FP32">
					<dim>1</dim>
					<dim>64</dim>
					<dim>160</dim>
					<dim>160</dim>
				</port>
				<port id="1" precision="FP32">
					<dim>64</dim>
					<dim>64</dim>
					<dim>3</dim>
					<dim>3</dim>
				</port>
			</input>
			<output>
				<port id="2" precision="FP32">
					<dim>1</dim>
					<dim>64</dim>
					<dim>160</dim>
					<dim>160</dim>
				</port>
			</output>
		</layer>
		<layer id="40" name="Constant_44171" type="Const" version="opset1">
			<data element_type="f32" shape="1, 64, 1, 1" offset="548656" size="256" />
			<output>
				<port id="0" precision="FP32">
					<dim>1</dim>
					<dim>64</dim>
					<dim>1</dim>
					<dim>1</dim>
				</port>
			</output>
		</layer>
		<layer id="41" name="BatchNormalization_26" type="Add" version="opset1">
			<data auto_broadcast="numpy" />
			<input>
				<port id="0" precision="FP32">
					<dim>1</dim>
					<dim>64</dim>
					<dim>160</dim>
					<dim>160</dim>
				</port>
				<port id="1" precision="FP32">
					<dim>1</dim>
					<dim>64</dim>
					<dim>1</dim>
					<dim>1</dim>
				</port>
			</input>
			<output>
				<port id="2" precision="FP32" names="1040">
					<dim>1</dim>
					<dim>64</dim>
					<dim>160</dim>
					<dim>160</dim>
				</port>
			</output>
		</layer>
		<layer id="42" name="Relu_27" type="ReLU" version="opset1">
			<input>
				<port id="0" precision="FP32">
					<dim>1</dim>
					<dim>64</dim>
					<dim>160</dim>
					<dim>160</dim>
				</port>
			</input>
			<output>
				<port id="1" precision="FP32" names="1041">
					<dim>1</dim>
					<dim>64</dim>
					<dim>160</dim>
					<dim>160</dim>
				</port>
			</output>
		</layer>
		<layer id="43" name="Multiply_45275" type="Const" version="opset1">
			<data element_type="f32" shape="256, 64, 1, 1" offset="548912" size="65536" />
			<output>
				<port id="0" precision="FP32">
					<dim>256</dim>
					<dim>64</dim>
					<dim>1</dim>
					<dim>1</dim>
				</port>
			</output>
		</layer>
		<layer id="44" name="Multiply_44173" type="Convolution" version="opset1">
			<data strides="1, 1" dilations="1, 1" pads_begin="0, 0" pads_end="0, 0" auto_pad="explicit" />
			<input>
				<port id="0" precision="FP32">
					<dim>1</dim>
					<dim>64</dim>
					<dim>160</dim>
					<dim>160</dim>
				</port>
				<port id="1" precision="FP32">
					<dim>256</dim>
					<dim>64</dim>
					<dim>1</dim>
					<dim>1</dim>
				</port>
			</input>
			<output>
				<port id="2" precision="FP32">
					<dim>1</dim>
					<dim>256</dim>
					<dim>160</dim>
					<dim>160</dim>
				</port>
			</output>
		</layer>
		<layer id="45" name="Constant_44178" type="Const" version="opset1">
			<data element_type="f32" shape="1, 256, 1, 1" offset="614448" size="1024" />
			<output>
				<port id="0" precision="FP32">
					<dim>1</dim>
					<dim>256</dim>
					<dim>1</dim>
					<dim>1</dim>
				</port>
			</output>
		</layer>
		<layer id="46" name="BatchNormalization_29" type="Add" version="opset1">
			<data auto_broadcast="numpy" />
			<input>
				<port id="0" precision="FP32">
					<dim>1</dim>
					<dim>256</dim>
					<dim>160</dim>
					<dim>160</dim>
				</port>
				<port id="1" precision="FP32">
					<dim>1</dim>
					<dim>256</dim>
					<dim>1</dim>
					<dim>1</dim>
				</port>
			</input>
			<output>
				<port id="2" precision="FP32" names="1043">
					<dim>1</dim>
					<dim>256</dim>
					<dim>160</dim>
					<dim>160</dim>
				</port>
			</output>
		</layer>
		<layer id="47" name="Add_30" type="Add" version="opset1">
			<data auto_broadcast="numpy" />
			<input>
				<port id="0" precision="FP32">
					<dim>1</dim>
					<dim>256</dim>
					<dim>160</dim>
					<dim>160</dim>
				</port>
				<port id="1" precision="FP32">
					<dim>1</dim>
					<dim>256</dim>
					<dim>160</dim>
					<dim>160</dim>
				</port>
			</input>
			<output>
				<port id="2" precision="FP32" names="1044">
					<dim>1</dim>
					<dim>256</dim>
					<dim>160</dim>
					<dim>160</dim>
				</port>
			</output>
		</layer>
		<layer id="48" name="Relu_31" type="ReLU" version="opset1">
			<input>
				<port id="0" precision="FP32">
					<dim>1</dim>
					<dim>256</dim>
					<dim>160</dim>
					<dim>160</dim>
				</port>
			</input>
			<output>
				<port id="1" precision="FP32" names="1045">
					<dim>1</dim>
					<dim>256</dim>
					<dim>160</dim>
					<dim>160</dim>
				</port>
			</output>
		</layer>
		<layer id="49" name="Multiply_45281" type="Const" version="opset1">
			<data element_type="f32" shape="64, 256, 1, 1" offset="615472" size="65536" />
			<output>
				<port id="0" precision="FP32">
					<dim>64</dim>
					<dim>256</dim>
					<dim>1</dim>
					<dim>1</dim>
				</port>
			</output>
		</layer>
		<layer id="50" name="Multiply_44180" type="Convolution" version="opset1">
			<data strides="1, 1" dilations="1, 1" pads_begin="0, 0" pads_end="0, 0" auto_pad="explicit" />
			<input>
				<port id="0" precision="FP32">
					<dim>1</dim>
					<dim>256</dim>
					<dim>160</dim>
					<dim>160</dim>
				</port>
				<port id="1" precision="FP32">
					<dim>64</dim>
					<dim>256</dim>
					<dim>1</dim>
					<dim>1</dim>
				</port>
			</input>
			<output>
				<port id="2" precision="FP32">
					<dim>1</dim>
					<dim>64</dim>
					<dim>160</dim>
					<dim>160</dim>
				</port>
			</output>
		</layer>
		<layer id="51" name="Constant_44185" type="Const" version="opset1">
			<data element_type="f32" shape="1, 64, 1, 1" offset="681008" size="256" />
			<output>
				<port id="0" precision="FP32">
					<dim>1</dim>
					<dim>64</dim>
					<dim>1</dim>
					<dim>1</dim>
				</port>
			</output>
		</layer>
		<layer id="52" name="BatchNormalization_33" type="Add" version="opset1">
			<data auto_broadcast="numpy" />
			<input>
				<port id="0" precision="FP32">
					<dim>1</dim>
					<dim>64</dim>
					<dim>160</dim>
					<dim>160</dim>
				</port>
				<port id="1" precision="FP32">
					<dim>1</dim>
					<dim>64</dim>
					<dim>1</dim>
					<dim>1</dim>
				</port>
			</input>
			<output>
				<port id="2" precision="FP32" names="1047">
					<dim>1</dim>
					<dim>64</dim>
					<dim>160</dim>
					<dim>160</dim>
				</port>
			</output>
		</layer>
		<layer id="53" name="Relu_34" type="ReLU" version="opset1">
			<input>
				<port id="0" precision="FP32">
					<dim>1</dim>
					<dim>64</dim>
					<dim>160</dim>
					<dim>160</dim>
				</port>
			</input>
			<output>
				<port id="1" precision="FP32" names="1048">
					<dim>1</dim>
					<dim>64</dim>
					<dim>160</dim>
					<dim>160</dim>
				</port>
			</output>
		</layer>
		<layer id="54" name="Multiply_45287" type="Const" version="opset1">
			<data element_type="f32" shape="64, 64, 3, 3" offset="681264" size="147456" />
			<output>
				<port id="0" precision="FP32">
					<dim>64</dim>
					<dim>64</dim>
					<dim>3</dim>
					<dim>3</dim>
				</port>
			</output>
		</layer>
		<layer id="55" name="Multiply_44187" type="Convolution" version="opset1">
			<data strides="1, 1" dilations="1, 1" pads_begin="1, 1" pads_end="1, 1" auto_pad="explicit" />
			<input>
				<port id="0" precision="FP32">
					<dim>1</dim>
					<dim>64</dim>
					<dim>160</dim>
					<dim>160</dim>
				</port>
				<port id="1" precision="FP32">
					<dim>64</dim>
					<dim>64</dim>
					<dim>3</dim>
					<dim>3</dim>
				</port>
			</input>
			<output>
				<port id="2" precision="FP32">
					<dim>1</dim>
					<dim>64</dim>
					<dim>160</dim>
					<dim>160</dim>
				</port>
			</output>
		</layer>
		<layer id="56" name="Constant_44192" type="Const" version="opset1">
			<data element_type="f32" shape="1, 64, 1, 1" offset="828720" size="256" />
			<output>
				<port id="0" precision="FP32">
					<dim>1</dim>
					<dim>64</dim>
					<dim>1</dim>
					<dim>1</dim>
				</port>
			</output>
		</layer>
		<layer id="57" name="BatchNormalization_36" type="Add" version="opset1">
			<data auto_broadcast="numpy" />
			<input>
				<port id="0" precision="FP32">
					<dim>1</dim>
					<dim>64</dim>
					<dim>160</dim>
					<dim>160</dim>
				</port>
				<port id="1" precision="FP32">
					<dim>1</dim>
					<dim>64</dim>
					<dim>1</dim>
					<dim>1</dim>
				</port>
			</input>
			<output>
				<port id="2" precision="FP32" names="1050">
					<dim>1</dim>
					<dim>64</dim>
					<dim>160</dim>
					<dim>160</dim>
				</port>
			</output>
		</layer>
		<layer id="58" name="Relu_37" type="ReLU" version="opset1">
			<input>
				<port id="0" precision="FP32">
					<dim>1</dim>
					<dim>64</dim>
					<dim>160</dim>
					<dim>160</dim>
				</port>
			</input>
			<output>
				<port id="1" precision="FP32" names="1051">
					<dim>1</dim>
					<dim>64</dim>
					<dim>160</dim>
					<dim>160</dim>
				</port>
			</output>
		</layer>
		<layer id="59" name="Multiply_45293" type="Const" version="opset1">
			<data element_type="f32" shape="256, 64, 1, 1" offset="828976" size="65536" />
			<output>
				<port id="0" precision="FP32">
					<dim>256</dim>
					<dim>64</dim>
					<dim>1</dim>
					<dim>1</dim>
				</port>
			</output>
		</layer>
		<layer id="60" name="Multiply_44194" type="Convolution" version="opset1">
			<data strides="1, 1" dilations="1, 1" pads_begin="0, 0" pads_end="0, 0" auto_pad="explicit" />
			<input>
				<port id="0" precision="FP32">
					<dim>1</dim>
					<dim>64</dim>
					<dim>160</dim>
					<dim>160</dim>
				</port>
				<port id="1" precision="FP32">
					<dim>256</dim>
					<dim>64</dim>
					<dim>1</dim>
					<dim>1</dim>
				</port>
			</input>
			<output>
				<port id="2" precision="FP32">
					<dim>1</dim>
					<dim>256</dim>
					<dim>160</dim>
					<dim>160</dim>
				</port>
			</output>
		</layer>
		<layer id="61" name="Constant_44199" type="Const" version="opset1">
			<data element_type="f32" shape="1, 256, 1, 1" offset="894512" size="1024" />
			<output>
				<port id="0" precision="FP32">
					<dim>1</dim>
					<dim>256</dim>
					<dim>1</dim>
					<dim>1</dim>
				</port>
			</output>
		</layer>
		<layer id="62" name="BatchNormalization_39" type="Add" version="opset1">
			<data auto_broadcast="numpy" />
			<input>
				<port id="0" precision="FP32">
					<dim>1</dim>
					<dim>256</dim>
					<dim>160</dim>
					<dim>160</dim>
				</port>
				<port id="1" precision="FP32">
					<dim>1</dim>
					<dim>256</dim>
					<dim>1</dim>
					<dim>1</dim>
				</port>
			</input>
			<output>
				<port id="2" precision="FP32" names="1053">
					<dim>1</dim>
					<dim>256</dim>
					<dim>160</dim>
					<dim>160</dim>
				</port>
			</output>
		</layer>
		<layer id="63" name="Add_40" type="Add" version="opset1">
			<data auto_broadcast="numpy" />
			<input>
				<port id="0" precision="FP32">
					<dim>1</dim>
					<dim>256</dim>
					<dim>160</dim>
					<dim>160</dim>
				</port>
				<port id="1" precision="FP32">
					<dim>1</dim>
					<dim>256</dim>
					<dim>160</dim>
					<dim>160</dim>
				</port>
			</input>
			<output>
				<port id="2" precision="FP32" names="1054">
					<dim>1</dim>
					<dim>256</dim>
					<dim>160</dim>
					<dim>160</dim>
				</port>
			</output>
		</layer>
		<layer id="64" name="Relu_41" type="ReLU" version="opset1">
			<input>
				<port id="0" precision="FP32">
					<dim>1</dim>
					<dim>256</dim>
					<dim>160</dim>
					<dim>160</dim>
				</port>
			</input>
			<output>
				<port id="1" precision="FP32" names="1055">
					<dim>1</dim>
					<dim>256</dim>
					<dim>160</dim>
					<dim>160</dim>
				</port>
			</output>
		</layer>
		<layer id="65" name="neck.lateral_convs.0.conv.weight" type="Const" version="opset1">
			<data element_type="f32" shape="256, 256, 1, 1" offset="895536" size="262144" />
			<output>
				<port id="0" precision="FP32" names="neck.lateral_convs.0.conv.weight">
					<dim>256</dim>
					<dim>256</dim>
					<dim>1</dim>
					<dim>1</dim>
				</port>
			</output>
		</layer>
		<layer id="66" name="Conv_518/WithoutBiases" type="Convolution" version="opset1">
			<data strides="1, 1" dilations="1, 1" pads_begin="0, 0" pads_end="0, 0" auto_pad="explicit" />
			<input>
				<port id="0" precision="FP32">
					<dim>1</dim>
					<dim>256</dim>
					<dim>160</dim>
					<dim>160</dim>
				</port>
				<port id="1" precision="FP32">
					<dim>256</dim>
					<dim>256</dim>
					<dim>1</dim>
					<dim>1</dim>
				</port>
			</input>
			<output>
				<port id="2" precision="FP32">
					<dim>1</dim>
					<dim>256</dim>
					<dim>160</dim>
					<dim>160</dim>
				</port>
			</output>
		</layer>
		<layer id="67" name="Reshape_2098" type="Const" version="opset1">
			<data element_type="f32" shape="1, 256, 1, 1" offset="1157680" size="1024" />
			<output>
				<port id="0" precision="FP32">
					<dim>1</dim>
					<dim>256</dim>
					<dim>1</dim>
					<dim>1</dim>
				</port>
			</output>
		</layer>
		<layer id="68" name="Conv_518" type="Add" version="opset1">
			<data auto_broadcast="numpy" />
			<input>
				<port id="0" precision="FP32">
					<dim>1</dim>
					<dim>256</dim>
					<dim>160</dim>
					<dim>160</dim>
				</port>
				<port id="1" precision="FP32">
					<dim>1</dim>
					<dim>256</dim>
					<dim>1</dim>
					<dim>1</dim>
				</port>
			</input>
			<output>
				<port id="2" precision="FP32" names="1532">
					<dim>1</dim>
					<dim>256</dim>
					<dim>160</dim>
					<dim>160</dim>
				</port>
			</output>
		</layer>
		<layer id="69" name="Multiply_45299" type="Const" version="opset1">
			<data element_type="f32" shape="128, 256, 1, 1" offset="1158704" size="131072" />
			<output>
				<port id="0" precision="FP32">
					<dim>128</dim>
					<dim>256</dim>
					<dim>1</dim>
					<dim>1</dim>
				</port>
			</output>
		</layer>
		<layer id="70" name="Multiply_44201" type="Convolution" version="opset1">
			<data strides="1, 1" dilations="1, 1" pads_begin="0, 0" pads_end="0, 0" auto_pad="explicit" />
			<input>
				<port id="0" precision="FP32">
					<dim>1</dim>
					<dim>256</dim>
					<dim>160</dim>
					<dim>160</dim>
				</port>
				<port id="1" precision="FP32">
					<dim>128</dim>
					<dim>256</dim>
					<dim>1</dim>
					<dim>1</dim>
				</port>
			</input>
			<output>
				<port id="2" precision="FP32">
					<dim>1</dim>
					<dim>128</dim>
					<dim>160</dim>
					<dim>160</dim>
				</port>
			</output>
		</layer>
		<layer id="71" name="Constant_44206" type="Const" version="opset1">
			<data element_type="f32" shape="1, 128, 1, 1" offset="1289776" size="512" />
			<output>
				<port id="0" precision="FP32">
					<dim>1</dim>
					<dim>128</dim>
					<dim>1</dim>
					<dim>1</dim>
				</port>
			</output>
		</layer>
		<layer id="72" name="BatchNormalization_45" type="Add" version="opset1">
			<data auto_broadcast="numpy" />
			<input>
				<port id="0" precision="FP32">
					<dim>1</dim>
					<dim>128</dim>
					<dim>160</dim>
					<dim>160</dim>
				</port>
				<port id="1" precision="FP32">
					<dim>1</dim>
					<dim>128</dim>
					<dim>1</dim>
					<dim>1</dim>
				</port>
			</input>
			<output>
				<port id="2" precision="FP32" names="1059">
					<dim>1</dim>
					<dim>128</dim>
					<dim>160</dim>
					<dim>160</dim>
				</port>
			</output>
		</layer>
		<layer id="73" name="Relu_46" type="ReLU" version="opset1">
			<input>
				<port id="0" precision="FP32">
					<dim>1</dim>
					<dim>128</dim>
					<dim>160</dim>
					<dim>160</dim>
				</port>
			</input>
			<output>
				<port id="1" precision="FP32" names="1060">
					<dim>1</dim>
					<dim>128</dim>
					<dim>160</dim>
					<dim>160</dim>
				</port>
			</output>
		</layer>
		<layer id="74" name="Multiply_45305" type="Const" version="opset1">
			<data element_type="f32" shape="128, 128, 3, 3" offset="1290288" size="589824" />
			<output>
				<port id="0" precision="FP32">
					<dim>128</dim>
					<dim>128</dim>
					<dim>3</dim>
					<dim>3</dim>
				</port>
			</output>
		</layer>
		<layer id="75" name="Multiply_44208" type="Convolution" version="opset1">
			<data strides="2, 2" dilations="1, 1" pads_begin="1, 1" pads_end="1, 1" auto_pad="explicit" />
			<input>
				<port id="0" precision="FP32">
					<dim>1</dim>
					<dim>128</dim>
					<dim>160</dim>
					<dim>160</dim>
				</port>
				<port id="1" precision="FP32">
					<dim>128</dim>
					<dim>128</dim>
					<dim>3</dim>
					<dim>3</dim>
				</port>
			</input>
			<output>
				<port id="2" precision="FP32">
					<dim>1</dim>
					<dim>128</dim>
					<dim>80</dim>
					<dim>80</dim>
				</port>
			</output>
		</layer>
		<layer id="76" name="Constant_44213" type="Const" version="opset1">
			<data element_type="f32" shape="1, 128, 1, 1" offset="1880112" size="512" />
			<output>
				<port id="0" precision="FP32">
					<dim>1</dim>
					<dim>128</dim>
					<dim>1</dim>
					<dim>1</dim>
				</port>
			</output>
		</layer>
		<layer id="77" name="BatchNormalization_48" type="Add" version="opset1">
			<data auto_broadcast="numpy" />
			<input>
				<port id="0" precision="FP32">
					<dim>1</dim>
					<dim>128</dim>
					<dim>80</dim>
					<dim>80</dim>
				</port>
				<port id="1" precision="FP32">
					<dim>1</dim>
					<dim>128</dim>
					<dim>1</dim>
					<dim>1</dim>
				</port>
			</input>
			<output>
				<port id="2" precision="FP32" names="1062">
					<dim>1</dim>
					<dim>128</dim>
					<dim>80</dim>
					<dim>80</dim>
				</port>
			</output>
		</layer>
		<layer id="78" name="Relu_49" type="ReLU" version="opset1">
			<input>
				<port id="0" precision="FP32">
					<dim>1</dim>
					<dim>128</dim>
					<dim>80</dim>
					<dim>80</dim>
				</port>
			</input>
			<output>
				<port id="1" precision="FP32" names="1063">
					<dim>1</dim>
					<dim>128</dim>
					<dim>80</dim>
					<dim>80</dim>
				</port>
			</output>
		</layer>
		<layer id="79" name="Multiply_45311" type="Const" version="opset1">
			<data element_type="f32" shape="512, 128, 1, 1" offset="1880624" size="262144" />
			<output>
				<port id="0" precision="FP32">
					<dim>512</dim>
					<dim>128</dim>
					<dim>1</dim>
					<dim>1</dim>
				</port>
			</output>
		</layer>
		<layer id="80" name="Multiply_44215" type="Convolution" version="opset1">
			<data strides="1, 1" dilations="1, 1" pads_begin="0, 0" pads_end="0, 0" auto_pad="explicit" />
			<input>
				<port id="0" precision="FP32">
					<dim>1</dim>
					<dim>128</dim>
					<dim>80</dim>
					<dim>80</dim>
				</port>
				<port id="1" precision="FP32">
					<dim>512</dim>
					<dim>128</dim>
					<dim>1</dim>
					<dim>1</dim>
				</port>
			</input>
			<output>
				<port id="2" precision="FP32">
					<dim>1</dim>
					<dim>512</dim>
					<dim>80</dim>
					<dim>80</dim>
				</port>
			</output>
		</layer>
		<layer id="81" name="Constant_44220" type="Const" version="opset1">
			<data element_type="f32" shape="1, 512, 1, 1" offset="2142768" size="2048" />
			<output>
				<port id="0" precision="FP32">
					<dim>1</dim>
					<dim>512</dim>
					<dim>1</dim>
					<dim>1</dim>
				</port>
			</output>
		</layer>
		<layer id="82" name="BatchNormalization_51" type="Add" version="opset1">
			<data auto_broadcast="numpy" />
			<input>
				<port id="0" precision="FP32">
					<dim>1</dim>
					<dim>512</dim>
					<dim>80</dim>
					<dim>80</dim>
				</port>
				<port id="1" precision="FP32">
					<dim>1</dim>
					<dim>512</dim>
					<dim>1</dim>
					<dim>1</dim>
				</port>
			</input>
			<output>
				<port id="2" precision="FP32" names="1065">
					<dim>1</dim>
					<dim>512</dim>
					<dim>80</dim>
					<dim>80</dim>
				</port>
			</output>
		</layer>
		<layer id="83" name="Multiply_45317" type="Const" version="opset1">
			<data element_type="f32" shape="512, 256, 1, 1" offset="2144816" size="524288" />
			<output>
				<port id="0" precision="FP32">
					<dim>512</dim>
					<dim>256</dim>
					<dim>1</dim>
					<dim>1</dim>
				</port>
			</output>
		</layer>
		<layer id="84" name="Multiply_44222" type="Convolution" version="opset1">
			<data strides="2, 2" dilations="1, 1" pads_begin="0, 0" pads_end="0, 0" auto_pad="explicit" />
			<input>
				<port id="0" precision="FP32">
					<dim>1</dim>
					<dim>256</dim>
					<dim>160</dim>
					<dim>160</dim>
				</port>
				<port id="1" precision="FP32">
					<dim>512</dim>
					<dim>256</dim>
					<dim>1</dim>
					<dim>1</dim>
				</port>
			</input>
			<output>
				<port id="2" precision="FP32">
					<dim>1</dim>
					<dim>512</dim>
					<dim>80</dim>
					<dim>80</dim>
				</port>
			</output>
		</layer>
		<layer id="85" name="Constant_44227" type="Const" version="opset1">
			<data element_type="f32" shape="1, 512, 1, 1" offset="2669104" size="2048" />
			<output>
				<port id="0" precision="FP32">
					<dim>1</dim>
					<dim>512</dim>
					<dim>1</dim>
					<dim>1</dim>
				</port>
			</output>
		</layer>
		<layer id="86" name="BatchNormalization_43" type="Add" version="opset1">
			<data auto_broadcast="numpy" />
			<input>
				<port id="0" precision="FP32">
					<dim>1</dim>
					<dim>512</dim>
					<dim>80</dim>
					<dim>80</dim>
				</port>
				<port id="1" precision="FP32">
					<dim>1</dim>
					<dim>512</dim>
					<dim>1</dim>
					<dim>1</dim>
				</port>
			</input>
			<output>
				<port id="2" precision="FP32" names="1057">
					<dim>1</dim>
					<dim>512</dim>
					<dim>80</dim>
					<dim>80</dim>
				</port>
			</output>
		</layer>
		<layer id="87" name="Add_52" type="Add" version="opset1">
			<data auto_broadcast="numpy" />
			<input>
				<port id="0" precision="FP32">
					<dim>1</dim>
					<dim>512</dim>
					<dim>80</dim>
					<dim>80</dim>
				</port>
				<port id="1" precision="FP32">
					<dim>1</dim>
					<dim>512</dim>
					<dim>80</dim>
					<dim>80</dim>
				</port>
			</input>
			<output>
				<port id="2" precision="FP32" names="1066">
					<dim>1</dim>
					<dim>512</dim>
					<dim>80</dim>
					<dim>80</dim>
				</port>
			</output>
		</layer>
		<layer id="88" name="Relu_53" type="ReLU" version="opset1">
			<input>
				<port id="0" precision="FP32">
					<dim>1</dim>
					<dim>512</dim>
					<dim>80</dim>
					<dim>80</dim>
				</port>
			</input>
			<output>
				<port id="1" precision="FP32" names="1067">
					<dim>1</dim>
					<dim>512</dim>
					<dim>80</dim>
					<dim>80</dim>
				</port>
			</output>
		</layer>
		<layer id="89" name="Multiply_45323" type="Const" version="opset1">
			<data element_type="f32" shape="128, 512, 1, 1" offset="2671152" size="262144" />
			<output>
				<port id="0" precision="FP32">
					<dim>128</dim>
					<dim>512</dim>
					<dim>1</dim>
					<dim>1</dim>
				</port>
			</output>
		</layer>
		<layer id="90" name="Multiply_44229" type="Convolution" version="opset1">
			<data strides="1, 1" dilations="1, 1" pads_begin="0, 0" pads_end="0, 0" auto_pad="explicit" />
			<input>
				<port id="0" precision="FP32">
					<dim>1</dim>
					<dim>512</dim>
					<dim>80</dim>
					<dim>80</dim>
				</port>
				<port id="1" precision="FP32">
					<dim>128</dim>
					<dim>512</dim>
					<dim>1</dim>
					<dim>1</dim>
				</port>
			</input>
			<output>
				<port id="2" precision="FP32">
					<dim>1</dim>
					<dim>128</dim>
					<dim>80</dim>
					<dim>80</dim>
				</port>
			</output>
		</layer>
		<layer id="91" name="Constant_44234" type="Const" version="opset1">
			<data element_type="f32" shape="1, 128, 1, 1" offset="2933296" size="512" />
			<output>
				<port id="0" precision="FP32">
					<dim>1</dim>
					<dim>128</dim>
					<dim>1</dim>
					<dim>1</dim>
				</port>
			</output>
		</layer>
		<layer id="92" name="BatchNormalization_55" type="Add" version="opset1">
			<data auto_broadcast="numpy" />
			<input>
				<port id="0" precision="FP32">
					<dim>1</dim>
					<dim>128</dim>
					<dim>80</dim>
					<dim>80</dim>
				</port>
				<port id="1" precision="FP32">
					<dim>1</dim>
					<dim>128</dim>
					<dim>1</dim>
					<dim>1</dim>
				</port>
			</input>
			<output>
				<port id="2" precision="FP32" names="1069">
					<dim>1</dim>
					<dim>128</dim>
					<dim>80</dim>
					<dim>80</dim>
				</port>
			</output>
		</layer>
		<layer id="93" name="Relu_56" type="ReLU" version="opset1">
			<input>
				<port id="0" precision="FP32">
					<dim>1</dim>
					<dim>128</dim>
					<dim>80</dim>
					<dim>80</dim>
				</port>
			</input>
			<output>
				<port id="1" precision="FP32" names="1070">
					<dim>1</dim>
					<dim>128</dim>
					<dim>80</dim>
					<dim>80</dim>
				</port>
			</output>
		</layer>
		<layer id="94" name="Multiply_45329" type="Const" version="opset1">
			<data element_type="f32" shape="128, 128, 3, 3" offset="2933808" size="589824" />
			<output>
				<port id="0" precision="FP32">
					<dim>128</dim>
					<dim>128</dim>
					<dim>3</dim>
					<dim>3</dim>
				</port>
			</output>
		</layer>
		<layer id="95" name="Multiply_44236" type="Convolution" version="opset1">
			<data strides="1, 1" dilations="1, 1" pads_begin="1, 1" pads_end="1, 1" auto_pad="explicit" />
			<input>
				<port id="0" precision="FP32">
					<dim>1</dim>
					<dim>128</dim>
					<dim>80</dim>
					<dim>80</dim>
				</port>
				<port id="1" precision="FP32">
					<dim>128</dim>
					<dim>128</dim>
					<dim>3</dim>
					<dim>3</dim>
				</port>
			</input>
			<output>
				<port id="2" precision="FP32">
					<dim>1</dim>
					<dim>128</dim>
					<dim>80</dim>
					<dim>80</dim>
				</port>
			</output>
		</layer>
		<layer id="96" name="Constant_44241" type="Const" version="opset1">
			<data element_type="f32" shape="1, 128, 1, 1" offset="3523632" size="512" />
			<output>
				<port id="0" precision="FP32">
					<dim>1</dim>
					<dim>128</dim>
					<dim>1</dim>
					<dim>1</dim>
				</port>
			</output>
		</layer>
		<layer id="97" name="BatchNormalization_58" type="Add" version="opset1">
			<data auto_broadcast="numpy" />
			<input>
				<port id="0" precision="FP32">
					<dim>1</dim>
					<dim>128</dim>
					<dim>80</dim>
					<dim>80</dim>
				</port>
				<port id="1" precision="FP32">
					<dim>1</dim>
					<dim>128</dim>
					<dim>1</dim>
					<dim>1</dim>
				</port>
			</input>
			<output>
				<port id="2" precision="FP32" names="1072">
					<dim>1</dim>
					<dim>128</dim>
					<dim>80</dim>
					<dim>80</dim>
				</port>
			</output>
		</layer>
		<layer id="98" name="Relu_59" type="ReLU" version="opset1">
			<input>
				<port id="0" precision="FP32">
					<dim>1</dim>
					<dim>128</dim>
					<dim>80</dim>
					<dim>80</dim>
				</port>
			</input>
			<output>
				<port id="1" precision="FP32" names="1073">
					<dim>1</dim>
					<dim>128</dim>
					<dim>80</dim>
					<dim>80</dim>
				</port>
			</output>
		</layer>
		<layer id="99" name="Multiply_45335" type="Const" version="opset1">
			<data element_type="f32" shape="512, 128, 1, 1" offset="3524144" size="262144" />
			<output>
				<port id="0" precision="FP32">
					<dim>512</dim>
					<dim>128</dim>
					<dim>1</dim>
					<dim>1</dim>
				</port>
			</output>
		</layer>
		<layer id="100" name="Multiply_44243" type="Convolution" version="opset1">
			<data strides="1, 1" dilations="1, 1" pads_begin="0, 0" pads_end="0, 0" auto_pad="explicit" />
			<input>
				<port id="0" precision="FP32">
					<dim>1</dim>
					<dim>128</dim>
					<dim>80</dim>
					<dim>80</dim>
				</port>
				<port id="1" precision="FP32">
					<dim>512</dim>
					<dim>128</dim>
					<dim>1</dim>
					<dim>1</dim>
				</port>
			</input>
			<output>
				<port id="2" precision="FP32">
					<dim>1</dim>
					<dim>512</dim>
					<dim>80</dim>
					<dim>80</dim>
				</port>
			</output>
		</layer>
		<layer id="101" name="Constant_44248" type="Const" version="opset1">
			<data element_type="f32" shape="1, 512, 1, 1" offset="3786288" size="2048" />
			<output>
				<port id="0" precision="FP32">
					<dim>1</dim>
					<dim>512</dim>
					<dim>1</dim>
					<dim>1</dim>
				</port>
			</output>
		</layer>
		<layer id="102" name="BatchNormalization_61" type="Add" version="opset1">
			<data auto_broadcast="numpy" />
			<input>
				<port id="0" precision="FP32">
					<dim>1</dim>
					<dim>512</dim>
					<dim>80</dim>
					<dim>80</dim>
				</port>
				<port id="1" precision="FP32">
					<dim>1</dim>
					<dim>512</dim>
					<dim>1</dim>
					<dim>1</dim>
				</port>
			</input>
			<output>
				<port id="2" precision="FP32" names="1075">
					<dim>1</dim>
					<dim>512</dim>
					<dim>80</dim>
					<dim>80</dim>
				</port>
			</output>
		</layer>
		<layer id="103" name="Add_62" type="Add" version="opset1">
			<data auto_broadcast="numpy" />
			<input>
				<port id="0" precision="FP32">
					<dim>1</dim>
					<dim>512</dim>
					<dim>80</dim>
					<dim>80</dim>
				</port>
				<port id="1" precision="FP32">
					<dim>1</dim>
					<dim>512</dim>
					<dim>80</dim>
					<dim>80</dim>
				</port>
			</input>
			<output>
				<port id="2" precision="FP32" names="1076">
					<dim>1</dim>
					<dim>512</dim>
					<dim>80</dim>
					<dim>80</dim>
				</port>
			</output>
		</layer>
		<layer id="104" name="Relu_63" type="ReLU" version="opset1">
			<input>
				<port id="0" precision="FP32">
					<dim>1</dim>
					<dim>512</dim>
					<dim>80</dim>
					<dim>80</dim>
				</port>
			</input>
			<output>
				<port id="1" precision="FP32" names="1077">
					<dim>1</dim>
					<dim>512</dim>
					<dim>80</dim>
					<dim>80</dim>
				</port>
			</output>
		</layer>
		<layer id="105" name="Multiply_45341" type="Const" version="opset1">
			<data element_type="f32" shape="128, 512, 1, 1" offset="3788336" size="262144" />
			<output>
				<port id="0" precision="FP32">
					<dim>128</dim>
					<dim>512</dim>
					<dim>1</dim>
					<dim>1</dim>
				</port>
			</output>
		</layer>
		<layer id="106" name="Multiply_44250" type="Convolution" version="opset1">
			<data strides="1, 1" dilations="1, 1" pads_begin="0, 0" pads_end="0, 0" auto_pad="explicit" />
			<input>
				<port id="0" precision="FP32">
					<dim>1</dim>
					<dim>512</dim>
					<dim>80</dim>
					<dim>80</dim>
				</port>
				<port id="1" precision="FP32">
					<dim>128</dim>
					<dim>512</dim>
					<dim>1</dim>
					<dim>1</dim>
				</port>
			</input>
			<output>
				<port id="2" precision="FP32">
					<dim>1</dim>
					<dim>128</dim>
					<dim>80</dim>
					<dim>80</dim>
				</port>
			</output>
		</layer>
		<layer id="107" name="Constant_44255" type="Const" version="opset1">
			<data element_type="f32" shape="1, 128, 1, 1" offset="4050480" size="512" />
			<output>
				<port id="0" precision="FP32">
					<dim>1</dim>
					<dim>128</dim>
					<dim>1</dim>
					<dim>1</dim>
				</port>
			</output>
		</layer>
		<layer id="108" name="BatchNormalization_65" type="Add" version="opset1">
			<data auto_broadcast="numpy" />
			<input>
				<port id="0" precision="FP32">
					<dim>1</dim>
					<dim>128</dim>
					<dim>80</dim>
					<dim>80</dim>
				</port>
				<port id="1" precision="FP32">
					<dim>1</dim>
					<dim>128</dim>
					<dim>1</dim>
					<dim>1</dim>
				</port>
			</input>
			<output>
				<port id="2" precision="FP32" names="1079">
					<dim>1</dim>
					<dim>128</dim>
					<dim>80</dim>
					<dim>80</dim>
				</port>
			</output>
		</layer>
		<layer id="109" name="Relu_66" type="ReLU" version="opset1">
			<input>
				<port id="0" precision="FP32">
					<dim>1</dim>
					<dim>128</dim>
					<dim>80</dim>
					<dim>80</dim>
				</port>
			</input>
			<output>
				<port id="1" precision="FP32" names="1080">
					<dim>1</dim>
					<dim>128</dim>
					<dim>80</dim>
					<dim>80</dim>
				</port>
			</output>
		</layer>
		<layer id="110" name="Multiply_45347" type="Const" version="opset1">
			<data element_type="f32" shape="128, 128, 3, 3" offset="4050992" size="589824" />
			<output>
				<port id="0" precision="FP32">
					<dim>128</dim>
					<dim>128</dim>
					<dim>3</dim>
					<dim>3</dim>
				</port>
			</output>
		</layer>
		<layer id="111" name="Multiply_44257" type="Convolution" version="opset1">
			<data strides="1, 1" dilations="1, 1" pads_begin="1, 1" pads_end="1, 1" auto_pad="explicit" />
			<input>
				<port id="0" precision="FP32">
					<dim>1</dim>
					<dim>128</dim>
					<dim>80</dim>
					<dim>80</dim>
				</port>
				<port id="1" precision="FP32">
					<dim>128</dim>
					<dim>128</dim>
					<dim>3</dim>
					<dim>3</dim>
				</port>
			</input>
			<output>
				<port id="2" precision="FP32">
					<dim>1</dim>
					<dim>128</dim>
					<dim>80</dim>
					<dim>80</dim>
				</port>
			</output>
		</layer>
		<layer id="112" name="Constant_44262" type="Const" version="opset1">
			<data element_type="f32" shape="1, 128, 1, 1" offset="4640816" size="512" />
			<output>
				<port id="0" precision="FP32">
					<dim>1</dim>
					<dim>128</dim>
					<dim>1</dim>
					<dim>1</dim>
				</port>
			</output>
		</layer>
		<layer id="113" name="BatchNormalization_68" type="Add" version="opset1">
			<data auto_broadcast="numpy" />
			<input>
				<port id="0" precision="FP32">
					<dim>1</dim>
					<dim>128</dim>
					<dim>80</dim>
					<dim>80</dim>
				</port>
				<port id="1" precision="FP32">
					<dim>1</dim>
					<dim>128</dim>
					<dim>1</dim>
					<dim>1</dim>
				</port>
			</input>
			<output>
				<port id="2" precision="FP32" names="1082">
					<dim>1</dim>
					<dim>128</dim>
					<dim>80</dim>
					<dim>80</dim>
				</port>
			</output>
		</layer>
		<layer id="114" name="Relu_69" type="ReLU" version="opset1">
			<input>
				<port id="0" precision="FP32">
					<dim>1</dim>
					<dim>128</dim>
					<dim>80</dim>
					<dim>80</dim>
				</port>
			</input>
			<output>
				<port id="1" precision="FP32" names="1083">
					<dim>1</dim>
					<dim>128</dim>
					<dim>80</dim>
					<dim>80</dim>
				</port>
			</output>
		</layer>
		<layer id="115" name="Multiply_45353" type="Const" version="opset1">
			<data element_type="f32" shape="512, 128, 1, 1" offset="4641328" size="262144" />
			<output>
				<port id="0" precision="FP32">
					<dim>512</dim>
					<dim>128</dim>
					<dim>1</dim>
					<dim>1</dim>
				</port>
			</output>
		</layer>
		<layer id="116" name="Multiply_44264" type="Convolution" version="opset1">
			<data strides="1, 1" dilations="1, 1" pads_begin="0, 0" pads_end="0, 0" auto_pad="explicit" />
			<input>
				<port id="0" precision="FP32">
					<dim>1</dim>
					<dim>128</dim>
					<dim>80</dim>
					<dim>80</dim>
				</port>
				<port id="1" precision="FP32">
					<dim>512</dim>
					<dim>128</dim>
					<dim>1</dim>
					<dim>1</dim>
				</port>
			</input>
			<output>
				<port id="2" precision="FP32">
					<dim>1</dim>
					<dim>512</dim>
					<dim>80</dim>
					<dim>80</dim>
				</port>
			</output>
		</layer>
		<layer id="117" name="Constant_44269" type="Const" version="opset1">
			<data element_type="f32" shape="1, 512, 1, 1" offset="4903472" size="2048" />
			<output>
				<port id="0" precision="FP32">
					<dim>1</dim>
					<dim>512</dim>
					<dim>1</dim>
					<dim>1</dim>
				</port>
			</output>
		</layer>
		<layer id="118" name="BatchNormalization_71" type="Add" version="opset1">
			<data auto_broadcast="numpy" />
			<input>
				<port id="0" precision="FP32">
					<dim>1</dim>
					<dim>512</dim>
					<dim>80</dim>
					<dim>80</dim>
				</port>
				<port id="1" precision="FP32">
					<dim>1</dim>
					<dim>512</dim>
					<dim>1</dim>
					<dim>1</dim>
				</port>
			</input>
			<output>
				<port id="2" precision="FP32" names="1085">
					<dim>1</dim>
					<dim>512</dim>
					<dim>80</dim>
					<dim>80</dim>
				</port>
			</output>
		</layer>
		<layer id="119" name="Add_72" type="Add" version="opset1">
			<data auto_broadcast="numpy" />
			<input>
				<port id="0" precision="FP32">
					<dim>1</dim>
					<dim>512</dim>
					<dim>80</dim>
					<dim>80</dim>
				</port>
				<port id="1" precision="FP32">
					<dim>1</dim>
					<dim>512</dim>
					<dim>80</dim>
					<dim>80</dim>
				</port>
			</input>
			<output>
				<port id="2" precision="FP32" names="1086">
					<dim>1</dim>
					<dim>512</dim>
					<dim>80</dim>
					<dim>80</dim>
				</port>
			</output>
		</layer>
		<layer id="120" name="Relu_73" type="ReLU" version="opset1">
			<input>
				<port id="0" precision="FP32">
					<dim>1</dim>
					<dim>512</dim>
					<dim>80</dim>
					<dim>80</dim>
				</port>
			</input>
			<output>
				<port id="1" precision="FP32" names="1087">
					<dim>1</dim>
					<dim>512</dim>
					<dim>80</dim>
					<dim>80</dim>
				</port>
			</output>
		</layer>
		<layer id="121" name="Multiply_45359" type="Const" version="opset1">
			<data element_type="f32" shape="128, 512, 1, 1" offset="4905520" size="262144" />
			<output>
				<port id="0" precision="FP32">
					<dim>128</dim>
					<dim>512</dim>
					<dim>1</dim>
					<dim>1</dim>
				</port>
			</output>
		</layer>
		<layer id="122" name="Multiply_44271" type="Convolution" version="opset1">
			<data strides="1, 1" dilations="1, 1" pads_begin="0, 0" pads_end="0, 0" auto_pad="explicit" />
			<input>
				<port id="0" precision="FP32">
					<dim>1</dim>
					<dim>512</dim>
					<dim>80</dim>
					<dim>80</dim>
				</port>
				<port id="1" precision="FP32">
					<dim>128</dim>
					<dim>512</dim>
					<dim>1</dim>
					<dim>1</dim>
				</port>
			</input>
			<output>
				<port id="2" precision="FP32">
					<dim>1</dim>
					<dim>128</dim>
					<dim>80</dim>
					<dim>80</dim>
				</port>
			</output>
		</layer>
		<layer id="123" name="Constant_44276" type="Const" version="opset1">
			<data element_type="f32" shape="1, 128, 1, 1" offset="5167664" size="512" />
			<output>
				<port id="0" precision="FP32">
					<dim>1</dim>
					<dim>128</dim>
					<dim>1</dim>
					<dim>1</dim>
				</port>
			</output>
		</layer>
		<layer id="124" name="BatchNormalization_75" type="Add" version="opset1">
			<data auto_broadcast="numpy" />
			<input>
				<port id="0" precision="FP32">
					<dim>1</dim>
					<dim>128</dim>
					<dim>80</dim>
					<dim>80</dim>
				</port>
				<port id="1" precision="FP32">
					<dim>1</dim>
					<dim>128</dim>
					<dim>1</dim>
					<dim>1</dim>
				</port>
			</input>
			<output>
				<port id="2" precision="FP32" names="1089">
					<dim>1</dim>
					<dim>128</dim>
					<dim>80</dim>
					<dim>80</dim>
				</port>
			</output>
		</layer>
		<layer id="125" name="Relu_76" type="ReLU" version="opset1">
			<input>
				<port id="0" precision="FP32">
					<dim>1</dim>
					<dim>128</dim>
					<dim>80</dim>
					<dim>80</dim>
				</port>
			</input>
			<output>
				<port id="1" precision="FP32" names="1090">
					<dim>1</dim>
					<dim>128</dim>
					<dim>80</dim>
					<dim>80</dim>
				</port>
			</output>
		</layer>
		<layer id="126" name="Multiply_45365" type="Const" version="opset1">
			<data element_type="f32" shape="128, 128, 3, 3" offset="5168176" size="589824" />
			<output>
				<port id="0" precision="FP32">
					<dim>128</dim>
					<dim>128</dim>
					<dim>3</dim>
					<dim>3</dim>
				</port>
			</output>
		</layer>
		<layer id="127" name="Multiply_44278" type="Convolution" version="opset1">
			<data strides="1, 1" dilations="1, 1" pads_begin="1, 1" pads_end="1, 1" auto_pad="explicit" />
			<input>
				<port id="0" precision="FP32">
					<dim>1</dim>
					<dim>128</dim>
					<dim>80</dim>
					<dim>80</dim>
				</port>
				<port id="1" precision="FP32">
					<dim>128</dim>
					<dim>128</dim>
					<dim>3</dim>
					<dim>3</dim>
				</port>
			</input>
			<output>
				<port id="2" precision="FP32">
					<dim>1</dim>
					<dim>128</dim>
					<dim>80</dim>
					<dim>80</dim>
				</port>
			</output>
		</layer>
		<layer id="128" name="Constant_44283" type="Const" version="opset1">
			<data element_type="f32" shape="1, 128, 1, 1" offset="5758000" size="512" />
			<output>
				<port id="0" precision="FP32">
					<dim>1</dim>
					<dim>128</dim>
					<dim>1</dim>
					<dim>1</dim>
				</port>
			</output>
		</layer>
		<layer id="129" name="BatchNormalization_78" type="Add" version="opset1">
			<data auto_broadcast="numpy" />
			<input>
				<port id="0" precision="FP32">
					<dim>1</dim>
					<dim>128</dim>
					<dim>80</dim>
					<dim>80</dim>
				</port>
				<port id="1" precision="FP32">
					<dim>1</dim>
					<dim>128</dim>
					<dim>1</dim>
					<dim>1</dim>
				</port>
			</input>
			<output>
				<port id="2" precision="FP32" names="1092">
					<dim>1</dim>
					<dim>128</dim>
					<dim>80</dim>
					<dim>80</dim>
				</port>
			</output>
		</layer>
		<layer id="130" name="Relu_79" type="ReLU" version="opset1">
			<input>
				<port id="0" precision="FP32">
					<dim>1</dim>
					<dim>128</dim>
					<dim>80</dim>
					<dim>80</dim>
				</port>
			</input>
			<output>
				<port id="1" precision="FP32" names="1093">
					<dim>1</dim>
					<dim>128</dim>
					<dim>80</dim>
					<dim>80</dim>
				</port>
			</output>
		</layer>
		<layer id="131" name="Multiply_45371" type="Const" version="opset1">
			<data element_type="f32" shape="512, 128, 1, 1" offset="5758512" size="262144" />
			<output>
				<port id="0" precision="FP32">
					<dim>512</dim>
					<dim>128</dim>
					<dim>1</dim>
					<dim>1</dim>
				</port>
			</output>
		</layer>
		<layer id="132" name="Multiply_44285" type="Convolution" version="opset1">
			<data strides="1, 1" dilations="1, 1" pads_begin="0, 0" pads_end="0, 0" auto_pad="explicit" />
			<input>
				<port id="0" precision="FP32">
					<dim>1</dim>
					<dim>128</dim>
					<dim>80</dim>
					<dim>80</dim>
				</port>
				<port id="1" precision="FP32">
					<dim>512</dim>
					<dim>128</dim>
					<dim>1</dim>
					<dim>1</dim>
				</port>
			</input>
			<output>
				<port id="2" precision="FP32">
					<dim>1</dim>
					<dim>512</dim>
					<dim>80</dim>
					<dim>80</dim>
				</port>
			</output>
		</layer>
		<layer id="133" name="Constant_44290" type="Const" version="opset1">
			<data element_type="f32" shape="1, 512, 1, 1" offset="6020656" size="2048" />
			<output>
				<port id="0" precision="FP32">
					<dim>1</dim>
					<dim>512</dim>
					<dim>1</dim>
					<dim>1</dim>
				</port>
			</output>
		</layer>
		<layer id="134" name="BatchNormalization_81" type="Add" version="opset1">
			<data auto_broadcast="numpy" />
			<input>
				<port id="0" precision="FP32">
					<dim>1</dim>
					<dim>512</dim>
					<dim>80</dim>
					<dim>80</dim>
				</port>
				<port id="1" precision="FP32">
					<dim>1</dim>
					<dim>512</dim>
					<dim>1</dim>
					<dim>1</dim>
				</port>
			</input>
			<output>
				<port id="2" precision="FP32" names="1095">
					<dim>1</dim>
					<dim>512</dim>
					<dim>80</dim>
					<dim>80</dim>
				</port>
			</output>
		</layer>
		<layer id="135" name="Add_82" type="Add" version="opset1">
			<data auto_broadcast="numpy" />
			<input>
				<port id="0" precision="FP32">
					<dim>1</dim>
					<dim>512</dim>
					<dim>80</dim>
					<dim>80</dim>
				</port>
				<port id="1" precision="FP32">
					<dim>1</dim>
					<dim>512</dim>
					<dim>80</dim>
					<dim>80</dim>
				</port>
			</input>
			<output>
				<port id="2" precision="FP32" names="1096">
					<dim>1</dim>
					<dim>512</dim>
					<dim>80</dim>
					<dim>80</dim>
				</port>
			</output>
		</layer>
		<layer id="136" name="Relu_83" type="ReLU" version="opset1">
			<input>
				<port id="0" precision="FP32">
					<dim>1</dim>
					<dim>512</dim>
					<dim>80</dim>
					<dim>80</dim>
				</port>
			</input>
			<output>
				<port id="1" precision="FP32" names="1097">
					<dim>1</dim>
					<dim>512</dim>
					<dim>80</dim>
					<dim>80</dim>
				</port>
			</output>
		</layer>
		<layer id="137" name="Multiply_45377" type="Const" version="opset1">
			<data element_type="f32" shape="128, 512, 1, 1" offset="6022704" size="262144" />
			<output>
				<port id="0" precision="FP32">
					<dim>128</dim>
					<dim>512</dim>
					<dim>1</dim>
					<dim>1</dim>
				</port>
			</output>
		</layer>
		<layer id="138" name="Multiply_44292" type="Convolution" version="opset1">
			<data strides="1, 1" dilations="1, 1" pads_begin="0, 0" pads_end="0, 0" auto_pad="explicit" />
			<input>
				<port id="0" precision="FP32">
					<dim>1</dim>
					<dim>512</dim>
					<dim>80</dim>
					<dim>80</dim>
				</port>
				<port id="1" precision="FP32">
					<dim>128</dim>
					<dim>512</dim>
					<dim>1</dim>
					<dim>1</dim>
				</port>
			</input>
			<output>
				<port id="2" precision="FP32">
					<dim>1</dim>
					<dim>128</dim>
					<dim>80</dim>
					<dim>80</dim>
				</port>
			</output>
		</layer>
		<layer id="139" name="Constant_44297" type="Const" version="opset1">
			<data element_type="f32" shape="1, 128, 1, 1" offset="6284848" size="512" />
			<output>
				<port id="0" precision="FP32">
					<dim>1</dim>
					<dim>128</dim>
					<dim>1</dim>
					<dim>1</dim>
				</port>
			</output>
		</layer>
		<layer id="140" name="BatchNormalization_85" type="Add" version="opset1">
			<data auto_broadcast="numpy" />
			<input>
				<port id="0" precision="FP32">
					<dim>1</dim>
					<dim>128</dim>
					<dim>80</dim>
					<dim>80</dim>
				</port>
				<port id="1" precision="FP32">
					<dim>1</dim>
					<dim>128</dim>
					<dim>1</dim>
					<dim>1</dim>
				</port>
			</input>
			<output>
				<port id="2" precision="FP32" names="1099">
					<dim>1</dim>
					<dim>128</dim>
					<dim>80</dim>
					<dim>80</dim>
				</port>
			</output>
		</layer>
		<layer id="141" name="Relu_86" type="ReLU" version="opset1">
			<input>
				<port id="0" precision="FP32">
					<dim>1</dim>
					<dim>128</dim>
					<dim>80</dim>
					<dim>80</dim>
				</port>
			</input>
			<output>
				<port id="1" precision="FP32" names="1100">
					<dim>1</dim>
					<dim>128</dim>
					<dim>80</dim>
					<dim>80</dim>
				</port>
			</output>
		</layer>
		<layer id="142" name="Multiply_45383" type="Const" version="opset1">
			<data element_type="f32" shape="128, 128, 3, 3" offset="6285360" size="589824" />
			<output>
				<port id="0" precision="FP32">
					<dim>128</dim>
					<dim>128</dim>
					<dim>3</dim>
					<dim>3</dim>
				</port>
			</output>
		</layer>
		<layer id="143" name="Multiply_44299" type="Convolution" version="opset1">
			<data strides="1, 1" dilations="1, 1" pads_begin="1, 1" pads_end="1, 1" auto_pad="explicit" />
			<input>
				<port id="0" precision="FP32">
					<dim>1</dim>
					<dim>128</dim>
					<dim>80</dim>
					<dim>80</dim>
				</port>
				<port id="1" precision="FP32">
					<dim>128</dim>
					<dim>128</dim>
					<dim>3</dim>
					<dim>3</dim>
				</port>
			</input>
			<output>
				<port id="2" precision="FP32">
					<dim>1</dim>
					<dim>128</dim>
					<dim>80</dim>
					<dim>80</dim>
				</port>
			</output>
		</layer>
		<layer id="144" name="Constant_44304" type="Const" version="opset1">
			<data element_type="f32" shape="1, 128, 1, 1" offset="6875184" size="512" />
			<output>
				<port id="0" precision="FP32">
					<dim>1</dim>
					<dim>128</dim>
					<dim>1</dim>
					<dim>1</dim>
				</port>
			</output>
		</layer>
		<layer id="145" name="BatchNormalization_88" type="Add" version="opset1">
			<data auto_broadcast="numpy" />
			<input>
				<port id="0" precision="FP32">
					<dim>1</dim>
					<dim>128</dim>
					<dim>80</dim>
					<dim>80</dim>
				</port>
				<port id="1" precision="FP32">
					<dim>1</dim>
					<dim>128</dim>
					<dim>1</dim>
					<dim>1</dim>
				</port>
			</input>
			<output>
				<port id="2" precision="FP32" names="1102">
					<dim>1</dim>
					<dim>128</dim>
					<dim>80</dim>
					<dim>80</dim>
				</port>
			</output>
		</layer>
		<layer id="146" name="Relu_89" type="ReLU" version="opset1">
			<input>
				<port id="0" precision="FP32">
					<dim>1</dim>
					<dim>128</dim>
					<dim>80</dim>
					<dim>80</dim>
				</port>
			</input>
			<output>
				<port id="1" precision="FP32" names="1103">
					<dim>1</dim>
					<dim>128</dim>
					<dim>80</dim>
					<dim>80</dim>
				</port>
			</output>
		</layer>
		<layer id="147" name="Multiply_45389" type="Const" version="opset1">
			<data element_type="f32" shape="512, 128, 1, 1" offset="6875696" size="262144" />
			<output>
				<port id="0" precision="FP32">
					<dim>512</dim>
					<dim>128</dim>
					<dim>1</dim>
					<dim>1</dim>
				</port>
			</output>
		</layer>
		<layer id="148" name="Multiply_44306" type="Convolution" version="opset1">
			<data strides="1, 1" dilations="1, 1" pads_begin="0, 0" pads_end="0, 0" auto_pad="explicit" />
			<input>
				<port id="0" precision="FP32">
					<dim>1</dim>
					<dim>128</dim>
					<dim>80</dim>
					<dim>80</dim>
				</port>
				<port id="1" precision="FP32">
					<dim>512</dim>
					<dim>128</dim>
					<dim>1</dim>
					<dim>1</dim>
				</port>
			</input>
			<output>
				<port id="2" precision="FP32">
					<dim>1</dim>
					<dim>512</dim>
					<dim>80</dim>
					<dim>80</dim>
				</port>
			</output>
		</layer>
		<layer id="149" name="Constant_44311" type="Const" version="opset1">
			<data element_type="f32" shape="1, 512, 1, 1" offset="7137840" size="2048" />
			<output>
				<port id="0" precision="FP32">
					<dim>1</dim>
					<dim>512</dim>
					<dim>1</dim>
					<dim>1</dim>
				</port>
			</output>
		</layer>
		<layer id="150" name="BatchNormalization_91" type="Add" version="opset1">
			<data auto_broadcast="numpy" />
			<input>
				<port id="0" precision="FP32">
					<dim>1</dim>
					<dim>512</dim>
					<dim>80</dim>
					<dim>80</dim>
				</port>
				<port id="1" precision="FP32">
					<dim>1</dim>
					<dim>512</dim>
					<dim>1</dim>
					<dim>1</dim>
				</port>
			</input>
			<output>
				<port id="2" precision="FP32" names="1105">
					<dim>1</dim>
					<dim>512</dim>
					<dim>80</dim>
					<dim>80</dim>
				</port>
			</output>
		</layer>
		<layer id="151" name="Add_92" type="Add" version="opset1">
			<data auto_broadcast="numpy" />
			<input>
				<port id="0" precision="FP32">
					<dim>1</dim>
					<dim>512</dim>
					<dim>80</dim>
					<dim>80</dim>
				</port>
				<port id="1" precision="FP32">
					<dim>1</dim>
					<dim>512</dim>
					<dim>80</dim>
					<dim>80</dim>
				</port>
			</input>
			<output>
				<port id="2" precision="FP32" names="1106">
					<dim>1</dim>
					<dim>512</dim>
					<dim>80</dim>
					<dim>80</dim>
				</port>
			</output>
		</layer>
		<layer id="152" name="Relu_93" type="ReLU" version="opset1">
			<input>
				<port id="0" precision="FP32">
					<dim>1</dim>
					<dim>512</dim>
					<dim>80</dim>
					<dim>80</dim>
				</port>
			</input>
			<output>
				<port id="1" precision="FP32" names="1107">
					<dim>1</dim>
					<dim>512</dim>
					<dim>80</dim>
					<dim>80</dim>
				</port>
			</output>
		</layer>
		<layer id="153" name="Multiply_45395" type="Const" version="opset1">
			<data element_type="f32" shape="128, 512, 1, 1" offset="7139888" size="262144" />
			<output>
				<port id="0" precision="FP32">
					<dim>128</dim>
					<dim>512</dim>
					<dim>1</dim>
					<dim>1</dim>
				</port>
			</output>
		</layer>
		<layer id="154" name="Multiply_44313" type="Convolution" version="opset1">
			<data strides="1, 1" dilations="1, 1" pads_begin="0, 0" pads_end="0, 0" auto_pad="explicit" />
			<input>
				<port id="0" precision="FP32">
					<dim>1</dim>
					<dim>512</dim>
					<dim>80</dim>
					<dim>80</dim>
				</port>
				<port id="1" precision="FP32">
					<dim>128</dim>
					<dim>512</dim>
					<dim>1</dim>
					<dim>1</dim>
				</port>
			</input>
			<output>
				<port id="2" precision="FP32">
					<dim>1</dim>
					<dim>128</dim>
					<dim>80</dim>
					<dim>80</dim>
				</port>
			</output>
		</layer>
		<layer id="155" name="Constant_44318" type="Const" version="opset1">
			<data element_type="f32" shape="1, 128, 1, 1" offset="7402032" size="512" />
			<output>
				<port id="0" precision="FP32">
					<dim>1</dim>
					<dim>128</dim>
					<dim>1</dim>
					<dim>1</dim>
				</port>
			</output>
		</layer>
		<layer id="156" name="BatchNormalization_95" type="Add" version="opset1">
			<data auto_broadcast="numpy" />
			<input>
				<port id="0" precision="FP32">
					<dim>1</dim>
					<dim>128</dim>
					<dim>80</dim>
					<dim>80</dim>
				</port>
				<port id="1" precision="FP32">
					<dim>1</dim>
					<dim>128</dim>
					<dim>1</dim>
					<dim>1</dim>
				</port>
			</input>
			<output>
				<port id="2" precision="FP32" names="1109">
					<dim>1</dim>
					<dim>128</dim>
					<dim>80</dim>
					<dim>80</dim>
				</port>
			</output>
		</layer>
		<layer id="157" name="Relu_96" type="ReLU" version="opset1">
			<input>
				<port id="0" precision="FP32">
					<dim>1</dim>
					<dim>128</dim>
					<dim>80</dim>
					<dim>80</dim>
				</port>
			</input>
			<output>
				<port id="1" precision="FP32" names="1110">
					<dim>1</dim>
					<dim>128</dim>
					<dim>80</dim>
					<dim>80</dim>
				</port>
			</output>
		</layer>
		<layer id="158" name="Multiply_45401" type="Const" version="opset1">
			<data element_type="f32" shape="128, 128, 3, 3" offset="7402544" size="589824" />
			<output>
				<port id="0" precision="FP32">
					<dim>128</dim>
					<dim>128</dim>
					<dim>3</dim>
					<dim>3</dim>
				</port>
			</output>
		</layer>
		<layer id="159" name="Multiply_44320" type="Convolution" version="opset1">
			<data strides="1, 1" dilations="1, 1" pads_begin="1, 1" pads_end="1, 1" auto_pad="explicit" />
			<input>
				<port id="0" precision="FP32">
					<dim>1</dim>
					<dim>128</dim>
					<dim>80</dim>
					<dim>80</dim>
				</port>
				<port id="1" precision="FP32">
					<dim>128</dim>
					<dim>128</dim>
					<dim>3</dim>
					<dim>3</dim>
				</port>
			</input>
			<output>
				<port id="2" precision="FP32">
					<dim>1</dim>
					<dim>128</dim>
					<dim>80</dim>
					<dim>80</dim>
				</port>
			</output>
		</layer>
		<layer id="160" name="Constant_44325" type="Const" version="opset1">
			<data element_type="f32" shape="1, 128, 1, 1" offset="7992368" size="512" />
			<output>
				<port id="0" precision="FP32">
					<dim>1</dim>
					<dim>128</dim>
					<dim>1</dim>
					<dim>1</dim>
				</port>
			</output>
		</layer>
		<layer id="161" name="BatchNormalization_98" type="Add" version="opset1">
			<data auto_broadcast="numpy" />
			<input>
				<port id="0" precision="FP32">
					<dim>1</dim>
					<dim>128</dim>
					<dim>80</dim>
					<dim>80</dim>
				</port>
				<port id="1" precision="FP32">
					<dim>1</dim>
					<dim>128</dim>
					<dim>1</dim>
					<dim>1</dim>
				</port>
			</input>
			<output>
				<port id="2" precision="FP32" names="1112">
					<dim>1</dim>
					<dim>128</dim>
					<dim>80</dim>
					<dim>80</dim>
				</port>
			</output>
		</layer>
		<layer id="162" name="Relu_99" type="ReLU" version="opset1">
			<input>
				<port id="0" precision="FP32">
					<dim>1</dim>
					<dim>128</dim>
					<dim>80</dim>
					<dim>80</dim>
				</port>
			</input>
			<output>
				<port id="1" precision="FP32" names="1113">
					<dim>1</dim>
					<dim>128</dim>
					<dim>80</dim>
					<dim>80</dim>
				</port>
			</output>
		</layer>
		<layer id="163" name="Multiply_45407" type="Const" version="opset1">
			<data element_type="f32" shape="512, 128, 1, 1" offset="7992880" size="262144" />
			<output>
				<port id="0" precision="FP32">
					<dim>512</dim>
					<dim>128</dim>
					<dim>1</dim>
					<dim>1</dim>
				</port>
			</output>
		</layer>
		<layer id="164" name="Multiply_44327" type="Convolution" version="opset1">
			<data strides="1, 1" dilations="1, 1" pads_begin="0, 0" pads_end="0, 0" auto_pad="explicit" />
			<input>
				<port id="0" precision="FP32">
					<dim>1</dim>
					<dim>128</dim>
					<dim>80</dim>
					<dim>80</dim>
				</port>
				<port id="1" precision="FP32">
					<dim>512</dim>
					<dim>128</dim>
					<dim>1</dim>
					<dim>1</dim>
				</port>
			</input>
			<output>
				<port id="2" precision="FP32">
					<dim>1</dim>
					<dim>512</dim>
					<dim>80</dim>
					<dim>80</dim>
				</port>
			</output>
		</layer>
		<layer id="165" name="Constant_44332" type="Const" version="opset1">
			<data element_type="f32" shape="1, 512, 1, 1" offset="8255024" size="2048" />
			<output>
				<port id="0" precision="FP32">
					<dim>1</dim>
					<dim>512</dim>
					<dim>1</dim>
					<dim>1</dim>
				</port>
			</output>
		</layer>
		<layer id="166" name="BatchNormalization_101" type="Add" version="opset1">
			<data auto_broadcast="numpy" />
			<input>
				<port id="0" precision="FP32">
					<dim>1</dim>
					<dim>512</dim>
					<dim>80</dim>
					<dim>80</dim>
				</port>
				<port id="1" precision="FP32">
					<dim>1</dim>
					<dim>512</dim>
					<dim>1</dim>
					<dim>1</dim>
				</port>
			</input>
			<output>
				<port id="2" precision="FP32" names="1115">
					<dim>1</dim>
					<dim>512</dim>
					<dim>80</dim>
					<dim>80</dim>
				</port>
			</output>
		</layer>
		<layer id="167" name="Add_102" type="Add" version="opset1">
			<data auto_broadcast="numpy" />
			<input>
				<port id="0" precision="FP32">
					<dim>1</dim>
					<dim>512</dim>
					<dim>80</dim>
					<dim>80</dim>
				</port>
				<port id="1" precision="FP32">
					<dim>1</dim>
					<dim>512</dim>
					<dim>80</dim>
					<dim>80</dim>
				</port>
			</input>
			<output>
				<port id="2" precision="FP32" names="1116">
					<dim>1</dim>
					<dim>512</dim>
					<dim>80</dim>
					<dim>80</dim>
				</port>
			</output>
		</layer>
		<layer id="168" name="Relu_103" type="ReLU" version="opset1">
			<input>
				<port id="0" precision="FP32">
					<dim>1</dim>
					<dim>512</dim>
					<dim>80</dim>
					<dim>80</dim>
				</port>
			</input>
			<output>
				<port id="1" precision="FP32" names="1117">
					<dim>1</dim>
					<dim>512</dim>
					<dim>80</dim>
					<dim>80</dim>
				</port>
			</output>
		</layer>
		<layer id="169" name="Multiply_45413" type="Const" version="opset1">
			<data element_type="f32" shape="128, 512, 1, 1" offset="8257072" size="262144" />
			<output>
				<port id="0" precision="FP32">
					<dim>128</dim>
					<dim>512</dim>
					<dim>1</dim>
					<dim>1</dim>
				</port>
			</output>
		</layer>
		<layer id="170" name="Multiply_44334" type="Convolution" version="opset1">
			<data strides="1, 1" dilations="1, 1" pads_begin="0, 0" pads_end="0, 0" auto_pad="explicit" />
			<input>
				<port id="0" precision="FP32">
					<dim>1</dim>
					<dim>512</dim>
					<dim>80</dim>
					<dim>80</dim>
				</port>
				<port id="1" precision="FP32">
					<dim>128</dim>
					<dim>512</dim>
					<dim>1</dim>
					<dim>1</dim>
				</port>
			</input>
			<output>
				<port id="2" precision="FP32">
					<dim>1</dim>
					<dim>128</dim>
					<dim>80</dim>
					<dim>80</dim>
				</port>
			</output>
		</layer>
		<layer id="171" name="Constant_44339" type="Const" version="opset1">
			<data element_type="f32" shape="1, 128, 1, 1" offset="8519216" size="512" />
			<output>
				<port id="0" precision="FP32">
					<dim>1</dim>
					<dim>128</dim>
					<dim>1</dim>
					<dim>1</dim>
				</port>
			</output>
		</layer>
		<layer id="172" name="BatchNormalization_105" type="Add" version="opset1">
			<data auto_broadcast="numpy" />
			<input>
				<port id="0" precision="FP32">
					<dim>1</dim>
					<dim>128</dim>
					<dim>80</dim>
					<dim>80</dim>
				</port>
				<port id="1" precision="FP32">
					<dim>1</dim>
					<dim>128</dim>
					<dim>1</dim>
					<dim>1</dim>
				</port>
			</input>
			<output>
				<port id="2" precision="FP32" names="1119">
					<dim>1</dim>
					<dim>128</dim>
					<dim>80</dim>
					<dim>80</dim>
				</port>
			</output>
		</layer>
		<layer id="173" name="Relu_106" type="ReLU" version="opset1">
			<input>
				<port id="0" precision="FP32">
					<dim>1</dim>
					<dim>128</dim>
					<dim>80</dim>
					<dim>80</dim>
				</port>
			</input>
			<output>
				<port id="1" precision="FP32" names="1120">
					<dim>1</dim>
					<dim>128</dim>
					<dim>80</dim>
					<dim>80</dim>
				</port>
			</output>
		</layer>
		<layer id="174" name="Multiply_45419" type="Const" version="opset1">
			<data element_type="f32" shape="128, 128, 3, 3" offset="8519728" size="589824" />
			<output>
				<port id="0" precision="FP32">
					<dim>128</dim>
					<dim>128</dim>
					<dim>3</dim>
					<dim>3</dim>
				</port>
			</output>
		</layer>
		<layer id="175" name="Multiply_44341" type="Convolution" version="opset1">
			<data strides="1, 1" dilations="1, 1" pads_begin="1, 1" pads_end="1, 1" auto_pad="explicit" />
			<input>
				<port id="0" precision="FP32">
					<dim>1</dim>
					<dim>128</dim>
					<dim>80</dim>
					<dim>80</dim>
				</port>
				<port id="1" precision="FP32">
					<dim>128</dim>
					<dim>128</dim>
					<dim>3</dim>
					<dim>3</dim>
				</port>
			</input>
			<output>
				<port id="2" precision="FP32">
					<dim>1</dim>
					<dim>128</dim>
					<dim>80</dim>
					<dim>80</dim>
				</port>
			</output>
		</layer>
		<layer id="176" name="Constant_44346" type="Const" version="opset1">
			<data element_type="f32" shape="1, 128, 1, 1" offset="9109552" size="512" />
			<output>
				<port id="0" precision="FP32">
					<dim>1</dim>
					<dim>128</dim>
					<dim>1</dim>
					<dim>1</dim>
				</port>
			</output>
		</layer>
		<layer id="177" name="BatchNormalization_108" type="Add" version="opset1">
			<data auto_broadcast="numpy" />
			<input>
				<port id="0" precision="FP32">
					<dim>1</dim>
					<dim>128</dim>
					<dim>80</dim>
					<dim>80</dim>
				</port>
				<port id="1" precision="FP32">
					<dim>1</dim>
					<dim>128</dim>
					<dim>1</dim>
					<dim>1</dim>
				</port>
			</input>
			<output>
				<port id="2" precision="FP32" names="1122">
					<dim>1</dim>
					<dim>128</dim>
					<dim>80</dim>
					<dim>80</dim>
				</port>
			</output>
		</layer>
		<layer id="178" name="Relu_109" type="ReLU" version="opset1">
			<input>
				<port id="0" precision="FP32">
					<dim>1</dim>
					<dim>128</dim>
					<dim>80</dim>
					<dim>80</dim>
				</port>
			</input>
			<output>
				<port id="1" precision="FP32" names="1123">
					<dim>1</dim>
					<dim>128</dim>
					<dim>80</dim>
					<dim>80</dim>
				</port>
			</output>
		</layer>
		<layer id="179" name="Multiply_45425" type="Const" version="opset1">
			<data element_type="f32" shape="512, 128, 1, 1" offset="9110064" size="262144" />
			<output>
				<port id="0" precision="FP32">
					<dim>512</dim>
					<dim>128</dim>
					<dim>1</dim>
					<dim>1</dim>
				</port>
			</output>
		</layer>
		<layer id="180" name="Multiply_44348" type="Convolution" version="opset1">
			<data strides="1, 1" dilations="1, 1" pads_begin="0, 0" pads_end="0, 0" auto_pad="explicit" />
			<input>
				<port id="0" precision="FP32">
					<dim>1</dim>
					<dim>128</dim>
					<dim>80</dim>
					<dim>80</dim>
				</port>
				<port id="1" precision="FP32">
					<dim>512</dim>
					<dim>128</dim>
					<dim>1</dim>
					<dim>1</dim>
				</port>
			</input>
			<output>
				<port id="2" precision="FP32">
					<dim>1</dim>
					<dim>512</dim>
					<dim>80</dim>
					<dim>80</dim>
				</port>
			</output>
		</layer>
		<layer id="181" name="Constant_44353" type="Const" version="opset1">
			<data element_type="f32" shape="1, 512, 1, 1" offset="9372208" size="2048" />
			<output>
				<port id="0" precision="FP32">
					<dim>1</dim>
					<dim>512</dim>
					<dim>1</dim>
					<dim>1</dim>
				</port>
			</output>
		</layer>
		<layer id="182" name="BatchNormalization_111" type="Add" version="opset1">
			<data auto_broadcast="numpy" />
			<input>
				<port id="0" precision="FP32">
					<dim>1</dim>
					<dim>512</dim>
					<dim>80</dim>
					<dim>80</dim>
				</port>
				<port id="1" precision="FP32">
					<dim>1</dim>
					<dim>512</dim>
					<dim>1</dim>
					<dim>1</dim>
				</port>
			</input>
			<output>
				<port id="2" precision="FP32" names="1125">
					<dim>1</dim>
					<dim>512</dim>
					<dim>80</dim>
					<dim>80</dim>
				</port>
			</output>
		</layer>
		<layer id="183" name="Add_112" type="Add" version="opset1">
			<data auto_broadcast="numpy" />
			<input>
				<port id="0" precision="FP32">
					<dim>1</dim>
					<dim>512</dim>
					<dim>80</dim>
					<dim>80</dim>
				</port>
				<port id="1" precision="FP32">
					<dim>1</dim>
					<dim>512</dim>
					<dim>80</dim>
					<dim>80</dim>
				</port>
			</input>
			<output>
				<port id="2" precision="FP32" names="1126">
					<dim>1</dim>
					<dim>512</dim>
					<dim>80</dim>
					<dim>80</dim>
				</port>
			</output>
		</layer>
		<layer id="184" name="Relu_113" type="ReLU" version="opset1">
			<input>
				<port id="0" precision="FP32">
					<dim>1</dim>
					<dim>512</dim>
					<dim>80</dim>
					<dim>80</dim>
				</port>
			</input>
			<output>
				<port id="1" precision="FP32" names="1127">
					<dim>1</dim>
					<dim>512</dim>
					<dim>80</dim>
					<dim>80</dim>
				</port>
			</output>
		</layer>
		<layer id="185" name="Multiply_45431" type="Const" version="opset1">
			<data element_type="f32" shape="128, 512, 1, 1" offset="9374256" size="262144" />
			<output>
				<port id="0" precision="FP32">
					<dim>128</dim>
					<dim>512</dim>
					<dim>1</dim>
					<dim>1</dim>
				</port>
			</output>
		</layer>
		<layer id="186" name="Multiply_44355" type="Convolution" version="opset1">
			<data strides="1, 1" dilations="1, 1" pads_begin="0, 0" pads_end="0, 0" auto_pad="explicit" />
			<input>
				<port id="0" precision="FP32">
					<dim>1</dim>
					<dim>512</dim>
					<dim>80</dim>
					<dim>80</dim>
				</port>
				<port id="1" precision="FP32">
					<dim>128</dim>
					<dim>512</dim>
					<dim>1</dim>
					<dim>1</dim>
				</port>
			</input>
			<output>
				<port id="2" precision="FP32">
					<dim>1</dim>
					<dim>128</dim>
					<dim>80</dim>
					<dim>80</dim>
				</port>
			</output>
		</layer>
		<layer id="187" name="Constant_44360" type="Const" version="opset1">
			<data element_type="f32" shape="1, 128, 1, 1" offset="9636400" size="512" />
			<output>
				<port id="0" precision="FP32">
					<dim>1</dim>
					<dim>128</dim>
					<dim>1</dim>
					<dim>1</dim>
				</port>
			</output>
		</layer>
		<layer id="188" name="BatchNormalization_115" type="Add" version="opset1">
			<data auto_broadcast="numpy" />
			<input>
				<port id="0" precision="FP32">
					<dim>1</dim>
					<dim>128</dim>
					<dim>80</dim>
					<dim>80</dim>
				</port>
				<port id="1" precision="FP32">
					<dim>1</dim>
					<dim>128</dim>
					<dim>1</dim>
					<dim>1</dim>
				</port>
			</input>
			<output>
				<port id="2" precision="FP32" names="1129">
					<dim>1</dim>
					<dim>128</dim>
					<dim>80</dim>
					<dim>80</dim>
				</port>
			</output>
		</layer>
		<layer id="189" name="Relu_116" type="ReLU" version="opset1">
			<input>
				<port id="0" precision="FP32">
					<dim>1</dim>
					<dim>128</dim>
					<dim>80</dim>
					<dim>80</dim>
				</port>
			</input>
			<output>
				<port id="1" precision="FP32" names="1130">
					<dim>1</dim>
					<dim>128</dim>
					<dim>80</dim>
					<dim>80</dim>
				</port>
			</output>
		</layer>
		<layer id="190" name="Multiply_45437" type="Const" version="opset1">
			<data element_type="f32" shape="128, 128, 3, 3" offset="9636912" size="589824" />
			<output>
				<port id="0" precision="FP32">
					<dim>128</dim>
					<dim>128</dim>
					<dim>3</dim>
					<dim>3</dim>
				</port>
			</output>
		</layer>
		<layer id="191" name="Multiply_44362" type="Convolution" version="opset1">
			<data strides="1, 1" dilations="1, 1" pads_begin="1, 1" pads_end="1, 1" auto_pad="explicit" />
			<input>
				<port id="0" precision="FP32">
					<dim>1</dim>
					<dim>128</dim>
					<dim>80</dim>
					<dim>80</dim>
				</port>
				<port id="1" precision="FP32">
					<dim>128</dim>
					<dim>128</dim>
					<dim>3</dim>
					<dim>3</dim>
				</port>
			</input>
			<output>
				<port id="2" precision="FP32">
					<dim>1</dim>
					<dim>128</dim>
					<dim>80</dim>
					<dim>80</dim>
				</port>
			</output>
		</layer>
		<layer id="192" name="Constant_44367" type="Const" version="opset1">
			<data element_type="f32" shape="1, 128, 1, 1" offset="10226736" size="512" />
			<output>
				<port id="0" precision="FP32">
					<dim>1</dim>
					<dim>128</dim>
					<dim>1</dim>
					<dim>1</dim>
				</port>
			</output>
		</layer>
		<layer id="193" name="BatchNormalization_118" type="Add" version="opset1">
			<data auto_broadcast="numpy" />
			<input>
				<port id="0" precision="FP32">
					<dim>1</dim>
					<dim>128</dim>
					<dim>80</dim>
					<dim>80</dim>
				</port>
				<port id="1" precision="FP32">
					<dim>1</dim>
					<dim>128</dim>
					<dim>1</dim>
					<dim>1</dim>
				</port>
			</input>
			<output>
				<port id="2" precision="FP32" names="1132">
					<dim>1</dim>
					<dim>128</dim>
					<dim>80</dim>
					<dim>80</dim>
				</port>
			</output>
		</layer>
		<layer id="194" name="Relu_119" type="ReLU" version="opset1">
			<input>
				<port id="0" precision="FP32">
					<dim>1</dim>
					<dim>128</dim>
					<dim>80</dim>
					<dim>80</dim>
				</port>
			</input>
			<output>
				<port id="1" precision="FP32" names="1133">
					<dim>1</dim>
					<dim>128</dim>
					<dim>80</dim>
					<dim>80</dim>
				</port>
			</output>
		</layer>
		<layer id="195" name="Multiply_45443" type="Const" version="opset1">
			<data element_type="f32" shape="512, 128, 1, 1" offset="10227248" size="262144" />
			<output>
				<port id="0" precision="FP32">
					<dim>512</dim>
					<dim>128</dim>
					<dim>1</dim>
					<dim>1</dim>
				</port>
			</output>
		</layer>
		<layer id="196" name="Multiply_44369" type="Convolution" version="opset1">
			<data strides="1, 1" dilations="1, 1" pads_begin="0, 0" pads_end="0, 0" auto_pad="explicit" />
			<input>
				<port id="0" precision="FP32">
					<dim>1</dim>
					<dim>128</dim>
					<dim>80</dim>
					<dim>80</dim>
				</port>
				<port id="1" precision="FP32">
					<dim>512</dim>
					<dim>128</dim>
					<dim>1</dim>
					<dim>1</dim>
				</port>
			</input>
			<output>
				<port id="2" precision="FP32">
					<dim>1</dim>
					<dim>512</dim>
					<dim>80</dim>
					<dim>80</dim>
				</port>
			</output>
		</layer>
		<layer id="197" name="Constant_44374" type="Const" version="opset1">
			<data element_type="f32" shape="1, 512, 1, 1" offset="10489392" size="2048" />
			<output>
				<port id="0" precision="FP32">
					<dim>1</dim>
					<dim>512</dim>
					<dim>1</dim>
					<dim>1</dim>
				</port>
			</output>
		</layer>
		<layer id="198" name="BatchNormalization_121" type="Add" version="opset1">
			<data auto_broadcast="numpy" />
			<input>
				<port id="0" precision="FP32">
					<dim>1</dim>
					<dim>512</dim>
					<dim>80</dim>
					<dim>80</dim>
				</port>
				<port id="1" precision="FP32">
					<dim>1</dim>
					<dim>512</dim>
					<dim>1</dim>
					<dim>1</dim>
				</port>
			</input>
			<output>
				<port id="2" precision="FP32" names="1135">
					<dim>1</dim>
					<dim>512</dim>
					<dim>80</dim>
					<dim>80</dim>
				</port>
			</output>
		</layer>
		<layer id="199" name="Add_122" type="Add" version="opset1">
			<data auto_broadcast="numpy" />
			<input>
				<port id="0" precision="FP32">
					<dim>1</dim>
					<dim>512</dim>
					<dim>80</dim>
					<dim>80</dim>
				</port>
				<port id="1" precision="FP32">
					<dim>1</dim>
					<dim>512</dim>
					<dim>80</dim>
					<dim>80</dim>
				</port>
			</input>
			<output>
				<port id="2" precision="FP32" names="1136">
					<dim>1</dim>
					<dim>512</dim>
					<dim>80</dim>
					<dim>80</dim>
				</port>
			</output>
		</layer>
		<layer id="200" name="Relu_123" type="ReLU" version="opset1">
			<input>
				<port id="0" precision="FP32">
					<dim>1</dim>
					<dim>512</dim>
					<dim>80</dim>
					<dim>80</dim>
				</port>
			</input>
			<output>
				<port id="1" precision="FP32" names="1137">
					<dim>1</dim>
					<dim>512</dim>
					<dim>80</dim>
					<dim>80</dim>
				</port>
			</output>
		</layer>
		<layer id="201" name="neck.lateral_convs.1.conv.weight" type="Const" version="opset1">
			<data element_type="f32" shape="256, 512, 1, 1" offset="10491440" size="524288" />
			<output>
				<port id="0" precision="FP32" names="neck.lateral_convs.1.conv.weight">
					<dim>256</dim>
					<dim>512</dim>
					<dim>1</dim>
					<dim>1</dim>
				</port>
			</output>
		</layer>
		<layer id="202" name="Conv_519/WithoutBiases" type="Convolution" version="opset1">
			<data strides="1, 1" dilations="1, 1" pads_begin="0, 0" pads_end="0, 0" auto_pad="explicit" />
			<input>
				<port id="0" precision="FP32">
					<dim>1</dim>
					<dim>512</dim>
					<dim>80</dim>
					<dim>80</dim>
				</port>
				<port id="1" precision="FP32">
					<dim>256</dim>
					<dim>512</dim>
					<dim>1</dim>
					<dim>1</dim>
				</port>
			</input>
			<output>
				<port id="2" precision="FP32">
					<dim>1</dim>
					<dim>256</dim>
					<dim>80</dim>
					<dim>80</dim>
				</port>
			</output>
		</layer>
		<layer id="203" name="Reshape_2113" type="Const" version="opset1">
			<data element_type="f32" shape="1, 256, 1, 1" offset="11015728" size="1024" />
			<output>
				<port id="0" precision="FP32">
					<dim>1</dim>
					<dim>256</dim>
					<dim>1</dim>
					<dim>1</dim>
				</port>
			</output>
		</layer>
		<layer id="204" name="Conv_519" type="Add" version="opset1">
			<data auto_broadcast="numpy" />
			<input>
				<port id="0" precision="FP32">
					<dim>1</dim>
					<dim>256</dim>
					<dim>80</dim>
					<dim>80</dim>
				</port>
				<port id="1" precision="FP32">
					<dim>1</dim>
					<dim>256</dim>
					<dim>1</dim>
					<dim>1</dim>
				</port>
			</input>
			<output>
				<port id="2" precision="FP32" names="1533">
					<dim>1</dim>
					<dim>256</dim>
					<dim>80</dim>
					<dim>80</dim>
				</port>
			</output>
		</layer>
		<layer id="205" name="Multiply_45449" type="Const" version="opset1">
			<data element_type="f32" shape="256, 512, 1, 1" offset="11016752" size="524288" />
			<output>
				<port id="0" precision="FP32">
					<dim>256</dim>
					<dim>512</dim>
					<dim>1</dim>
					<dim>1</dim>
				</port>
			</output>
		</layer>
		<layer id="206" name="Multiply_44376" type="Convolution" version="opset1">
			<data strides="1, 1" dilations="1, 1" pads_begin="0, 0" pads_end="0, 0" auto_pad="explicit" />
			<input>
				<port id="0" precision="FP32">
					<dim>1</dim>
					<dim>512</dim>
					<dim>80</dim>
					<dim>80</dim>
				</port>
				<port id="1" precision="FP32">
					<dim>256</dim>
					<dim>512</dim>
					<dim>1</dim>
					<dim>1</dim>
				</port>
			</input>
			<output>
				<port id="2" precision="FP32">
					<dim>1</dim>
					<dim>256</dim>
					<dim>80</dim>
					<dim>80</dim>
				</port>
			</output>
		</layer>
		<layer id="207" name="Constant_44381" type="Const" version="opset1">
			<data element_type="f32" shape="1, 256, 1, 1" offset="11541040" size="1024" />
			<output>
				<port id="0" precision="FP32">
					<dim>1</dim>
					<dim>256</dim>
					<dim>1</dim>
					<dim>1</dim>
				</port>
			</output>
		</layer>
		<layer id="208" name="BatchNormalization_127" type="Add" version="opset1">
			<data auto_broadcast="numpy" />
			<input>
				<port id="0" precision="FP32">
					<dim>1</dim>
					<dim>256</dim>
					<dim>80</dim>
					<dim>80</dim>
				</port>
				<port id="1" precision="FP32">
					<dim>1</dim>
					<dim>256</dim>
					<dim>1</dim>
					<dim>1</dim>
				</port>
			</input>
			<output>
				<port id="2" precision="FP32" names="1141">
					<dim>1</dim>
					<dim>256</dim>
					<dim>80</dim>
					<dim>80</dim>
				</port>
			</output>
		</layer>
		<layer id="209" name="Relu_128" type="ReLU" version="opset1">
			<input>
				<port id="0" precision="FP32">
					<dim>1</dim>
					<dim>256</dim>
					<dim>80</dim>
					<dim>80</dim>
				</port>
			</input>
			<output>
				<port id="1" precision="FP32" names="1142">
					<dim>1</dim>
					<dim>256</dim>
					<dim>80</dim>
					<dim>80</dim>
				</port>
			</output>
		</layer>
		<layer id="210" name="Multiply_45455" type="Const" version="opset1">
			<data element_type="f32" shape="256, 256, 3, 3" offset="11542064" size="2359296" />
			<output>
				<port id="0" precision="FP32">
					<dim>256</dim>
					<dim>256</dim>
					<dim>3</dim>
					<dim>3</dim>
				</port>
			</output>
		</layer>
		<layer id="211" name="Multiply_44383" type="Convolution" version="opset1">
			<data strides="2, 2" dilations="1, 1" pads_begin="1, 1" pads_end="1, 1" auto_pad="explicit" />
			<input>
				<port id="0" precision="FP32">
					<dim>1</dim>
					<dim>256</dim>
					<dim>80</dim>
					<dim>80</dim>
				</port>
				<port id="1" precision="FP32">
					<dim>256</dim>
					<dim>256</dim>
					<dim>3</dim>
					<dim>3</dim>
				</port>
			</input>
			<output>
				<port id="2" precision="FP32">
					<dim>1</dim>
					<dim>256</dim>
					<dim>40</dim>
					<dim>40</dim>
				</port>
			</output>
		</layer>
		<layer id="212" name="Constant_44388" type="Const" version="opset1">
			<data element_type="f32" shape="1, 256, 1, 1" offset="13901360" size="1024" />
			<output>
				<port id="0" precision="FP32">
					<dim>1</dim>
					<dim>256</dim>
					<dim>1</dim>
					<dim>1</dim>
				</port>
			</output>
		</layer>
		<layer id="213" name="BatchNormalization_130" type="Add" version="opset1">
			<data auto_broadcast="numpy" />
			<input>
				<port id="0" precision="FP32">
					<dim>1</dim>
					<dim>256</dim>
					<dim>40</dim>
					<dim>40</dim>
				</port>
				<port id="1" precision="FP32">
					<dim>1</dim>
					<dim>256</dim>
					<dim>1</dim>
					<dim>1</dim>
				</port>
			</input>
			<output>
				<port id="2" precision="FP32" names="1144">
					<dim>1</dim>
					<dim>256</dim>
					<dim>40</dim>
					<dim>40</dim>
				</port>
			</output>
		</layer>
		<layer id="214" name="Relu_131" type="ReLU" version="opset1">
			<input>
				<port id="0" precision="FP32">
					<dim>1</dim>
					<dim>256</dim>
					<dim>40</dim>
					<dim>40</dim>
				</port>
			</input>
			<output>
				<port id="1" precision="FP32" names="1145">
					<dim>1</dim>
					<dim>256</dim>
					<dim>40</dim>
					<dim>40</dim>
				</port>
			</output>
		</layer>
		<layer id="215" name="Multiply_45461" type="Const" version="opset1">
			<data element_type="f32" shape="1024, 256, 1, 1" offset="13902384" size="1048576" />
			<output>
				<port id="0" precision="FP32">
					<dim>1024</dim>
					<dim>256</dim>
					<dim>1</dim>
					<dim>1</dim>
				</port>
			</output>
		</layer>
		<layer id="216" name="Multiply_44390" type="Convolution" version="opset1">
			<data strides="1, 1" dilations="1, 1" pads_begin="0, 0" pads_end="0, 0" auto_pad="explicit" />
			<input>
				<port id="0" precision="FP32">
					<dim>1</dim>
					<dim>256</dim>
					<dim>40</dim>
					<dim>40</dim>
				</port>
				<port id="1" precision="FP32">
					<dim>1024</dim>
					<dim>256</dim>
					<dim>1</dim>
					<dim>1</dim>
				</port>
			</input>
			<output>
				<port id="2" precision="FP32">
					<dim>1</dim>
					<dim>1024</dim>
					<dim>40</dim>
					<dim>40</dim>
				</port>
			</output>
		</layer>
		<layer id="217" name="Constant_44395" type="Const" version="opset1">
			<data element_type="f32" shape="1, 1024, 1, 1" offset="14950960" size="4096" />
			<output>
				<port id="0" precision="FP32">
					<dim>1</dim>
					<dim>1024</dim>
					<dim>1</dim>
					<dim>1</dim>
				</port>
			</output>
		</layer>
		<layer id="218" name="BatchNormalization_133" type="Add" version="opset1">
			<data auto_broadcast="numpy" />
			<input>
				<port id="0" precision="FP32">
					<dim>1</dim>
					<dim>1024</dim>
					<dim>40</dim>
					<dim>40</dim>
				</port>
				<port id="1" precision="FP32">
					<dim>1</dim>
					<dim>1024</dim>
					<dim>1</dim>
					<dim>1</dim>
				</port>
			</input>
			<output>
				<port id="2" precision="FP32" names="1147">
					<dim>1</dim>
					<dim>1024</dim>
					<dim>40</dim>
					<dim>40</dim>
				</port>
			</output>
		</layer>
		<layer id="219" name="Multiply_45467" type="Const" version="opset1">
			<data element_type="f32" shape="1024, 512, 1, 1" offset="14955056" size="2097152" />
			<output>
				<port id="0" precision="FP32">
					<dim>1024</dim>
					<dim>512</dim>
					<dim>1</dim>
					<dim>1</dim>
				</port>
			</output>
		</layer>
		<layer id="220" name="Multiply_44397" type="Convolution" version="opset1">
			<data strides="2, 2" dilations="1, 1" pads_begin="0, 0" pads_end="0, 0" auto_pad="explicit" />
			<input>
				<port id="0" precision="FP32">
					<dim>1</dim>
					<dim>512</dim>
					<dim>80</dim>
					<dim>80</dim>
				</port>
				<port id="1" precision="FP32">
					<dim>1024</dim>
					<dim>512</dim>
					<dim>1</dim>
					<dim>1</dim>
				</port>
			</input>
			<output>
				<port id="2" precision="FP32">
					<dim>1</dim>
					<dim>1024</dim>
					<dim>40</dim>
					<dim>40</dim>
				</port>
			</output>
		</layer>
		<layer id="221" name="Constant_44402" type="Const" version="opset1">
			<data element_type="f32" shape="1, 1024, 1, 1" offset="17052208" size="4096" />
			<output>
				<port id="0" precision="FP32">
					<dim>1</dim>
					<dim>1024</dim>
					<dim>1</dim>
					<dim>1</dim>
				</port>
			</output>
		</layer>
		<layer id="222" name="BatchNormalization_125" type="Add" version="opset1">
			<data auto_broadcast="numpy" />
			<input>
				<port id="0" precision="FP32">
					<dim>1</dim>
					<dim>1024</dim>
					<dim>40</dim>
					<dim>40</dim>
				</port>
				<port id="1" precision="FP32">
					<dim>1</dim>
					<dim>1024</dim>
					<dim>1</dim>
					<dim>1</dim>
				</port>
			</input>
			<output>
				<port id="2" precision="FP32" names="1139">
					<dim>1</dim>
					<dim>1024</dim>
					<dim>40</dim>
					<dim>40</dim>
				</port>
			</output>
		</layer>
		<layer id="223" name="Add_134" type="Add" version="opset1">
			<data auto_broadcast="numpy" />
			<input>
				<port id="0" precision="FP32">
					<dim>1</dim>
					<dim>1024</dim>
					<dim>40</dim>
					<dim>40</dim>
				</port>
				<port id="1" precision="FP32">
					<dim>1</dim>
					<dim>1024</dim>
					<dim>40</dim>
					<dim>40</dim>
				</port>
			</input>
			<output>
				<port id="2" precision="FP32" names="1148">
					<dim>1</dim>
					<dim>1024</dim>
					<dim>40</dim>
					<dim>40</dim>
				</port>
			</output>
		</layer>
		<layer id="224" name="Relu_135" type="ReLU" version="opset1">
			<input>
				<port id="0" precision="FP32">
					<dim>1</dim>
					<dim>1024</dim>
					<dim>40</dim>
					<dim>40</dim>
				</port>
			</input>
			<output>
				<port id="1" precision="FP32" names="1149">
					<dim>1</dim>
					<dim>1024</dim>
					<dim>40</dim>
					<dim>40</dim>
				</port>
			</output>
		</layer>
		<layer id="225" name="Multiply_45473" type="Const" version="opset1">
			<data element_type="f32" shape="256, 1024, 1, 1" offset="17056304" size="1048576" />
			<output>
				<port id="0" precision="FP32">
					<dim>256</dim>
					<dim>1024</dim>
					<dim>1</dim>
					<dim>1</dim>
				</port>
			</output>
		</layer>
		<layer id="226" name="Multiply_44404" type="Convolution" version="opset1">
			<data strides="1, 1" dilations="1, 1" pads_begin="0, 0" pads_end="0, 0" auto_pad="explicit" />
			<input>
				<port id="0" precision="FP32">
					<dim>1</dim>
					<dim>1024</dim>
					<dim>40</dim>
					<dim>40</dim>
				</port>
				<port id="1" precision="FP32">
					<dim>256</dim>
					<dim>1024</dim>
					<dim>1</dim>
					<dim>1</dim>
				</port>
			</input>
			<output>
				<port id="2" precision="FP32">
					<dim>1</dim>
					<dim>256</dim>
					<dim>40</dim>
					<dim>40</dim>
				</port>
			</output>
		</layer>
		<layer id="227" name="Constant_44409" type="Const" version="opset1">
			<data element_type="f32" shape="1, 256, 1, 1" offset="18104880" size="1024" />
			<output>
				<port id="0" precision="FP32">
					<dim>1</dim>
					<dim>256</dim>
					<dim>1</dim>
					<dim>1</dim>
				</port>
			</output>
		</layer>
		<layer id="228" name="BatchNormalization_137" type="Add" version="opset1">
			<data auto_broadcast="numpy" />
			<input>
				<port id="0" precision="FP32">
					<dim>1</dim>
					<dim>256</dim>
					<dim>40</dim>
					<dim>40</dim>
				</port>
				<port id="1" precision="FP32">
					<dim>1</dim>
					<dim>256</dim>
					<dim>1</dim>
					<dim>1</dim>
				</port>
			</input>
			<output>
				<port id="2" precision="FP32" names="1151">
					<dim>1</dim>
					<dim>256</dim>
					<dim>40</dim>
					<dim>40</dim>
				</port>
			</output>
		</layer>
		<layer id="229" name="Relu_138" type="ReLU" version="opset1">
			<input>
				<port id="0" precision="FP32">
					<dim>1</dim>
					<dim>256</dim>
					<dim>40</dim>
					<dim>40</dim>
				</port>
			</input>
			<output>
				<port id="1" precision="FP32" names="1152">
					<dim>1</dim>
					<dim>256</dim>
					<dim>40</dim>
					<dim>40</dim>
				</port>
			</output>
		</layer>
		<layer id="230" name="Multiply_45479" type="Const" version="opset1">
			<data element_type="f32" shape="256, 256, 3, 3" offset="18105904" size="2359296" />
			<output>
				<port id="0" precision="FP32">
					<dim>256</dim>
					<dim>256</dim>
					<dim>3</dim>
					<dim>3</dim>
				</port>
			</output>
		</layer>
		<layer id="231" name="Multiply_44411" type="Convolution" version="opset1">
			<data strides="1, 1" dilations="1, 1" pads_begin="1, 1" pads_end="1, 1" auto_pad="explicit" />
			<input>
				<port id="0" precision="FP32">
					<dim>1</dim>
					<dim>256</dim>
					<dim>40</dim>
					<dim>40</dim>
				</port>
				<port id="1" precision="FP32">
					<dim>256</dim>
					<dim>256</dim>
					<dim>3</dim>
					<dim>3</dim>
				</port>
			</input>
			<output>
				<port id="2" precision="FP32">
					<dim>1</dim>
					<dim>256</dim>
					<dim>40</dim>
					<dim>40</dim>
				</port>
			</output>
		</layer>
		<layer id="232" name="Constant_44416" type="Const" version="opset1">
			<data element_type="f32" shape="1, 256, 1, 1" offset="20465200" size="1024" />
			<output>
				<port id="0" precision="FP32">
					<dim>1</dim>
					<dim>256</dim>
					<dim>1</dim>
					<dim>1</dim>
				</port>
			</output>
		</layer>
		<layer id="233" name="BatchNormalization_140" type="Add" version="opset1">
			<data auto_broadcast="numpy" />
			<input>
				<port id="0" precision="FP32">
					<dim>1</dim>
					<dim>256</dim>
					<dim>40</dim>
					<dim>40</dim>
				</port>
				<port id="1" precision="FP32">
					<dim>1</dim>
					<dim>256</dim>
					<dim>1</dim>
					<dim>1</dim>
				</port>
			</input>
			<output>
				<port id="2" precision="FP32" names="1154">
					<dim>1</dim>
					<dim>256</dim>
					<dim>40</dim>
					<dim>40</dim>
				</port>
			</output>
		</layer>
		<layer id="234" name="Relu_141" type="ReLU" version="opset1">
			<input>
				<port id="0" precision="FP32">
					<dim>1</dim>
					<dim>256</dim>
					<dim>40</dim>
					<dim>40</dim>
				</port>
			</input>
			<output>
				<port id="1" precision="FP32" names="1155">
					<dim>1</dim>
					<dim>256</dim>
					<dim>40</dim>
					<dim>40</dim>
				</port>
			</output>
		</layer>
		<layer id="235" name="Multiply_45485" type="Const" version="opset1">
			<data element_type="f32" shape="1024, 256, 1, 1" offset="20466224" size="1048576" />
			<output>
				<port id="0" precision="FP32">
					<dim>1024</dim>
					<dim>256</dim>
					<dim>1</dim>
					<dim>1</dim>
				</port>
			</output>
		</layer>
		<layer id="236" name="Multiply_44418" type="Convolution" version="opset1">
			<data strides="1, 1" dilations="1, 1" pads_begin="0, 0" pads_end="0, 0" auto_pad="explicit" />
			<input>
				<port id="0" precision="FP32">
					<dim>1</dim>
					<dim>256</dim>
					<dim>40</dim>
					<dim>40</dim>
				</port>
				<port id="1" precision="FP32">
					<dim>1024</dim>
					<dim>256</dim>
					<dim>1</dim>
					<dim>1</dim>
				</port>
			</input>
			<output>
				<port id="2" precision="FP32">
					<dim>1</dim>
					<dim>1024</dim>
					<dim>40</dim>
					<dim>40</dim>
				</port>
			</output>
		</layer>
		<layer id="237" name="Constant_44423" type="Const" version="opset1">
			<data element_type="f32" shape="1, 1024, 1, 1" offset="21514800" size="4096" />
			<output>
				<port id="0" precision="FP32">
					<dim>1</dim>
					<dim>1024</dim>
					<dim>1</dim>
					<dim>1</dim>
				</port>
			</output>
		</layer>
		<layer id="238" name="BatchNormalization_143" type="Add" version="opset1">
			<data auto_broadcast="numpy" />
			<input>
				<port id="0" precision="FP32">
					<dim>1</dim>
					<dim>1024</dim>
					<dim>40</dim>
					<dim>40</dim>
				</port>
				<port id="1" precision="FP32">
					<dim>1</dim>
					<dim>1024</dim>
					<dim>1</dim>
					<dim>1</dim>
				</port>
			</input>
			<output>
				<port id="2" precision="FP32" names="1157">
					<dim>1</dim>
					<dim>1024</dim>
					<dim>40</dim>
					<dim>40</dim>
				</port>
			</output>
		</layer>
		<layer id="239" name="Add_144" type="Add" version="opset1">
			<data auto_broadcast="numpy" />
			<input>
				<port id="0" precision="FP32">
					<dim>1</dim>
					<dim>1024</dim>
					<dim>40</dim>
					<dim>40</dim>
				</port>
				<port id="1" precision="FP32">
					<dim>1</dim>
					<dim>1024</dim>
					<dim>40</dim>
					<dim>40</dim>
				</port>
			</input>
			<output>
				<port id="2" precision="FP32" names="1158">
					<dim>1</dim>
					<dim>1024</dim>
					<dim>40</dim>
					<dim>40</dim>
				</port>
			</output>
		</layer>
		<layer id="240" name="Relu_145" type="ReLU" version="opset1">
			<input>
				<port id="0" precision="FP32">
					<dim>1</dim>
					<dim>1024</dim>
					<dim>40</dim>
					<dim>40</dim>
				</port>
			</input>
			<output>
				<port id="1" precision="FP32" names="1159">
					<dim>1</dim>
					<dim>1024</dim>
					<dim>40</dim>
					<dim>40</dim>
				</port>
			</output>
		</layer>
		<layer id="241" name="Multiply_45491" type="Const" version="opset1">
			<data element_type="f32" shape="256, 1024, 1, 1" offset="21518896" size="1048576" />
			<output>
				<port id="0" precision="FP32">
					<dim>256</dim>
					<dim>1024</dim>
					<dim>1</dim>
					<dim>1</dim>
				</port>
			</output>
		</layer>
		<layer id="242" name="Multiply_44425" type="Convolution" version="opset1">
			<data strides="1, 1" dilations="1, 1" pads_begin="0, 0" pads_end="0, 0" auto_pad="explicit" />
			<input>
				<port id="0" precision="FP32">
					<dim>1</dim>
					<dim>1024</dim>
					<dim>40</dim>
					<dim>40</dim>
				</port>
				<port id="1" precision="FP32">
					<dim>256</dim>
					<dim>1024</dim>
					<dim>1</dim>
					<dim>1</dim>
				</port>
			</input>
			<output>
				<port id="2" precision="FP32">
					<dim>1</dim>
					<dim>256</dim>
					<dim>40</dim>
					<dim>40</dim>
				</port>
			</output>
		</layer>
		<layer id="243" name="Constant_44430" type="Const" version="opset1">
			<data element_type="f32" shape="1, 256, 1, 1" offset="22567472" size="1024" />
			<output>
				<port id="0" precision="FP32">
					<dim>1</dim>
					<dim>256</dim>
					<dim>1</dim>
					<dim>1</dim>
				</port>
			</output>
		</layer>
		<layer id="244" name="BatchNormalization_147" type="Add" version="opset1">
			<data auto_broadcast="numpy" />
			<input>
				<port id="0" precision="FP32">
					<dim>1</dim>
					<dim>256</dim>
					<dim>40</dim>
					<dim>40</dim>
				</port>
				<port id="1" precision="FP32">
					<dim>1</dim>
					<dim>256</dim>
					<dim>1</dim>
					<dim>1</dim>
				</port>
			</input>
			<output>
				<port id="2" precision="FP32" names="1161">
					<dim>1</dim>
					<dim>256</dim>
					<dim>40</dim>
					<dim>40</dim>
				</port>
			</output>
		</layer>
		<layer id="245" name="Relu_148" type="ReLU" version="opset1">
			<input>
				<port id="0" precision="FP32">
					<dim>1</dim>
					<dim>256</dim>
					<dim>40</dim>
					<dim>40</dim>
				</port>
			</input>
			<output>
				<port id="1" precision="FP32" names="1162">
					<dim>1</dim>
					<dim>256</dim>
					<dim>40</dim>
					<dim>40</dim>
				</port>
			</output>
		</layer>
		<layer id="246" name="Multiply_45497" type="Const" version="opset1">
			<data element_type="f32" shape="256, 256, 3, 3" offset="22568496" size="2359296" />
			<output>
				<port id="0" precision="FP32">
					<dim>256</dim>
					<dim>256</dim>
					<dim>3</dim>
					<dim>3</dim>
				</port>
			</output>
		</layer>
		<layer id="247" name="Multiply_44432" type="Convolution" version="opset1">
			<data strides="1, 1" dilations="1, 1" pads_begin="1, 1" pads_end="1, 1" auto_pad="explicit" />
			<input>
				<port id="0" precision="FP32">
					<dim>1</dim>
					<dim>256</dim>
					<dim>40</dim>
					<dim>40</dim>
				</port>
				<port id="1" precision="FP32">
					<dim>256</dim>
					<dim>256</dim>
					<dim>3</dim>
					<dim>3</dim>
				</port>
			</input>
			<output>
				<port id="2" precision="FP32">
					<dim>1</dim>
					<dim>256</dim>
					<dim>40</dim>
					<dim>40</dim>
				</port>
			</output>
		</layer>
		<layer id="248" name="Constant_44437" type="Const" version="opset1">
			<data element_type="f32" shape="1, 256, 1, 1" offset="24927792" size="1024" />
			<output>
				<port id="0" precision="FP32">
					<dim>1</dim>
					<dim>256</dim>
					<dim>1</dim>
					<dim>1</dim>
				</port>
			</output>
		</layer>
		<layer id="249" name="BatchNormalization_150" type="Add" version="opset1">
			<data auto_broadcast="numpy" />
			<input>
				<port id="0" precision="FP32">
					<dim>1</dim>
					<dim>256</dim>
					<dim>40</dim>
					<dim>40</dim>
				</port>
				<port id="1" precision="FP32">
					<dim>1</dim>
					<dim>256</dim>
					<dim>1</dim>
					<dim>1</dim>
				</port>
			</input>
			<output>
				<port id="2" precision="FP32" names="1164">
					<dim>1</dim>
					<dim>256</dim>
					<dim>40</dim>
					<dim>40</dim>
				</port>
			</output>
		</layer>
		<layer id="250" name="Relu_151" type="ReLU" version="opset1">
			<input>
				<port id="0" precision="FP32">
					<dim>1</dim>
					<dim>256</dim>
					<dim>40</dim>
					<dim>40</dim>
				</port>
			</input>
			<output>
				<port id="1" precision="FP32" names="1165">
					<dim>1</dim>
					<dim>256</dim>
					<dim>40</dim>
					<dim>40</dim>
				</port>
			</output>
		</layer>
		<layer id="251" name="Multiply_45503" type="Const" version="opset1">
			<data element_type="f32" shape="1024, 256, 1, 1" offset="24928816" size="1048576" />
			<output>
				<port id="0" precision="FP32">
					<dim>1024</dim>
					<dim>256</dim>
					<dim>1</dim>
					<dim>1</dim>
				</port>
			</output>
		</layer>
		<layer id="252" name="Multiply_44439" type="Convolution" version="opset1">
			<data strides="1, 1" dilations="1, 1" pads_begin="0, 0" pads_end="0, 0" auto_pad="explicit" />
			<input>
				<port id="0" precision="FP32">
					<dim>1</dim>
					<dim>256</dim>
					<dim>40</dim>
					<dim>40</dim>
				</port>
				<port id="1" precision="FP32">
					<dim>1024</dim>
					<dim>256</dim>
					<dim>1</dim>
					<dim>1</dim>
				</port>
			</input>
			<output>
				<port id="2" precision="FP32">
					<dim>1</dim>
					<dim>1024</dim>
					<dim>40</dim>
					<dim>40</dim>
				</port>
			</output>
		</layer>
		<layer id="253" name="Constant_44444" type="Const" version="opset1">
			<data element_type="f32" shape="1, 1024, 1, 1" offset="25977392" size="4096" />
			<output>
				<port id="0" precision="FP32">
					<dim>1</dim>
					<dim>1024</dim>
					<dim>1</dim>
					<dim>1</dim>
				</port>
			</output>
		</layer>
		<layer id="254" name="BatchNormalization_153" type="Add" version="opset1">
			<data auto_broadcast="numpy" />
			<input>
				<port id="0" precision="FP32">
					<dim>1</dim>
					<dim>1024</dim>
					<dim>40</dim>
					<dim>40</dim>
				</port>
				<port id="1" precision="FP32">
					<dim>1</dim>
					<dim>1024</dim>
					<dim>1</dim>
					<dim>1</dim>
				</port>
			</input>
			<output>
				<port id="2" precision="FP32" names="1167">
					<dim>1</dim>
					<dim>1024</dim>
					<dim>40</dim>
					<dim>40</dim>
				</port>
			</output>
		</layer>
		<layer id="255" name="Add_154" type="Add" version="opset1">
			<data auto_broadcast="numpy" />
			<input>
				<port id="0" precision="FP32">
					<dim>1</dim>
					<dim>1024</dim>
					<dim>40</dim>
					<dim>40</dim>
				</port>
				<port id="1" precision="FP32">
					<dim>1</dim>
					<dim>1024</dim>
					<dim>40</dim>
					<dim>40</dim>
				</port>
			</input>
			<output>
				<port id="2" precision="FP32" names="1168">
					<dim>1</dim>
					<dim>1024</dim>
					<dim>40</dim>
					<dim>40</dim>
				</port>
			</output>
		</layer>
		<layer id="256" name="Relu_155" type="ReLU" version="opset1">
			<input>
				<port id="0" precision="FP32">
					<dim>1</dim>
					<dim>1024</dim>
					<dim>40</dim>
					<dim>40</dim>
				</port>
			</input>
			<output>
				<port id="1" precision="FP32" names="1169">
					<dim>1</dim>
					<dim>1024</dim>
					<dim>40</dim>
					<dim>40</dim>
				</port>
			</output>
		</layer>
		<layer id="257" name="Multiply_45509" type="Const" version="opset1">
			<data element_type="f32" shape="256, 1024, 1, 1" offset="25981488" size="1048576" />
			<output>
				<port id="0" precision="FP32">
					<dim>256</dim>
					<dim>1024</dim>
					<dim>1</dim>
					<dim>1</dim>
				</port>
			</output>
		</layer>
		<layer id="258" name="Multiply_44446" type="Convolution" version="opset1">
			<data strides="1, 1" dilations="1, 1" pads_begin="0, 0" pads_end="0, 0" auto_pad="explicit" />
			<input>
				<port id="0" precision="FP32">
					<dim>1</dim>
					<dim>1024</dim>
					<dim>40</dim>
					<dim>40</dim>
				</port>
				<port id="1" precision="FP32">
					<dim>256</dim>
					<dim>1024</dim>
					<dim>1</dim>
					<dim>1</dim>
				</port>
			</input>
			<output>
				<port id="2" precision="FP32">
					<dim>1</dim>
					<dim>256</dim>
					<dim>40</dim>
					<dim>40</dim>
				</port>
			</output>
		</layer>
		<layer id="259" name="Constant_44451" type="Const" version="opset1">
			<data element_type="f32" shape="1, 256, 1, 1" offset="27030064" size="1024" />
			<output>
				<port id="0" precision="FP32">
					<dim>1</dim>
					<dim>256</dim>
					<dim>1</dim>
					<dim>1</dim>
				</port>
			</output>
		</layer>
		<layer id="260" name="BatchNormalization_157" type="Add" version="opset1">
			<data auto_broadcast="numpy" />
			<input>
				<port id="0" precision="FP32">
					<dim>1</dim>
					<dim>256</dim>
					<dim>40</dim>
					<dim>40</dim>
				</port>
				<port id="1" precision="FP32">
					<dim>1</dim>
					<dim>256</dim>
					<dim>1</dim>
					<dim>1</dim>
				</port>
			</input>
			<output>
				<port id="2" precision="FP32" names="1171">
					<dim>1</dim>
					<dim>256</dim>
					<dim>40</dim>
					<dim>40</dim>
				</port>
			</output>
		</layer>
		<layer id="261" name="Relu_158" type="ReLU" version="opset1">
			<input>
				<port id="0" precision="FP32">
					<dim>1</dim>
					<dim>256</dim>
					<dim>40</dim>
					<dim>40</dim>
				</port>
			</input>
			<output>
				<port id="1" precision="FP32" names="1172">
					<dim>1</dim>
					<dim>256</dim>
					<dim>40</dim>
					<dim>40</dim>
				</port>
			</output>
		</layer>
		<layer id="262" name="Multiply_45515" type="Const" version="opset1">
			<data element_type="f32" shape="256, 256, 3, 3" offset="27031088" size="2359296" />
			<output>
				<port id="0" precision="FP32">
					<dim>256</dim>
					<dim>256</dim>
					<dim>3</dim>
					<dim>3</dim>
				</port>
			</output>
		</layer>
		<layer id="263" name="Multiply_44453" type="Convolution" version="opset1">
			<data strides="1, 1" dilations="1, 1" pads_begin="1, 1" pads_end="1, 1" auto_pad="explicit" />
			<input>
				<port id="0" precision="FP32">
					<dim>1</dim>
					<dim>256</dim>
					<dim>40</dim>
					<dim>40</dim>
				</port>
				<port id="1" precision="FP32">
					<dim>256</dim>
					<dim>256</dim>
					<dim>3</dim>
					<dim>3</dim>
				</port>
			</input>
			<output>
				<port id="2" precision="FP32">
					<dim>1</dim>
					<dim>256</dim>
					<dim>40</dim>
					<dim>40</dim>
				</port>
			</output>
		</layer>
		<layer id="264" name="Constant_44458" type="Const" version="opset1">
			<data element_type="f32" shape="1, 256, 1, 1" offset="29390384" size="1024" />
			<output>
				<port id="0" precision="FP32">
					<dim>1</dim>
					<dim>256</dim>
					<dim>1</dim>
					<dim>1</dim>
				</port>
			</output>
		</layer>
		<layer id="265" name="BatchNormalization_160" type="Add" version="opset1">
			<data auto_broadcast="numpy" />
			<input>
				<port id="0" precision="FP32">
					<dim>1</dim>
					<dim>256</dim>
					<dim>40</dim>
					<dim>40</dim>
				</port>
				<port id="1" precision="FP32">
					<dim>1</dim>
					<dim>256</dim>
					<dim>1</dim>
					<dim>1</dim>
				</port>
			</input>
			<output>
				<port id="2" precision="FP32" names="1174">
					<dim>1</dim>
					<dim>256</dim>
					<dim>40</dim>
					<dim>40</dim>
				</port>
			</output>
		</layer>
		<layer id="266" name="Relu_161" type="ReLU" version="opset1">
			<input>
				<port id="0" precision="FP32">
					<dim>1</dim>
					<dim>256</dim>
					<dim>40</dim>
					<dim>40</dim>
				</port>
			</input>
			<output>
				<port id="1" precision="FP32" names="1175">
					<dim>1</dim>
					<dim>256</dim>
					<dim>40</dim>
					<dim>40</dim>
				</port>
			</output>
		</layer>
		<layer id="267" name="Multiply_45521" type="Const" version="opset1">
			<data element_type="f32" shape="1024, 256, 1, 1" offset="29391408" size="1048576" />
			<output>
				<port id="0" precision="FP32">
					<dim>1024</dim>
					<dim>256</dim>
					<dim>1</dim>
					<dim>1</dim>
				</port>
			</output>
		</layer>
		<layer id="268" name="Multiply_44460" type="Convolution" version="opset1">
			<data strides="1, 1" dilations="1, 1" pads_begin="0, 0" pads_end="0, 0" auto_pad="explicit" />
			<input>
				<port id="0" precision="FP32">
					<dim>1</dim>
					<dim>256</dim>
					<dim>40</dim>
					<dim>40</dim>
				</port>
				<port id="1" precision="FP32">
					<dim>1024</dim>
					<dim>256</dim>
					<dim>1</dim>
					<dim>1</dim>
				</port>
			</input>
			<output>
				<port id="2" precision="FP32">
					<dim>1</dim>
					<dim>1024</dim>
					<dim>40</dim>
					<dim>40</dim>
				</port>
			</output>
		</layer>
		<layer id="269" name="Constant_44465" type="Const" version="opset1">
			<data element_type="f32" shape="1, 1024, 1, 1" offset="30439984" size="4096" />
			<output>
				<port id="0" precision="FP32">
					<dim>1</dim>
					<dim>1024</dim>
					<dim>1</dim>
					<dim>1</dim>
				</port>
			</output>
		</layer>
		<layer id="270" name="BatchNormalization_163" type="Add" version="opset1">
			<data auto_broadcast="numpy" />
			<input>
				<port id="0" precision="FP32">
					<dim>1</dim>
					<dim>1024</dim>
					<dim>40</dim>
					<dim>40</dim>
				</port>
				<port id="1" precision="FP32">
					<dim>1</dim>
					<dim>1024</dim>
					<dim>1</dim>
					<dim>1</dim>
				</port>
			</input>
			<output>
				<port id="2" precision="FP32" names="1177">
					<dim>1</dim>
					<dim>1024</dim>
					<dim>40</dim>
					<dim>40</dim>
				</port>
			</output>
		</layer>
		<layer id="271" name="Add_164" type="Add" version="opset1">
			<data auto_broadcast="numpy" />
			<input>
				<port id="0" precision="FP32">
					<dim>1</dim>
					<dim>1024</dim>
					<dim>40</dim>
					<dim>40</dim>
				</port>
				<port id="1" precision="FP32">
					<dim>1</dim>
					<dim>1024</dim>
					<dim>40</dim>
					<dim>40</dim>
				</port>
			</input>
			<output>
				<port id="2" precision="FP32" names="1178">
					<dim>1</dim>
					<dim>1024</dim>
					<dim>40</dim>
					<dim>40</dim>
				</port>
			</output>
		</layer>
		<layer id="272" name="Relu_165" type="ReLU" version="opset1">
			<input>
				<port id="0" precision="FP32">
					<dim>1</dim>
					<dim>1024</dim>
					<dim>40</dim>
					<dim>40</dim>
				</port>
			</input>
			<output>
				<port id="1" precision="FP32" names="1179">
					<dim>1</dim>
					<dim>1024</dim>
					<dim>40</dim>
					<dim>40</dim>
				</port>
			</output>
		</layer>
		<layer id="273" name="Multiply_45527" type="Const" version="opset1">
			<data element_type="f32" shape="256, 1024, 1, 1" offset="30444080" size="1048576" />
			<output>
				<port id="0" precision="FP32">
					<dim>256</dim>
					<dim>1024</dim>
					<dim>1</dim>
					<dim>1</dim>
				</port>
			</output>
		</layer>
		<layer id="274" name="Multiply_44467" type="Convolution" version="opset1">
			<data strides="1, 1" dilations="1, 1" pads_begin="0, 0" pads_end="0, 0" auto_pad="explicit" />
			<input>
				<port id="0" precision="FP32">
					<dim>1</dim>
					<dim>1024</dim>
					<dim>40</dim>
					<dim>40</dim>
				</port>
				<port id="1" precision="FP32">
					<dim>256</dim>
					<dim>1024</dim>
					<dim>1</dim>
					<dim>1</dim>
				</port>
			</input>
			<output>
				<port id="2" precision="FP32">
					<dim>1</dim>
					<dim>256</dim>
					<dim>40</dim>
					<dim>40</dim>
				</port>
			</output>
		</layer>
		<layer id="275" name="Constant_44472" type="Const" version="opset1">
			<data element_type="f32" shape="1, 256, 1, 1" offset="31492656" size="1024" />
			<output>
				<port id="0" precision="FP32">
					<dim>1</dim>
					<dim>256</dim>
					<dim>1</dim>
					<dim>1</dim>
				</port>
			</output>
		</layer>
		<layer id="276" name="BatchNormalization_167" type="Add" version="opset1">
			<data auto_broadcast="numpy" />
			<input>
				<port id="0" precision="FP32">
					<dim>1</dim>
					<dim>256</dim>
					<dim>40</dim>
					<dim>40</dim>
				</port>
				<port id="1" precision="FP32">
					<dim>1</dim>
					<dim>256</dim>
					<dim>1</dim>
					<dim>1</dim>
				</port>
			</input>
			<output>
				<port id="2" precision="FP32" names="1181">
					<dim>1</dim>
					<dim>256</dim>
					<dim>40</dim>
					<dim>40</dim>
				</port>
			</output>
		</layer>
		<layer id="277" name="Relu_168" type="ReLU" version="opset1">
			<input>
				<port id="0" precision="FP32">
					<dim>1</dim>
					<dim>256</dim>
					<dim>40</dim>
					<dim>40</dim>
				</port>
			</input>
			<output>
				<port id="1" precision="FP32" names="1182">
					<dim>1</dim>
					<dim>256</dim>
					<dim>40</dim>
					<dim>40</dim>
				</port>
			</output>
		</layer>
		<layer id="278" name="Multiply_45533" type="Const" version="opset1">
			<data element_type="f32" shape="256, 256, 3, 3" offset="31493680" size="2359296" />
			<output>
				<port id="0" precision="FP32">
					<dim>256</dim>
					<dim>256</dim>
					<dim>3</dim>
					<dim>3</dim>
				</port>
			</output>
		</layer>
		<layer id="279" name="Multiply_44474" type="Convolution" version="opset1">
			<data strides="1, 1" dilations="1, 1" pads_begin="1, 1" pads_end="1, 1" auto_pad="explicit" />
			<input>
				<port id="0" precision="FP32">
					<dim>1</dim>
					<dim>256</dim>
					<dim>40</dim>
					<dim>40</dim>
				</port>
				<port id="1" precision="FP32">
					<dim>256</dim>
					<dim>256</dim>
					<dim>3</dim>
					<dim>3</dim>
				</port>
			</input>
			<output>
				<port id="2" precision="FP32">
					<dim>1</dim>
					<dim>256</dim>
					<dim>40</dim>
					<dim>40</dim>
				</port>
			</output>
		</layer>
		<layer id="280" name="Constant_44479" type="Const" version="opset1">
			<data element_type="f32" shape="1, 256, 1, 1" offset="33852976" size="1024" />
			<output>
				<port id="0" precision="FP32">
					<dim>1</dim>
					<dim>256</dim>
					<dim>1</dim>
					<dim>1</dim>
				</port>
			</output>
		</layer>
		<layer id="281" name="BatchNormalization_170" type="Add" version="opset1">
			<data auto_broadcast="numpy" />
			<input>
				<port id="0" precision="FP32">
					<dim>1</dim>
					<dim>256</dim>
					<dim>40</dim>
					<dim>40</dim>
				</port>
				<port id="1" precision="FP32">
					<dim>1</dim>
					<dim>256</dim>
					<dim>1</dim>
					<dim>1</dim>
				</port>
			</input>
			<output>
				<port id="2" precision="FP32" names="1184">
					<dim>1</dim>
					<dim>256</dim>
					<dim>40</dim>
					<dim>40</dim>
				</port>
			</output>
		</layer>
		<layer id="282" name="Relu_171" type="ReLU" version="opset1">
			<input>
				<port id="0" precision="FP32">
					<dim>1</dim>
					<dim>256</dim>
					<dim>40</dim>
					<dim>40</dim>
				</port>
			</input>
			<output>
				<port id="1" precision="FP32" names="1185">
					<dim>1</dim>
					<dim>256</dim>
					<dim>40</dim>
					<dim>40</dim>
				</port>
			</output>
		</layer>
		<layer id="283" name="Multiply_45539" type="Const" version="opset1">
			<data element_type="f32" shape="1024, 256, 1, 1" offset="33854000" size="1048576" />
			<output>
				<port id="0" precision="FP32">
					<dim>1024</dim>
					<dim>256</dim>
					<dim>1</dim>
					<dim>1</dim>
				</port>
			</output>
		</layer>
		<layer id="284" name="Multiply_44481" type="Convolution" version="opset1">
			<data strides="1, 1" dilations="1, 1" pads_begin="0, 0" pads_end="0, 0" auto_pad="explicit" />
			<input>
				<port id="0" precision="FP32">
					<dim>1</dim>
					<dim>256</dim>
					<dim>40</dim>
					<dim>40</dim>
				</port>
				<port id="1" precision="FP32">
					<dim>1024</dim>
					<dim>256</dim>
					<dim>1</dim>
					<dim>1</dim>
				</port>
			</input>
			<output>
				<port id="2" precision="FP32">
					<dim>1</dim>
					<dim>1024</dim>
					<dim>40</dim>
					<dim>40</dim>
				</port>
			</output>
		</layer>
		<layer id="285" name="Constant_44486" type="Const" version="opset1">
			<data element_type="f32" shape="1, 1024, 1, 1" offset="34902576" size="4096" />
			<output>
				<port id="0" precision="FP32">
					<dim>1</dim>
					<dim>1024</dim>
					<dim>1</dim>
					<dim>1</dim>
				</port>
			</output>
		</layer>
		<layer id="286" name="BatchNormalization_173" type="Add" version="opset1">
			<data auto_broadcast="numpy" />
			<input>
				<port id="0" precision="FP32">
					<dim>1</dim>
					<dim>1024</dim>
					<dim>40</dim>
					<dim>40</dim>
				</port>
				<port id="1" precision="FP32">
					<dim>1</dim>
					<dim>1024</dim>
					<dim>1</dim>
					<dim>1</dim>
				</port>
			</input>
			<output>
				<port id="2" precision="FP32" names="1187">
					<dim>1</dim>
					<dim>1024</dim>
					<dim>40</dim>
					<dim>40</dim>
				</port>
			</output>
		</layer>
		<layer id="287" name="Add_174" type="Add" version="opset1">
			<data auto_broadcast="numpy" />
			<input>
				<port id="0" precision="FP32">
					<dim>1</dim>
					<dim>1024</dim>
					<dim>40</dim>
					<dim>40</dim>
				</port>
				<port id="1" precision="FP32">
					<dim>1</dim>
					<dim>1024</dim>
					<dim>40</dim>
					<dim>40</dim>
				</port>
			</input>
			<output>
				<port id="2" precision="FP32" names="1188">
					<dim>1</dim>
					<dim>1024</dim>
					<dim>40</dim>
					<dim>40</dim>
				</port>
			</output>
		</layer>
		<layer id="288" name="Relu_175" type="ReLU" version="opset1">
			<input>
				<port id="0" precision="FP32">
					<dim>1</dim>
					<dim>1024</dim>
					<dim>40</dim>
					<dim>40</dim>
				</port>
			</input>
			<output>
				<port id="1" precision="FP32" names="1189">
					<dim>1</dim>
					<dim>1024</dim>
					<dim>40</dim>
					<dim>40</dim>
				</port>
			</output>
		</layer>
		<layer id="289" name="Multiply_45545" type="Const" version="opset1">
			<data element_type="f32" shape="256, 1024, 1, 1" offset="34906672" size="1048576" />
			<output>
				<port id="0" precision="FP32">
					<dim>256</dim>
					<dim>1024</dim>
					<dim>1</dim>
					<dim>1</dim>
				</port>
			</output>
		</layer>
		<layer id="290" name="Multiply_44488" type="Convolution" version="opset1">
			<data strides="1, 1" dilations="1, 1" pads_begin="0, 0" pads_end="0, 0" auto_pad="explicit" />
			<input>
				<port id="0" precision="FP32">
					<dim>1</dim>
					<dim>1024</dim>
					<dim>40</dim>
					<dim>40</dim>
				</port>
				<port id="1" precision="FP32">
					<dim>256</dim>
					<dim>1024</dim>
					<dim>1</dim>
					<dim>1</dim>
				</port>
			</input>
			<output>
				<port id="2" precision="FP32">
					<dim>1</dim>
					<dim>256</dim>
					<dim>40</dim>
					<dim>40</dim>
				</port>
			</output>
		</layer>
		<layer id="291" name="Constant_44493" type="Const" version="opset1">
			<data element_type="f32" shape="1, 256, 1, 1" offset="35955248" size="1024" />
			<output>
				<port id="0" precision="FP32">
					<dim>1</dim>
					<dim>256</dim>
					<dim>1</dim>
					<dim>1</dim>
				</port>
			</output>
		</layer>
		<layer id="292" name="BatchNormalization_177" type="Add" version="opset1">
			<data auto_broadcast="numpy" />
			<input>
				<port id="0" precision="FP32">
					<dim>1</dim>
					<dim>256</dim>
					<dim>40</dim>
					<dim>40</dim>
				</port>
				<port id="1" precision="FP32">
					<dim>1</dim>
					<dim>256</dim>
					<dim>1</dim>
					<dim>1</dim>
				</port>
			</input>
			<output>
				<port id="2" precision="FP32" names="1191">
					<dim>1</dim>
					<dim>256</dim>
					<dim>40</dim>
					<dim>40</dim>
				</port>
			</output>
		</layer>
		<layer id="293" name="Relu_178" type="ReLU" version="opset1">
			<input>
				<port id="0" precision="FP32">
					<dim>1</dim>
					<dim>256</dim>
					<dim>40</dim>
					<dim>40</dim>
				</port>
			</input>
			<output>
				<port id="1" precision="FP32" names="1192">
					<dim>1</dim>
					<dim>256</dim>
					<dim>40</dim>
					<dim>40</dim>
				</port>
			</output>
		</layer>
		<layer id="294" name="Multiply_45551" type="Const" version="opset1">
			<data element_type="f32" shape="256, 256, 3, 3" offset="35956272" size="2359296" />
			<output>
				<port id="0" precision="FP32">
					<dim>256</dim>
					<dim>256</dim>
					<dim>3</dim>
					<dim>3</dim>
				</port>
			</output>
		</layer>
		<layer id="295" name="Multiply_44495" type="Convolution" version="opset1">
			<data strides="1, 1" dilations="1, 1" pads_begin="1, 1" pads_end="1, 1" auto_pad="explicit" />
			<input>
				<port id="0" precision="FP32">
					<dim>1</dim>
					<dim>256</dim>
					<dim>40</dim>
					<dim>40</dim>
				</port>
				<port id="1" precision="FP32">
					<dim>256</dim>
					<dim>256</dim>
					<dim>3</dim>
					<dim>3</dim>
				</port>
			</input>
			<output>
				<port id="2" precision="FP32">
					<dim>1</dim>
					<dim>256</dim>
					<dim>40</dim>
					<dim>40</dim>
				</port>
			</output>
		</layer>
		<layer id="296" name="Constant_44500" type="Const" version="opset1">
			<data element_type="f32" shape="1, 256, 1, 1" offset="38315568" size="1024" />
			<output>
				<port id="0" precision="FP32">
					<dim>1</dim>
					<dim>256</dim>
					<dim>1</dim>
					<dim>1</dim>
				</port>
			</output>
		</layer>
		<layer id="297" name="BatchNormalization_180" type="Add" version="opset1">
			<data auto_broadcast="numpy" />
			<input>
				<port id="0" precision="FP32">
					<dim>1</dim>
					<dim>256</dim>
					<dim>40</dim>
					<dim>40</dim>
				</port>
				<port id="1" precision="FP32">
					<dim>1</dim>
					<dim>256</dim>
					<dim>1</dim>
					<dim>1</dim>
				</port>
			</input>
			<output>
				<port id="2" precision="FP32" names="1194">
					<dim>1</dim>
					<dim>256</dim>
					<dim>40</dim>
					<dim>40</dim>
				</port>
			</output>
		</layer>
		<layer id="298" name="Relu_181" type="ReLU" version="opset1">
			<input>
				<port id="0" precision="FP32">
					<dim>1</dim>
					<dim>256</dim>
					<dim>40</dim>
					<dim>40</dim>
				</port>
			</input>
			<output>
				<port id="1" precision="FP32" names="1195">
					<dim>1</dim>
					<dim>256</dim>
					<dim>40</dim>
					<dim>40</dim>
				</port>
			</output>
		</layer>
		<layer id="299" name="Multiply_45557" type="Const" version="opset1">
			<data element_type="f32" shape="1024, 256, 1, 1" offset="38316592" size="1048576" />
			<output>
				<port id="0" precision="FP32">
					<dim>1024</dim>
					<dim>256</dim>
					<dim>1</dim>
					<dim>1</dim>
				</port>
			</output>
		</layer>
		<layer id="300" name="Multiply_44502" type="Convolution" version="opset1">
			<data strides="1, 1" dilations="1, 1" pads_begin="0, 0" pads_end="0, 0" auto_pad="explicit" />
			<input>
				<port id="0" precision="FP32">
					<dim>1</dim>
					<dim>256</dim>
					<dim>40</dim>
					<dim>40</dim>
				</port>
				<port id="1" precision="FP32">
					<dim>1024</dim>
					<dim>256</dim>
					<dim>1</dim>
					<dim>1</dim>
				</port>
			</input>
			<output>
				<port id="2" precision="FP32">
					<dim>1</dim>
					<dim>1024</dim>
					<dim>40</dim>
					<dim>40</dim>
				</port>
			</output>
		</layer>
		<layer id="301" name="Constant_44507" type="Const" version="opset1">
			<data element_type="f32" shape="1, 1024, 1, 1" offset="39365168" size="4096" />
			<output>
				<port id="0" precision="FP32">
					<dim>1</dim>
					<dim>1024</dim>
					<dim>1</dim>
					<dim>1</dim>
				</port>
			</output>
		</layer>
		<layer id="302" name="BatchNormalization_183" type="Add" version="opset1">
			<data auto_broadcast="numpy" />
			<input>
				<port id="0" precision="FP32">
					<dim>1</dim>
					<dim>1024</dim>
					<dim>40</dim>
					<dim>40</dim>
				</port>
				<port id="1" precision="FP32">
					<dim>1</dim>
					<dim>1024</dim>
					<dim>1</dim>
					<dim>1</dim>
				</port>
			</input>
			<output>
				<port id="2" precision="FP32" names="1197">
					<dim>1</dim>
					<dim>1024</dim>
					<dim>40</dim>
					<dim>40</dim>
				</port>
			</output>
		</layer>
		<layer id="303" name="Add_184" type="Add" version="opset1">
			<data auto_broadcast="numpy" />
			<input>
				<port id="0" precision="FP32">
					<dim>1</dim>
					<dim>1024</dim>
					<dim>40</dim>
					<dim>40</dim>
				</port>
				<port id="1" precision="FP32">
					<dim>1</dim>
					<dim>1024</dim>
					<dim>40</dim>
					<dim>40</dim>
				</port>
			</input>
			<output>
				<port id="2" precision="FP32" names="1198">
					<dim>1</dim>
					<dim>1024</dim>
					<dim>40</dim>
					<dim>40</dim>
				</port>
			</output>
		</layer>
		<layer id="304" name="Relu_185" type="ReLU" version="opset1">
			<input>
				<port id="0" precision="FP32">
					<dim>1</dim>
					<dim>1024</dim>
					<dim>40</dim>
					<dim>40</dim>
				</port>
			</input>
			<output>
				<port id="1" precision="FP32" names="1199">
					<dim>1</dim>
					<dim>1024</dim>
					<dim>40</dim>
					<dim>40</dim>
				</port>
			</output>
		</layer>
		<layer id="305" name="Multiply_45563" type="Const" version="opset1">
			<data element_type="f32" shape="256, 1024, 1, 1" offset="39369264" size="1048576" />
			<output>
				<port id="0" precision="FP32">
					<dim>256</dim>
					<dim>1024</dim>
					<dim>1</dim>
					<dim>1</dim>
				</port>
			</output>
		</layer>
		<layer id="306" name="Multiply_44509" type="Convolution" version="opset1">
			<data strides="1, 1" dilations="1, 1" pads_begin="0, 0" pads_end="0, 0" auto_pad="explicit" />
			<input>
				<port id="0" precision="FP32">
					<dim>1</dim>
					<dim>1024</dim>
					<dim>40</dim>
					<dim>40</dim>
				</port>
				<port id="1" precision="FP32">
					<dim>256</dim>
					<dim>1024</dim>
					<dim>1</dim>
					<dim>1</dim>
				</port>
			</input>
			<output>
				<port id="2" precision="FP32">
					<dim>1</dim>
					<dim>256</dim>
					<dim>40</dim>
					<dim>40</dim>
				</port>
			</output>
		</layer>
		<layer id="307" name="Constant_44514" type="Const" version="opset1">
			<data element_type="f32" shape="1, 256, 1, 1" offset="40417840" size="1024" />
			<output>
				<port id="0" precision="FP32">
					<dim>1</dim>
					<dim>256</dim>
					<dim>1</dim>
					<dim>1</dim>
				</port>
			</output>
		</layer>
		<layer id="308" name="BatchNormalization_187" type="Add" version="opset1">
			<data auto_broadcast="numpy" />
			<input>
				<port id="0" precision="FP32">
					<dim>1</dim>
					<dim>256</dim>
					<dim>40</dim>
					<dim>40</dim>
				</port>
				<port id="1" precision="FP32">
					<dim>1</dim>
					<dim>256</dim>
					<dim>1</dim>
					<dim>1</dim>
				</port>
			</input>
			<output>
				<port id="2" precision="FP32" names="1201">
					<dim>1</dim>
					<dim>256</dim>
					<dim>40</dim>
					<dim>40</dim>
				</port>
			</output>
		</layer>
		<layer id="309" name="Relu_188" type="ReLU" version="opset1">
			<input>
				<port id="0" precision="FP32">
					<dim>1</dim>
					<dim>256</dim>
					<dim>40</dim>
					<dim>40</dim>
				</port>
			</input>
			<output>
				<port id="1" precision="FP32" names="1202">
					<dim>1</dim>
					<dim>256</dim>
					<dim>40</dim>
					<dim>40</dim>
				</port>
			</output>
		</layer>
		<layer id="310" name="Multiply_45569" type="Const" version="opset1">
			<data element_type="f32" shape="256, 256, 3, 3" offset="40418864" size="2359296" />
			<output>
				<port id="0" precision="FP32">
					<dim>256</dim>
					<dim>256</dim>
					<dim>3</dim>
					<dim>3</dim>
				</port>
			</output>
		</layer>
		<layer id="311" name="Multiply_44516" type="Convolution" version="opset1">
			<data strides="1, 1" dilations="1, 1" pads_begin="1, 1" pads_end="1, 1" auto_pad="explicit" />
			<input>
				<port id="0" precision="FP32">
					<dim>1</dim>
					<dim>256</dim>
					<dim>40</dim>
					<dim>40</dim>
				</port>
				<port id="1" precision="FP32">
					<dim>256</dim>
					<dim>256</dim>
					<dim>3</dim>
					<dim>3</dim>
				</port>
			</input>
			<output>
				<port id="2" precision="FP32">
					<dim>1</dim>
					<dim>256</dim>
					<dim>40</dim>
					<dim>40</dim>
				</port>
			</output>
		</layer>
		<layer id="312" name="Constant_44521" type="Const" version="opset1">
			<data element_type="f32" shape="1, 256, 1, 1" offset="42778160" size="1024" />
			<output>
				<port id="0" precision="FP32">
					<dim>1</dim>
					<dim>256</dim>
					<dim>1</dim>
					<dim>1</dim>
				</port>
			</output>
		</layer>
		<layer id="313" name="BatchNormalization_190" type="Add" version="opset1">
			<data auto_broadcast="numpy" />
			<input>
				<port id="0" precision="FP32">
					<dim>1</dim>
					<dim>256</dim>
					<dim>40</dim>
					<dim>40</dim>
				</port>
				<port id="1" precision="FP32">
					<dim>1</dim>
					<dim>256</dim>
					<dim>1</dim>
					<dim>1</dim>
				</port>
			</input>
			<output>
				<port id="2" precision="FP32" names="1204">
					<dim>1</dim>
					<dim>256</dim>
					<dim>40</dim>
					<dim>40</dim>
				</port>
			</output>
		</layer>
		<layer id="314" name="Relu_191" type="ReLU" version="opset1">
			<input>
				<port id="0" precision="FP32">
					<dim>1</dim>
					<dim>256</dim>
					<dim>40</dim>
					<dim>40</dim>
				</port>
			</input>
			<output>
				<port id="1" precision="FP32" names="1205">
					<dim>1</dim>
					<dim>256</dim>
					<dim>40</dim>
					<dim>40</dim>
				</port>
			</output>
		</layer>
		<layer id="315" name="Multiply_45575" type="Const" version="opset1">
			<data element_type="f32" shape="1024, 256, 1, 1" offset="42779184" size="1048576" />
			<output>
				<port id="0" precision="FP32">
					<dim>1024</dim>
					<dim>256</dim>
					<dim>1</dim>
					<dim>1</dim>
				</port>
			</output>
		</layer>
		<layer id="316" name="Multiply_44523" type="Convolution" version="opset1">
			<data strides="1, 1" dilations="1, 1" pads_begin="0, 0" pads_end="0, 0" auto_pad="explicit" />
			<input>
				<port id="0" precision="FP32">
					<dim>1</dim>
					<dim>256</dim>
					<dim>40</dim>
					<dim>40</dim>
				</port>
				<port id="1" precision="FP32">
					<dim>1024</dim>
					<dim>256</dim>
					<dim>1</dim>
					<dim>1</dim>
				</port>
			</input>
			<output>
				<port id="2" precision="FP32">
					<dim>1</dim>
					<dim>1024</dim>
					<dim>40</dim>
					<dim>40</dim>
				</port>
			</output>
		</layer>
		<layer id="317" name="Constant_44528" type="Const" version="opset1">
			<data element_type="f32" shape="1, 1024, 1, 1" offset="43827760" size="4096" />
			<output>
				<port id="0" precision="FP32">
					<dim>1</dim>
					<dim>1024</dim>
					<dim>1</dim>
					<dim>1</dim>
				</port>
			</output>
		</layer>
		<layer id="318" name="BatchNormalization_193" type="Add" version="opset1">
			<data auto_broadcast="numpy" />
			<input>
				<port id="0" precision="FP32">
					<dim>1</dim>
					<dim>1024</dim>
					<dim>40</dim>
					<dim>40</dim>
				</port>
				<port id="1" precision="FP32">
					<dim>1</dim>
					<dim>1024</dim>
					<dim>1</dim>
					<dim>1</dim>
				</port>
			</input>
			<output>
				<port id="2" precision="FP32" names="1207">
					<dim>1</dim>
					<dim>1024</dim>
					<dim>40</dim>
					<dim>40</dim>
				</port>
			</output>
		</layer>
		<layer id="319" name="Add_194" type="Add" version="opset1">
			<data auto_broadcast="numpy" />
			<input>
				<port id="0" precision="FP32">
					<dim>1</dim>
					<dim>1024</dim>
					<dim>40</dim>
					<dim>40</dim>
				</port>
				<port id="1" precision="FP32">
					<dim>1</dim>
					<dim>1024</dim>
					<dim>40</dim>
					<dim>40</dim>
				</port>
			</input>
			<output>
				<port id="2" precision="FP32" names="1208">
					<dim>1</dim>
					<dim>1024</dim>
					<dim>40</dim>
					<dim>40</dim>
				</port>
			</output>
		</layer>
		<layer id="320" name="Relu_195" type="ReLU" version="opset1">
			<input>
				<port id="0" precision="FP32">
					<dim>1</dim>
					<dim>1024</dim>
					<dim>40</dim>
					<dim>40</dim>
				</port>
			</input>
			<output>
				<port id="1" precision="FP32" names="1209">
					<dim>1</dim>
					<dim>1024</dim>
					<dim>40</dim>
					<dim>40</dim>
				</port>
			</output>
		</layer>
		<layer id="321" name="Multiply_45581" type="Const" version="opset1">
			<data element_type="f32" shape="256, 1024, 1, 1" offset="43831856" size="1048576" />
			<output>
				<port id="0" precision="FP32">
					<dim>256</dim>
					<dim>1024</dim>
					<dim>1</dim>
					<dim>1</dim>
				</port>
			</output>
		</layer>
		<layer id="322" name="Multiply_44530" type="Convolution" version="opset1">
			<data strides="1, 1" dilations="1, 1" pads_begin="0, 0" pads_end="0, 0" auto_pad="explicit" />
			<input>
				<port id="0" precision="FP32">
					<dim>1</dim>
					<dim>1024</dim>
					<dim>40</dim>
					<dim>40</dim>
				</port>
				<port id="1" precision="FP32">
					<dim>256</dim>
					<dim>1024</dim>
					<dim>1</dim>
					<dim>1</dim>
				</port>
			</input>
			<output>
				<port id="2" precision="FP32">
					<dim>1</dim>
					<dim>256</dim>
					<dim>40</dim>
					<dim>40</dim>
				</port>
			</output>
		</layer>
		<layer id="323" name="Constant_44535" type="Const" version="opset1">
			<data element_type="f32" shape="1, 256, 1, 1" offset="44880432" size="1024" />
			<output>
				<port id="0" precision="FP32">
					<dim>1</dim>
					<dim>256</dim>
					<dim>1</dim>
					<dim>1</dim>
				</port>
			</output>
		</layer>
		<layer id="324" name="BatchNormalization_197" type="Add" version="opset1">
			<data auto_broadcast="numpy" />
			<input>
				<port id="0" precision="FP32">
					<dim>1</dim>
					<dim>256</dim>
					<dim>40</dim>
					<dim>40</dim>
				</port>
				<port id="1" precision="FP32">
					<dim>1</dim>
					<dim>256</dim>
					<dim>1</dim>
					<dim>1</dim>
				</port>
			</input>
			<output>
				<port id="2" precision="FP32" names="1211">
					<dim>1</dim>
					<dim>256</dim>
					<dim>40</dim>
					<dim>40</dim>
				</port>
			</output>
		</layer>
		<layer id="325" name="Relu_198" type="ReLU" version="opset1">
			<input>
				<port id="0" precision="FP32">
					<dim>1</dim>
					<dim>256</dim>
					<dim>40</dim>
					<dim>40</dim>
				</port>
			</input>
			<output>
				<port id="1" precision="FP32" names="1212">
					<dim>1</dim>
					<dim>256</dim>
					<dim>40</dim>
					<dim>40</dim>
				</port>
			</output>
		</layer>
		<layer id="326" name="Multiply_45587" type="Const" version="opset1">
			<data element_type="f32" shape="256, 256, 3, 3" offset="44881456" size="2359296" />
			<output>
				<port id="0" precision="FP32">
					<dim>256</dim>
					<dim>256</dim>
					<dim>3</dim>
					<dim>3</dim>
				</port>
			</output>
		</layer>
		<layer id="327" name="Multiply_44537" type="Convolution" version="opset1">
			<data strides="1, 1" dilations="1, 1" pads_begin="1, 1" pads_end="1, 1" auto_pad="explicit" />
			<input>
				<port id="0" precision="FP32">
					<dim>1</dim>
					<dim>256</dim>
					<dim>40</dim>
					<dim>40</dim>
				</port>
				<port id="1" precision="FP32">
					<dim>256</dim>
					<dim>256</dim>
					<dim>3</dim>
					<dim>3</dim>
				</port>
			</input>
			<output>
				<port id="2" precision="FP32">
					<dim>1</dim>
					<dim>256</dim>
					<dim>40</dim>
					<dim>40</dim>
				</port>
			</output>
		</layer>
		<layer id="328" name="Constant_44542" type="Const" version="opset1">
			<data element_type="f32" shape="1, 256, 1, 1" offset="47240752" size="1024" />
			<output>
				<port id="0" precision="FP32">
					<dim>1</dim>
					<dim>256</dim>
					<dim>1</dim>
					<dim>1</dim>
				</port>
			</output>
		</layer>
		<layer id="329" name="BatchNormalization_200" type="Add" version="opset1">
			<data auto_broadcast="numpy" />
			<input>
				<port id="0" precision="FP32">
					<dim>1</dim>
					<dim>256</dim>
					<dim>40</dim>
					<dim>40</dim>
				</port>
				<port id="1" precision="FP32">
					<dim>1</dim>
					<dim>256</dim>
					<dim>1</dim>
					<dim>1</dim>
				</port>
			</input>
			<output>
				<port id="2" precision="FP32" names="1214">
					<dim>1</dim>
					<dim>256</dim>
					<dim>40</dim>
					<dim>40</dim>
				</port>
			</output>
		</layer>
		<layer id="330" name="Relu_201" type="ReLU" version="opset1">
			<input>
				<port id="0" precision="FP32">
					<dim>1</dim>
					<dim>256</dim>
					<dim>40</dim>
					<dim>40</dim>
				</port>
			</input>
			<output>
				<port id="1" precision="FP32" names="1215">
					<dim>1</dim>
					<dim>256</dim>
					<dim>40</dim>
					<dim>40</dim>
				</port>
			</output>
		</layer>
		<layer id="331" name="Multiply_45593" type="Const" version="opset1">
			<data element_type="f32" shape="1024, 256, 1, 1" offset="47241776" size="1048576" />
			<output>
				<port id="0" precision="FP32">
					<dim>1024</dim>
					<dim>256</dim>
					<dim>1</dim>
					<dim>1</dim>
				</port>
			</output>
		</layer>
		<layer id="332" name="Multiply_44544" type="Convolution" version="opset1">
			<data strides="1, 1" dilations="1, 1" pads_begin="0, 0" pads_end="0, 0" auto_pad="explicit" />
			<input>
				<port id="0" precision="FP32">
					<dim>1</dim>
					<dim>256</dim>
					<dim>40</dim>
					<dim>40</dim>
				</port>
				<port id="1" precision="FP32">
					<dim>1024</dim>
					<dim>256</dim>
					<dim>1</dim>
					<dim>1</dim>
				</port>
			</input>
			<output>
				<port id="2" precision="FP32">
					<dim>1</dim>
					<dim>1024</dim>
					<dim>40</dim>
					<dim>40</dim>
				</port>
			</output>
		</layer>
		<layer id="333" name="Constant_44549" type="Const" version="opset1">
			<data element_type="f32" shape="1, 1024, 1, 1" offset="48290352" size="4096" />
			<output>
				<port id="0" precision="FP32">
					<dim>1</dim>
					<dim>1024</dim>
					<dim>1</dim>
					<dim>1</dim>
				</port>
			</output>
		</layer>
		<layer id="334" name="BatchNormalization_203" type="Add" version="opset1">
			<data auto_broadcast="numpy" />
			<input>
				<port id="0" precision="FP32">
					<dim>1</dim>
					<dim>1024</dim>
					<dim>40</dim>
					<dim>40</dim>
				</port>
				<port id="1" precision="FP32">
					<dim>1</dim>
					<dim>1024</dim>
					<dim>1</dim>
					<dim>1</dim>
				</port>
			</input>
			<output>
				<port id="2" precision="FP32" names="1217">
					<dim>1</dim>
					<dim>1024</dim>
					<dim>40</dim>
					<dim>40</dim>
				</port>
			</output>
		</layer>
		<layer id="335" name="Add_204" type="Add" version="opset1">
			<data auto_broadcast="numpy" />
			<input>
				<port id="0" precision="FP32">
					<dim>1</dim>
					<dim>1024</dim>
					<dim>40</dim>
					<dim>40</dim>
				</port>
				<port id="1" precision="FP32">
					<dim>1</dim>
					<dim>1024</dim>
					<dim>40</dim>
					<dim>40</dim>
				</port>
			</input>
			<output>
				<port id="2" precision="FP32" names="1218">
					<dim>1</dim>
					<dim>1024</dim>
					<dim>40</dim>
					<dim>40</dim>
				</port>
			</output>
		</layer>
		<layer id="336" name="Relu_205" type="ReLU" version="opset1">
			<input>
				<port id="0" precision="FP32">
					<dim>1</dim>
					<dim>1024</dim>
					<dim>40</dim>
					<dim>40</dim>
				</port>
			</input>
			<output>
				<port id="1" precision="FP32" names="1219">
					<dim>1</dim>
					<dim>1024</dim>
					<dim>40</dim>
					<dim>40</dim>
				</port>
			</output>
		</layer>
		<layer id="337" name="Multiply_45599" type="Const" version="opset1">
			<data element_type="f32" shape="256, 1024, 1, 1" offset="48294448" size="1048576" />
			<output>
				<port id="0" precision="FP32">
					<dim>256</dim>
					<dim>1024</dim>
					<dim>1</dim>
					<dim>1</dim>
				</port>
			</output>
		</layer>
		<layer id="338" name="Multiply_44551" type="Convolution" version="opset1">
			<data strides="1, 1" dilations="1, 1" pads_begin="0, 0" pads_end="0, 0" auto_pad="explicit" />
			<input>
				<port id="0" precision="FP32">
					<dim>1</dim>
					<dim>1024</dim>
					<dim>40</dim>
					<dim>40</dim>
				</port>
				<port id="1" precision="FP32">
					<dim>256</dim>
					<dim>1024</dim>
					<dim>1</dim>
					<dim>1</dim>
				</port>
			</input>
			<output>
				<port id="2" precision="FP32">
					<dim>1</dim>
					<dim>256</dim>
					<dim>40</dim>
					<dim>40</dim>
				</port>
			</output>
		</layer>
		<layer id="339" name="Constant_44556" type="Const" version="opset1">
			<data element_type="f32" shape="1, 256, 1, 1" offset="49343024" size="1024" />
			<output>
				<port id="0" precision="FP32">
					<dim>1</dim>
					<dim>256</dim>
					<dim>1</dim>
					<dim>1</dim>
				</port>
			</output>
		</layer>
		<layer id="340" name="BatchNormalization_207" type="Add" version="opset1">
			<data auto_broadcast="numpy" />
			<input>
				<port id="0" precision="FP32">
					<dim>1</dim>
					<dim>256</dim>
					<dim>40</dim>
					<dim>40</dim>
				</port>
				<port id="1" precision="FP32">
					<dim>1</dim>
					<dim>256</dim>
					<dim>1</dim>
					<dim>1</dim>
				</port>
			</input>
			<output>
				<port id="2" precision="FP32" names="1221">
					<dim>1</dim>
					<dim>256</dim>
					<dim>40</dim>
					<dim>40</dim>
				</port>
			</output>
		</layer>
…
		<edge from-layer="2610" from-port="2" to-layer="2612" to-port="0" />
		<edge from-layer="2611" from-port="0" to-layer="2612" to-port="1" />
		<edge from-layer="2612" from-port="2" to-layer="2614" to-port="0" />
		<edge from-layer="2613" from-port="0" to-layer="2614" to-port="1" />
		<edge from-layer="2614" from-port="2" to-layer="2615" to-port="0" />
		<edge from-layer="2615" from-port="1" to-layer="2616" to-port="0" />
		<edge from-layer="2616" from-port="2" to-layer="2618" to-port="0" />
		<edge from-layer="2616" from-port="2" to-layer="2623" to-port="0" />
		<edge from-layer="2617" from-port="0" to-layer="2618" to-port="1" />
		<edge from-layer="2618" from-port="2" to-layer="2620" to-port="0" />
		<edge from-layer="2619" from-port="0" to-layer="2620" to-port="1" />
		<edge from-layer="2620" from-port="2" to-layer="2622" to-port="0" />
		<edge from-layer="2621" from-port="0" to-layer="2622" to-port="1" />
		<edge from-layer="2622" from-port="2" to-layer="2624" to-port="0" />
		<edge from-layer="2623" from-port="1" to-layer="2624" to-port="1" />
		<edge from-layer="2624" from-port="2" to-layer="2626" to-port="0" />
		<edge from-layer="2625" from-port="0" to-layer="2626" to-port="1" />
		<edge from-layer="2626" from-port="2" to-layer="2628" to-port="0" />
		<edge from-layer="2627" from-port="0" to-layer="2628" to-port="1" />
		<edge from-layer="2628" from-port="2" to-layer="2629" to-port="0" />
		<edge from-layer="2629" from-port="1" to-layer="2630" to-port="0" />
		<edge from-layer="2630" from-port="2" to-layer="2632" to-port="0" />
		<edge from-layer="2630" from-port="2" to-layer="2637" to-port="0" />
		<edge from-layer="2631" from-port="0" to-layer="2632" to-port="1" />
		<edge from-layer="2632" from-port="2" to-layer="2634" to-port="0" />
		<edge from-layer="2633" from-port="0" to-layer="2634" to-port="1" />
		<edge from-layer="2634" from-port="2" to-layer="2636" to-port="0" />
		<edge from-layer="2635" from-port="0" to-layer="2636" to-port="1" />
		<edge from-layer="2636" from-port="2" to-layer="2638" to-port="0" />
		<edge from-layer="2637" from-port="1" to-layer="2638" to-port="1" />
		<edge from-layer="2638" from-port="2" to-layer="2640" to-port="0" />
		<edge from-layer="2639" from-port="0" to-layer="2640" to-port="1" />
		<edge from-layer="2640" from-port="2" to-layer="2642" to-port="0" />
		<edge from-layer="2641" from-port="0" to-layer="2642" to-port="1" />
		<edge from-layer="2642" from-port="2" to-layer="2643" to-port="0" />
		<edge from-layer="2643" from-port="1" to-layer="2644" to-port="0" />
		<edge from-layer="2644" from-port="2" to-layer="2646" to-port="0" />
		<edge from-layer="2645" from-port="0" to-layer="2646" to-port="1" />
		<edge from-layer="2646" from-port="2" to-layer="3034" to-port="0" />
		<edge from-layer="2646" from-port="2" to-layer="2647" to-port="0" />
		<edge from-layer="2647" from-port="1" to-layer="2650" to-port="0" />
		<edge from-layer="2647" from-port="1" to-layer="2666" to-port="0" />
		<edge from-layer="2648" from-port="0" to-layer="2650" to-port="1" />
		<edge from-layer="2649" from-port="0" to-layer="2650" to-port="2" />
		<edge from-layer="2650" from-port="3" to-layer="2651" to-port="1" />
		<edge from-layer="2651" from-port="2" to-layer="2652" to-port="0" />
		<edge from-layer="2652" from-port="1" to-layer="2654" to-port="0" />
		<edge from-layer="2653" from-port="0" to-layer="2654" to-port="1" />
		<edge from-layer="2654" from-port="2" to-layer="2656" to-port="0" />
		<edge from-layer="2655" from-port="0" to-layer="2656" to-port="1" />
		<edge from-layer="2656" from-port="2" to-layer="2658" to-port="0" />
		<edge from-layer="2657" from-port="0" to-layer="2658" to-port="1" />
		<edge from-layer="2658" from-port="2" to-layer="2660" to-port="0" />
		<edge from-layer="2658" from-port="2" to-layer="2662" to-port="0" />
		<edge from-layer="2659" from-port="0" to-layer="2661" to-port="0" />
		<edge from-layer="2660" from-port="1" to-layer="2661" to-port="1" />
		<edge from-layer="2660" from-port="1" to-layer="2676" to-port="1" />
		<edge from-layer="2661" from-port="2" to-layer="2662" to-port="1" />
		<edge from-layer="2662" from-port="2" to-layer="2677" to-port="0" />
		<edge from-layer="2663" from-port="0" to-layer="2667" to-port="0" />
		<edge from-layer="2664" from-port="0" to-layer="2666" to-port="1" />
		<edge from-layer="2665" from-port="0" to-layer="2666" to-port="2" />
		<edge from-layer="2666" from-port="3" to-layer="2667" to-port="1" />
		<edge from-layer="2667" from-port="2" to-layer="2668" to-port="0" />
		<edge from-layer="2668" from-port="1" to-layer="2670" to-port="0" />
		<edge from-layer="2669" from-port="0" to-layer="2670" to-port="1" />
		<edge from-layer="2670" from-port="2" to-layer="2672" to-port="0" />
		<edge from-layer="2671" from-port="0" to-layer="2672" to-port="1" />
		<edge from-layer="2672" from-port="2" to-layer="2674" to-port="0" />
		<edge from-layer="2673" from-port="0" to-layer="2674" to-port="1" />
		<edge from-layer="2674" from-port="2" to-layer="2675" to-port="0" />
		<edge from-layer="2674" from-port="2" to-layer="2682" to-port="0" />
		<edge from-layer="2675" from-port="1" to-layer="2676" to-port="0" />
		<edge from-layer="2675" from-port="1" to-layer="2681" to-port="0" />
		<edge from-layer="2676" from-port="2" to-layer="2683" to-port="1" />
		<edge from-layer="2676" from-port="2" to-layer="2677" to-port="1" />
		<edge from-layer="2677" from-port="2" to-layer="2687" to-port="0" />
		<edge from-layer="2677" from-port="2" to-layer="2679" to-port="0" />
		<edge from-layer="2678" from-port="0" to-layer="2679" to-port="1" />
		<edge from-layer="2679" from-port="2" to-layer="2690" to-port="0" />
		<edge from-layer="2680" from-port="0" to-layer="2681" to-port="1" />
		<edge from-layer="2681" from-port="2" to-layer="2682" to-port="1" />
		<edge from-layer="2682" from-port="2" to-layer="2683" to-port="0" />
		<edge from-layer="2683" from-port="2" to-layer="2685" to-port="0" />
		<edge from-layer="2683" from-port="2" to-layer="2689" to-port="0" />
		<edge from-layer="2684" from-port="0" to-layer="2685" to-port="1" />
		<edge from-layer="2685" from-port="2" to-layer="2690" to-port="1" />
		<edge from-layer="2686" from-port="0" to-layer="2687" to-port="1" />
		<edge from-layer="2687" from-port="2" to-layer="2690" to-port="2" />
		<edge from-layer="2688" from-port="0" to-layer="2689" to-port="1" />
		<edge from-layer="2689" from-port="2" to-layer="2690" to-port="3" />
		<edge from-layer="2690" from-port="4" to-layer="2692" to-port="0" />
		<edge from-layer="2691" from-port="0" to-layer="2692" to-port="1" />
		<edge from-layer="2692" from-port="2" to-layer="2693" to-port="0" />
		<edge from-layer="2693" from-port="1" to-layer="2694" to-port="1" />
		<edge from-layer="2694" from-port="2" to-layer="2696" to-port="0" />
		<edge from-layer="2695" from-port="0" to-layer="2696" to-port="1" />
		<edge from-layer="2696" from-port="2" to-layer="2878" to-port="0" />
		<edge from-layer="2696" from-port="2" to-layer="2875" to-port="0" />
		<edge from-layer="2696" from-port="2" to-layer="2861" to-port="0" />
		<edge from-layer="2696" from-port="2" to-layer="2858" to-port="0" />
		<edge from-layer="2696" from-port="2" to-layer="2811" to-port="0" />
		<edge from-layer="2696" from-port="2" to-layer="2808" to-port="0" />
		<edge from-layer="2696" from-port="2" to-layer="2702" to-port="0" />
		<edge from-layer="2696" from-port="2" to-layer="2699" to-port="0" />
		<edge from-layer="2697" from-port="0" to-layer="2699" to-port="1" />
		<edge from-layer="2698" from-port="0" to-layer="2699" to-port="2" />
		<edge from-layer="2699" from-port="3" to-layer="2703" to-port="0" />
		<edge from-layer="2700" from-port="0" to-layer="2702" to-port="1" />
		<edge from-layer="2701" from-port="0" to-layer="2702" to-port="2" />
		<edge from-layer="2702" from-port="3" to-layer="2703" to-port="1" />
		<edge from-layer="2703" from-port="2" to-layer="2705" to-port="0" />
		<edge from-layer="2704" from-port="0" to-layer="2705" to-port="1" />
		<edge from-layer="2705" from-port="2" to-layer="2707" to-port="0" />
		<edge from-layer="2706" from-port="0" to-layer="2707" to-port="1" />
		<edge from-layer="2707" from-port="2" to-layer="2805" to-port="0" />
		<edge from-layer="2708" from-port="2" to-layer="2715" to-port="0" />
		<edge from-layer="2708" from-port="2" to-layer="2710" to-port="0" />
		<edge from-layer="2709" from-port="0" to-layer="2710" to-port="1" />
		<edge from-layer="2710" from-port="2" to-layer="2712" to-port="0" />
		<edge from-layer="2711" from-port="0" to-layer="2712" to-port="1" />
		<edge from-layer="2712" from-port="2" to-layer="2714" to-port="0" />
		<edge from-layer="2713" from-port="0" to-layer="2714" to-port="1" />
		<edge from-layer="2714" from-port="2" to-layer="2716" to-port="0" />
		<edge from-layer="2715" from-port="1" to-layer="2716" to-port="1" />
		<edge from-layer="2716" from-port="2" to-layer="2718" to-port="0" />
		<edge from-layer="2717" from-port="0" to-layer="2718" to-port="1" />
		<edge from-layer="2718" from-port="2" to-layer="2720" to-port="0" />
		<edge from-layer="2719" from-port="0" to-layer="2720" to-port="1" />
		<edge from-layer="2720" from-port="2" to-layer="2721" to-port="0" />
		<edge from-layer="2721" from-port="1" to-layer="2722" to-port="0" />
		<edge from-layer="2722" from-port="2" to-layer="2729" to-port="0" />
		<edge from-layer="2722" from-port="2" to-layer="2724" to-port="0" />
		<edge from-layer="2723" from-port="0" to-layer="2724" to-port="1" />
		<edge from-layer="2724" from-port="2" to-layer="2726" to-port="0" />
		<edge from-layer="2725" from-port="0" to-layer="2726" to-port="1" />
		<edge from-layer="2726" from-port="2" to-layer="2728" to-port="0" />
		<edge from-layer="2727" from-port="0" to-layer="2728" to-port="1" />
		<edge from-layer="2728" from-port="2" to-layer="2730" to-port="0" />
		<edge from-layer="2729" from-port="1" to-layer="2730" to-port="1" />
		<edge from-layer="2730" from-port="2" to-layer="2732" to-port="0" />
		<edge from-layer="2731" from-port="0" to-layer="2732" to-port="1" />
		<edge from-layer="2732" from-port="2" to-layer="2734" to-port="0" />
		<edge from-layer="2733" from-port="0" to-layer="2734" to-port="1" />
		<edge from-layer="2734" from-port="2" to-layer="2735" to-port="0" />
		<edge from-layer="2735" from-port="1" to-layer="2736" to-port="0" />
		<edge from-layer="2736" from-port="2" to-layer="2743" to-port="0" />
		<edge from-layer="2736" from-port="2" to-layer="2738" to-port="0" />
		<edge from-layer="2737" from-port="0" to-layer="2738" to-port="1" />
		<edge from-layer="2738" from-port="2" to-layer="2740" to-port="0" />
		<edge from-layer="2739" from-port="0" to-layer="2740" to-port="1" />
		<edge from-layer="2740" from-port="2" to-layer="2742" to-port="0" />
		<edge from-layer="2741" from-port="0" to-layer="2742" to-port="1" />
		<edge from-layer="2742" from-port="2" to-layer="2744" to-port="0" />
		<edge from-layer="2743" from-port="1" to-layer="2744" to-port="1" />
		<edge from-layer="2744" from-port="2" to-layer="2746" to-port="0" />
		<edge from-layer="2745" from-port="0" to-layer="2746" to-port="1" />
		<edge from-layer="2746" from-port="2" to-layer="2748" to-port="0" />
		<edge from-layer="2747" from-port="0" to-layer="2748" to-port="1" />
		<edge from-layer="2748" from-port="2" to-layer="2749" to-port="0" />
		<edge from-layer="2749" from-port="1" to-layer="2750" to-port="0" />
		<edge from-layer="2750" from-port="2" to-layer="2757" to-port="0" />
		<edge from-layer="2750" from-port="2" to-layer="2752" to-port="0" />
		<edge from-layer="2751" from-port="0" to-layer="2752" to-port="1" />
		<edge from-layer="2752" from-port="2" to-layer="2754" to-port="0" />
		<edge from-layer="2753" from-port="0" to-layer="2754" to-port="1" />
		<edge from-layer="2754" from-port="2" to-layer="2756" to-port="0" />
		<edge from-layer="2755" from-port="0" to-layer="2756" to-port="1" />
		<edge from-layer="2756" from-port="2" to-layer="2758" to-port="0" />
		<edge from-layer="2757" from-port="1" to-layer="2758" to-port="1" />
		<edge from-layer="2758" from-port="2" to-layer="2760" to-port="0" />
		<edge from-layer="2759" from-port="0" to-layer="2760" to-port="1" />
		<edge from-layer="2760" from-port="2" to-layer="2762" to-port="0" />
		<edge from-layer="2761" from-port="0" to-layer="2762" to-port="1" />
		<edge from-layer="2762" from-port="2" to-layer="2763" to-port="0" />
		<edge from-layer="2763" from-port="1" to-layer="3101" to-port="0" />
		<edge from-layer="2763" from-port="1" to-layer="2765" to-port="0" />
		<edge from-layer="2764" from-port="0" to-layer="2765" to-port="1" />
		<edge from-layer="2765" from-port="2" to-layer="2767" to-port="0" />
		<edge from-layer="2766" from-port="0" to-layer="2767" to-port="1" />
		<edge from-layer="2767" from-port="2" to-layer="2770" to-port="0" />
		<edge from-layer="2768" from-port="0" to-layer="2770" to-port="1" />
		<edge from-layer="2769" from-port="0" to-layer="2770" to-port="2" />
		<edge from-layer="2770" from-port="3" to-layer="2772" to-port="0" />
		<edge from-layer="2771" from-port="0" to-layer="2772" to-port="1" />
		<edge from-layer="2772" from-port="2" to-layer="2774" to-port="0" />
		<edge from-layer="2773" from-port="0" to-layer="2774" to-port="1" />
		<edge from-layer="2774" from-port="2" to-layer="2787" to-port="0" />
		<edge from-layer="2774" from-port="2" to-layer="2777" to-port="0" />
		<edge from-layer="2775" from-port="0" to-layer="2786" to-port="0" />
		<edge from-layer="2776" from-port="0" to-layer="2785" to-port="0" />
		<edge from-layer="2777" from-port="1" to-layer="2984" to-port="1" />
		<edge from-layer="2777" from-port="1" to-layer="2780" to-port="0" />
		<edge from-layer="2777" from-port="1" to-layer="2792" to-port="0" />
		<edge from-layer="2778" from-port="0" to-layer="2780" to-port="1" />
		<edge from-layer="2779" from-port="0" to-layer="2780" to-port="2" />
		<edge from-layer="2780" from-port="3" to-layer="2782" to-port="0" />
		<edge from-layer="2781" from-port="0" to-layer="2782" to-port="1" />
		<edge from-layer="2782" from-port="2" to-layer="2784" to-port="0" />
		<edge from-layer="2783" from-port="0" to-layer="2784" to-port="1" />
		<edge from-layer="2784" from-port="2" to-layer="2785" to-port="1" />
		<edge from-layer="2785" from-port="2" to-layer="2786" to-port="1" />
		<edge from-layer="2786" from-port="2" to-layer="2787" to-port="1" />
		<edge from-layer="2787" from-port="2" to-layer="2799" to-port="0" />
		<edge from-layer="2788" from-port="0" to-layer="2798" to-port="0" />
		<edge from-layer="2789" from-port="0" to-layer="2797" to-port="0" />
		<edge from-layer="2790" from-port="0" to-layer="2792" to-port="1" />
		<edge from-layer="2791" from-port="0" to-layer="2792" to-port="2" />
		<edge from-layer="2792" from-port="3" to-layer="2794" to-port="0" />
		<edge from-layer="2793" from-port="0" to-layer="2794" to-port="1" />
		<edge from-layer="2794" from-port="2" to-layer="2796" to-port="0" />
		<edge from-layer="2795" from-port="0" to-layer="2796" to-port="1" />
		<edge from-layer="2796" from-port="2" to-layer="2797" to-port="1" />
		<edge from-layer="2797" from-port="2" to-layer="2798" to-port="1" />
		<edge from-layer="2798" from-port="2" to-layer="2799" to-port="1" />
		<edge from-layer="2799" from-port="2" to-layer="2818" to-port="0" />
		<edge from-layer="2799" from-port="2" to-layer="2870" to-port="0" />
		<edge from-layer="2799" from-port="2" to-layer="2803" to-port="0" />
		<edge from-layer="2799" from-port="2" to-layer="2885" to-port="0" />
		<edge from-layer="2800" from-port="0" to-layer="2803" to-port="1" />
		<edge from-layer="2801" from-port="0" to-layer="2803" to-port="2" />
		<edge from-layer="2802" from-port="0" to-layer="2803" to-port="3" />
		<edge from-layer="2803" from-port="4" to-layer="2822" to-port="1" />
		<edge from-layer="2803" from-port="4" to-layer="2804" to-port="0" />
		<edge from-layer="2804" from-port="1" to-layer="2805" to-port="1" />
		<edge from-layer="2805" from-port="2" to-layer="2823" to-port="0" />
		<edge from-layer="2806" from-port="0" to-layer="2808" to-port="1" />
		<edge from-layer="2807" from-port="0" to-layer="2808" to-port="2" />
		<edge from-layer="2808" from-port="3" to-layer="2812" to-port="0" />
		<edge from-layer="2809" from-port="0" to-layer="2811" to-port="1" />
		<edge from-layer="2810" from-port="0" to-layer="2811" to-port="2" />
		<edge from-layer="2811" from-port="3" to-layer="2812" to-port="1" />
		<edge from-layer="2812" from-port="2" to-layer="2814" to-port="0" />
		<edge from-layer="2813" from-port="0" to-layer="2814" to-port="1" />
		<edge from-layer="2814" from-port="2" to-layer="2821" to-port="0" />
		<edge from-layer="2815" from-port="0" to-layer="2818" to-port="1" />
		<edge from-layer="2816" from-port="0" to-layer="2818" to-port="2" />
		<edge from-layer="2817" from-port="0" to-layer="2818" to-port="3" />
		<edge from-layer="2818" from-port="4" to-layer="2819" to-port="0" />
		<edge from-layer="2819" from-port="1" to-layer="2820" to-port="0" />
		<edge from-layer="2819" from-port="1" to-layer="2824" to-port="0" />
		<edge from-layer="2820" from-port="1" to-layer="2821" to-port="1" />
		<edge from-layer="2821" from-port="2" to-layer="2822" to-port="0" />
		<edge from-layer="2821" from-port="2" to-layer="2825" to-port="0" />
		<edge from-layer="2822" from-port="2" to-layer="2823" to-port="1" />
		<edge from-layer="2823" from-port="2" to-layer="2925" to-port="0" />
		<edge from-layer="2823" from-port="2" to-layer="2828" to-port="0" />
		<edge from-layer="2824" from-port="1" to-layer="2825" to-port="1" />
		<edge from-layer="2825" from-port="2" to-layer="2924" to-port="0" />
		<edge from-layer="2825" from-port="2" to-layer="2827" to-port="0" />
		<edge from-layer="2826" from-port="0" to-layer="2827" to-port="1" />
		<edge from-layer="2827" from-port="2" to-layer="2828" to-port="1" />
		<edge from-layer="2828" from-port="2" to-layer="2830" to-port="0" />
		<edge from-layer="2828" from-port="2" to-layer="2832" to-port="0" />
		<edge from-layer="2829" from-port="0" to-layer="2830" to-port="1" />
		<edge from-layer="2830" from-port="2" to-layer="2836" to-port="0" />
		<edge from-layer="2831" from-port="0" to-layer="2833" to-port="0" />
		<edge from-layer="2832" from-port="1" to-layer="2833" to-port="1" />
		<edge from-layer="2833" from-port="2" to-layer="2835" to-port="0" />
		<edge from-layer="2834" from-port="0" to-layer="2835" to-port="1" />
		<edge from-layer="2835" from-port="2" to-layer="2836" to-port="1" />
		<edge from-layer="2836" from-port="2" to-layer="2838" to-port="0" />
		<edge from-layer="2837" from-port="0" to-layer="2838" to-port="1" />
		<edge from-layer="2838" from-port="2" to-layer="2840" to-port="0" />
		<edge from-layer="2838" from-port="2" to-layer="2847" to-port="0" />
		<edge from-layer="2839" from-port="0" to-layer="2840" to-port="1" />
		<edge from-layer="2840" from-port="2" to-layer="2851" to-port="0" />
		<edge from-layer="2841" from-port="0" to-layer="2843" to-port="1" />
		<edge from-layer="2842" from-port="0" to-layer="2843" to-port="2" />
		<edge from-layer="2843" from-port="3" to-layer="2844" to-port="0" />
		<edge from-layer="2844" from-port="1" to-layer="2846" to-port="0" />
		<edge from-layer="2845" from-port="0" to-layer="2846" to-port="1" />
		<edge from-layer="2846" from-port="2" to-layer="2848" to-port="0" />
		<edge from-layer="2847" from-port="1" to-layer="2848" to-port="1" />
		<edge from-layer="2848" from-port="2" to-layer="2850" to-port="0" />
		<edge from-layer="2849" from-port="0" to-layer="2850" to-port="1" />
		<edge from-layer="2850" from-port="2" to-layer="2851" to-port="1" />
		<edge from-layer="2851" from-port="2" to-layer="2853" to-port="0" />
		<edge from-layer="2852" from-port="0" to-layer="2853" to-port="1" />
		<edge from-layer="2853" from-port="2" to-layer="2855" to-port="0" />
		<edge from-layer="2854" from-port="0" to-layer="2855" to-port="1" />
		<edge from-layer="2855" from-port="2" to-layer="2983" to-port="0" />
		<edge from-layer="2856" from-port="0" to-layer="2858" to-port="1" />
		<edge from-layer="2857" from-port="0" to-layer="2858" to-port="2" />
		<edge from-layer="2858" from-port="3" to-layer="2862" to-port="0" />
		<edge from-layer="2859" from-port="0" to-layer="2861" to-port="1" />
		<edge from-layer="2860" from-port="0" to-layer="2861" to-port="2" />
		<edge from-layer="2861" from-port="3" to-layer="2862" to-port="1" />
		<edge from-layer="2862" from-port="2" to-layer="2864" to-port="0" />
		<edge from-layer="2863" from-port="0" to-layer="2864" to-port="1" />
		<edge from-layer="2864" from-port="2" to-layer="2866" to-port="0" />
		<edge from-layer="2865" from-port="0" to-layer="2866" to-port="1" />
		<edge from-layer="2866" from-port="2" to-layer="2872" to-port="0" />
		<edge from-layer="2867" from-port="0" to-layer="2870" to-port="1" />
		<edge from-layer="2868" from-port="0" to-layer="2870" to-port="2" />
		<edge from-layer="2869" from-port="0" to-layer="2870" to-port="3" />
		<edge from-layer="2870" from-port="4" to-layer="2871" to-port="0" />
		<edge from-layer="2870" from-port="4" to-layer="2889" to-port="1" />
		<edge from-layer="2871" from-port="1" to-layer="2872" to-port="1" />
		<edge from-layer="2872" from-port="2" to-layer="2890" to-port="0" />
		<edge from-layer="2873" from-port="0" to-layer="2875" to-port="1" />
		<edge from-layer="2874" from-port="0" to-layer="2875" to-port="2" />
		<edge from-layer="2875" from-port="3" to-layer="2879" to-port="0" />
		<edge from-layer="2876" from-port="0" to-layer="2878" to-port="1" />
		<edge from-layer="2877" from-port="0" to-layer="2878" to-port="2" />
		<edge from-layer="2878" from-port="3" to-layer="2879" to-port="1" />
		<edge from-layer="2879" from-port="2" to-layer="2881" to-port="0" />
		<edge from-layer="2880" from-port="0" to-layer="2881" to-port="1" />
		<edge from-layer="2881" from-port="2" to-layer="2888" to-port="0" />
		<edge from-layer="2882" from-port="0" to-layer="2885" to-port="1" />
		<edge from-layer="2883" from-port="0" to-layer="2885" to-port="2" />
		<edge from-layer="2884" from-port="0" to-layer="2885" to-port="3" />
		<edge from-layer="2885" from-port="4" to-layer="2886" to-port="0" />
		<edge from-layer="2886" from-port="1" to-layer="2887" to-port="0" />
		<edge from-layer="2886" from-port="1" to-layer="2891" to-port="0" />
		<edge from-layer="2887" from-port="1" to-layer="2888" to-port="1" />
		<edge from-layer="2888" from-port="2" to-layer="2892" to-port="0" />
		<edge from-layer="2888" from-port="2" to-layer="2889" to-port="0" />
		<edge from-layer="2889" from-port="2" to-layer="2890" to-port="1" />
		<edge from-layer="2890" from-port="2" to-layer="2955" to-port="0" />
		<edge from-layer="2890" from-port="2" to-layer="2895" to-port="0" />
		<edge from-layer="2891" from-port="1" to-layer="2892" to-port="1" />
		<edge from-layer="2892" from-port="2" to-layer="2894" to-port="0" />
		<edge from-layer="2892" from-port="2" to-layer="2954" to-port="0" />
		<edge from-layer="2893" from-port="0" to-layer="2894" to-port="1" />
		<edge from-layer="2894" from-port="2" to-layer="2895" to-port="1" />
		<edge from-layer="2895" from-port="2" to-layer="2897" to-port="0" />
		<edge from-layer="2895" from-port="2" to-layer="2899" to-port="0" />
		<edge from-layer="2896" from-port="0" to-layer="2897" to-port="1" />
		<edge from-layer="2897" from-port="2" to-layer="2903" to-port="0" />
		<edge from-layer="2898" from-port="0" to-layer="2900" to-port="0" />
		<edge from-layer="2899" from-port="1" to-layer="2900" to-port="1" />
		<edge from-layer="2900" from-port="2" to-layer="2902" to-port="0" />
		<edge from-layer="2901" from-port="0" to-layer="2902" to-port="1" />
		<edge from-layer="2902" from-port="2" to-layer="2903" to-port="1" />
		<edge from-layer="2903" from-port="2" to-layer="2905" to-port="0" />
		<edge from-layer="2904" from-port="0" to-layer="2905" to-port="1" />
		<edge from-layer="2905" from-port="2" to-layer="2907" to-port="0" />
		<edge from-layer="2905" from-port="2" to-layer="2914" to-port="0" />
		<edge from-layer="2906" from-port="0" to-layer="2907" to-port="1" />
		<edge from-layer="2907" from-port="2" to-layer="2918" to-port="0" />
		<edge from-layer="2908" from-port="0" to-layer="2910" to-port="1" />
		<edge from-layer="2909" from-port="0" to-layer="2910" to-port="2" />
		<edge from-layer="2910" from-port="3" to-layer="2911" to-port="0" />
		<edge from-layer="2911" from-port="1" to-layer="2913" to-port="0" />
		<edge from-layer="2912" from-port="0" to-layer="2913" to-port="1" />
		<edge from-layer="2913" from-port="2" to-layer="2915" to-port="0" />
		<edge from-layer="2914" from-port="1" to-layer="2915" to-port="1" />
		<edge from-layer="2915" from-port="2" to-layer="2917" to-port="0" />
		<edge from-layer="2916" from-port="0" to-layer="2917" to-port="1" />
		<edge from-layer="2917" from-port="2" to-layer="2918" to-port="1" />
		<edge from-layer="2918" from-port="2" to-layer="2920" to-port="0" />
		<edge from-layer="2919" from-port="0" to-layer="2920" to-port="1" />
		<edge from-layer="2920" from-port="2" to-layer="2922" to-port="0" />
		<edge from-layer="2921" from-port="0" to-layer="2922" to-port="1" />
		<edge from-layer="2922" from-port="2" to-layer="2983" to-port="1" />
		<edge from-layer="2923" from-port="0" to-layer="2924" to-port="1" />
		<edge from-layer="2924" from-port="2" to-layer="2925" to-port="1" />
		<edge from-layer="2925" from-port="2" to-layer="2927" to-port="0" />
		<edge from-layer="2925" from-port="2" to-layer="2929" to-port="0" />
		<edge from-layer="2926" from-port="0" to-layer="2927" to-port="1" />
		<edge from-layer="2927" from-port="2" to-layer="2933" to-port="0" />
		<edge from-layer="2928" from-port="0" to-layer="2930" to-port="0" />
		<edge from-layer="2929" from-port="1" to-layer="2930" to-port="1" />
		<edge from-layer="2930" from-port="2" to-layer="2932" to-port="0" />
		<edge from-layer="2931" from-port="0" to-layer="2932" to-port="1" />
		<edge from-layer="2932" from-port="2" to-layer="2933" to-port="1" />
		<edge from-layer="2933" from-port="2" to-layer="2935" to-port="0" />
		<edge from-layer="2934" from-port="0" to-layer="2935" to-port="1" />
		<edge from-layer="2935" from-port="2" to-layer="2937" to-port="0" />
		<edge from-layer="2935" from-port="2" to-layer="2944" to-port="0" />
		<edge from-layer="2936" from-port="0" to-layer="2937" to-port="1" />
		<edge from-layer="2937" from-port="2" to-layer="2948" to-port="0" />
		<edge from-layer="2938" from-port="0" to-layer="2940" to-port="1" />
		<edge from-layer="2939" from-port="0" to-layer="2940" to-port="2" />
		<edge from-layer="2940" from-port="3" to-layer="2941" to-port="0" />
		<edge from-layer="2941" from-port="1" to-layer="2943" to-port="0" />
		<edge from-layer="2942" from-port="0" to-layer="2943" to-port="1" />
		<edge from-layer="2943" from-port="2" to-layer="2945" to-port="0" />
		<edge from-layer="2944" from-port="1" to-layer="2945" to-port="1" />
		<edge from-layer="2945" from-port="2" to-layer="2947" to-port="0" />
		<edge from-layer="2946" from-port="0" to-layer="2947" to-port="1" />
		<edge from-layer="2947" from-port="2" to-layer="2948" to-port="1" />
		<edge from-layer="2948" from-port="2" to-layer="2950" to-port="0" />
		<edge from-layer="2949" from-port="0" to-layer="2950" to-port="1" />
		<edge from-layer="2950" from-port="2" to-layer="2952" to-port="0" />
		<edge from-layer="2951" from-port="0" to-layer="2952" to-port="1" />
		<edge from-layer="2952" from-port="2" to-layer="2983" to-port="2" />
		<edge from-layer="2953" from-port="0" to-layer="2954" to-port="1" />
		<edge from-layer="2954" from-port="2" to-layer="2955" to-port="1" />
		<edge from-layer="2955" from-port="2" to-layer="2957" to-port="0" />
		<edge from-layer="2955" from-port="2" to-layer="2959" to-port="0" />
		<edge from-layer="2956" from-port="0" to-layer="2957" to-port="1" />
		<edge from-layer="2957" from-port="2" to-layer="2963" to-port="0" />
		<edge from-layer="2958" from-port="0" to-layer="2960" to-port="0" />
		<edge from-layer="2959" from-port="1" to-layer="2960" to-port="1" />
		<edge from-layer="2960" from-port="2" to-layer="2962" to-port="0" />
		<edge from-layer="2961" from-port="0" to-layer="2962" to-port="1" />
		<edge from-layer="2962" from-port="2" to-layer="2963" to-port="1" />
		<edge from-layer="2963" from-port="2" to-layer="2965" to-port="0" />
		<edge from-layer="2964" from-port="0" to-layer="2965" to-port="1" />
		<edge from-layer="2965" from-port="2" to-layer="2974" to-port="0" />
		<edge from-layer="2965" from-port="2" to-layer="2967" to-port="0" />
		<edge from-layer="2966" from-port="0" to-layer="2967" to-port="1" />
		<edge from-layer="2967" from-port="2" to-layer="2978" to-port="0" />
		<edge from-layer="2968" from-port="0" to-layer="2970" to-port="1" />
		<edge from-layer="2969" from-port="0" to-layer="2970" to-port="2" />
		<edge from-layer="2970" from-port="3" to-layer="2971" to-port="0" />
		<edge from-layer="2971" from-port="1" to-layer="2973" to-port="0" />
		<edge from-layer="2972" from-port="0" to-layer="2973" to-port="1" />
		<edge from-layer="2973" from-port="2" to-layer="2975" to-port="0" />
		<edge from-layer="2974" from-port="1" to-layer="2975" to-port="1" />
		<edge from-layer="2975" from-port="2" to-layer="2977" to-port="0" />
		<edge from-layer="2976" from-port="0" to-layer="2977" to-port="1" />
		<edge from-layer="2977" from-port="2" to-layer="2978" to-port="1" />
		<edge from-layer="2978" from-port="2" to-layer="2980" to-port="0" />
		<edge from-layer="2979" from-port="0" to-layer="2980" to-port="1" />
		<edge from-layer="2980" from-port="2" to-layer="2982" to-port="0" />
		<edge from-layer="2981" from-port="0" to-layer="2982" to-port="1" />
		<edge from-layer="2982" from-port="2" to-layer="2983" to-port="3" />
		<edge from-layer="2983" from-port="4" to-layer="2984" to-port="0" />
		<edge from-layer="2984" from-port="2" to-layer="2985" to-port="4" />
		<edge from-layer="2985" from-port="5" to-layer="2987" to-port="0" />
		<edge from-layer="2986" from-port="0" to-layer="2987" to-port="1" />
		<edge from-layer="2987" from-port="2" to-layer="3130" to-port="0" />
		<edge from-layer="2988" from-port="0" to-layer="2990" to-port="1" />
		<edge from-layer="2989" from-port="0" to-layer="2990" to-port="2" />
		<edge from-layer="2990" from-port="3" to-layer="2991" to-port="0" />
		<edge from-layer="2990" from-port="3" to-layer="2995" to-port="0" />
		<edge from-layer="2991" from-port="1" to-layer="2994" to-port="0" />
		<edge from-layer="2992" from-port="0" to-layer="2994" to-port="1" />
		<edge from-layer="2993" from-port="0" to-layer="2994" to-port="2" />
		<edge from-layer="2994" from-port="3" to-layer="2995" to-port="1" />
		<edge from-layer="2995" from-port="2" to-layer="2997" to-port="0" />
		<edge from-layer="2996" from-port="0" to-layer="2997" to-port="1" />
		<edge from-layer="2997" from-port="2" to-layer="2998" to-port="0" />
		<edge from-layer="2998" from-port="1" to-layer="3043" to-port="0" />
		<edge from-layer="2999" from-port="0" to-layer="3001" to-port="1" />
		<edge from-layer="3000" from-port="0" to-layer="3001" to-port="2" />
		<edge from-layer="3001" from-port="3" to-layer="3002" to-port="0" />
		<edge from-layer="3001" from-port="3" to-layer="3006" to-port="0" />
		<edge from-layer="3002" from-port="1" to-layer="3005" to-port="0" />
		<edge from-layer="3003" from-port="0" to-layer="3005" to-port="1" />
		<edge from-layer="3004" from-port="0" to-layer="3005" to-port="2" />
		<edge from-layer="3005" from-port="3" to-layer="3006" to-port="1" />
		<edge from-layer="3006" from-port="2" to-layer="3008" to-port="0" />
		<edge from-layer="3007" from-port="0" to-layer="3008" to-port="1" />
		<edge from-layer="3008" from-port="2" to-layer="3009" to-port="0" />
		<edge from-layer="3009" from-port="1" to-layer="3043" to-port="1" />
		<edge from-layer="3010" from-port="0" to-layer="3012" to-port="1" />
		<edge from-layer="3011" from-port="0" to-layer="3012" to-port="2" />
		<edge from-layer="3012" from-port="3" to-layer="3017" to-port="0" />
		<edge from-layer="3012" from-port="3" to-layer="3013" to-port="0" />
		<edge from-layer="3013" from-port="1" to-layer="3016" to-port="0" />
		<edge from-layer="3014" from-port="0" to-layer="3016" to-port="1" />
		<edge from-layer="3015" from-port="0" to-layer="3016" to-port="2" />
		<edge from-layer="3016" from-port="3" to-layer="3017" to-port="1" />
		<edge from-layer="3017" from-port="2" to-layer="3019" to-port="0" />
		<edge from-layer="3018" from-port="0" to-layer="3019" to-port="1" />
		<edge from-layer="3019" from-port="2" to-layer="3020" to-port="0" />
		<edge from-layer="3020" from-port="1" to-layer="3043" to-port="2" />
		<edge from-layer="3021" from-port="0" to-layer="3023" to-port="1" />
		<edge from-layer="3022" from-port="0" to-layer="3023" to-port="2" />
		<edge from-layer="3023" from-port="3" to-layer="3028" to-port="0" />
		<edge from-layer="3023" from-port="3" to-layer="3024" to-port="0" />
		<edge from-layer="3024" from-port="1" to-layer="3027" to-port="0" />
		<edge from-layer="3025" from-port="0" to-layer="3027" to-port="1" />
		<edge from-layer="3026" from-port="0" to-layer="3027" to-port="2" />
		<edge from-layer="3027" from-port="3" to-layer="3028" to-port="1" />
		<edge from-layer="3028" from-port="2" to-layer="3030" to-port="0" />
		<edge from-layer="3029" from-port="0" to-layer="3030" to-port="1" />
		<edge from-layer="3030" from-port="2" to-layer="3031" to-port="0" />
		<edge from-layer="3031" from-port="1" to-layer="3043" to-port="3" />
		<edge from-layer="3032" from-port="0" to-layer="3034" to-port="1" />
		<edge from-layer="3033" from-port="0" to-layer="3034" to-port="2" />
		<edge from-layer="3034" from-port="3" to-layer="3039" to-port="0" />
		<edge from-layer="3034" from-port="3" to-layer="3035" to-port="0" />
		<edge from-layer="3035" from-port="1" to-layer="3038" to-port="0" />
		<edge from-layer="3036" from-port="0" to-layer="3038" to-port="1" />
		<edge from-layer="3037" from-port="0" to-layer="3038" to-port="2" />
		<edge from-layer="3038" from-port="3" to-layer="3039" to-port="1" />
		<edge from-layer="3039" from-port="2" to-layer="3041" to-port="0" />
		<edge from-layer="3040" from-port="0" to-layer="3041" to-port="1" />
		<edge from-layer="3041" from-port="2" to-layer="3042" to-port="0" />
		<edge from-layer="3042" from-port="1" to-layer="3043" to-port="4" />
		<edge from-layer="3043" from-port="5" to-layer="3120" to-port="0" />
		<edge from-layer="3044" from-port="0" to-layer="3087" to-port="1" />
		<edge from-layer="3044" from-port="0" to-layer="3101" to-port="1" />
		<edge from-layer="3044" from-port="0" to-layer="3073" to-port="1" />
		<edge from-layer="3044" from-port="0" to-layer="3045" to-port="1" />
		<edge from-layer="3044" from-port="0" to-layer="3059" to-port="1" />
		<edge from-layer="3045" from-port="2" to-layer="3047" to-port="0" />
		<edge from-layer="3046" from-port="0" to-layer="3047" to-port="1" />
		<edge from-layer="3047" from-port="2" to-layer="3050" to-port="0" />
		<edge from-layer="3048" from-port="0" to-layer="3050" to-port="1" />
		<edge from-layer="3049" from-port="0" to-layer="3050" to-port="2" />
		<edge from-layer="3050" from-port="3" to-layer="3055" to-port="0" />
		<edge from-layer="3050" from-port="3" to-layer="3051" to-port="0" />
		<edge from-layer="3051" from-port="1" to-layer="3054" to-port="0" />
		<edge from-layer="3052" from-port="0" to-layer="3054" to-port="1" />
		<edge from-layer="3053" from-port="0" to-layer="3054" to-port="2" />
		<edge from-layer="3054" from-port="3" to-layer="3055" to-port="1" />
		<edge from-layer="3055" from-port="2" to-layer="3057" to-port="0" />
		<edge from-layer="3056" from-port="0" to-layer="3057" to-port="1" />
		<edge from-layer="3057" from-port="2" to-layer="3058" to-port="0" />
		<edge from-layer="3058" from-port="1" to-layer="3115" to-port="0" />
		<edge from-layer="3059" from-port="2" to-layer="3061" to-port="0" />
		<edge from-layer="3060" from-port="0" to-layer="3061" to-port="1" />
		<edge from-layer="3061" from-port="2" to-layer="3064" to-port="0" />
		<edge from-layer="3062" from-port="0" to-layer="3064" to-port="1" />
		<edge from-layer="3063" from-port="0" to-layer="3064" to-port="2" />
		<edge from-layer="3064" from-port="3" to-layer="3069" to-port="0" />
		<edge from-layer="3064" from-port="3" to-layer="3065" to-port="0" />
		<edge from-layer="3065" from-port="1" to-layer="3068" to-port="0" />
		<edge from-layer="3066" from-port="0" to-layer="3068" to-port="1" />
		<edge from-layer="3067" from-port="0" to-layer="3068" to-port="2" />
		<edge from-layer="3068" from-port="3" to-layer="3069" to-port="1" />
		<edge from-layer="3069" from-port="2" to-layer="3071" to-port="0" />
		<edge from-layer="3070" from-port="0" to-layer="3071" to-port="1" />
		<edge from-layer="3071" from-port="2" to-layer="3072" to-port="0" />
		<edge from-layer="3072" from-port="1" to-layer="3115" to-port="1" />
		<edge from-layer="3073" from-port="2" to-layer="3075" to-port="0" />
		<edge from-layer="3074" from-port="0" to-layer="3075" to-port="1" />
		<edge from-layer="3075" from-port="2" to-layer="3078" to-port="0" />
		<edge from-layer="3076" from-port="0" to-layer="3078" to-port="1" />
		<edge from-layer="3077" from-port="0" to-layer="3078" to-port="2" />
		<edge from-layer="3078" from-port="3" to-layer="3079" to-port="0" />
		<edge from-layer="3078" from-port="3" to-layer="3083" to-port="0" />
		<edge from-layer="3079" from-port="1" to-layer="3082" to-port="0" />
		<edge from-layer="3080" from-port="0" to-layer="3082" to-port="1" />
		<edge from-layer="3081" from-port="0" to-layer="3082" to-port="2" />
		<edge from-layer="3082" from-port="3" to-layer="3083" to-port="1" />
		<edge from-layer="3083" from-port="2" to-layer="3085" to-port="0" />
		<edge from-layer="3084" from-port="0" to-layer="3085" to-port="1" />
		<edge from-layer="3085" from-port="2" to-layer="3086" to-port="0" />
		<edge from-layer="3086" from-port="1" to-layer="3115" to-port="2" />
		<edge from-layer="3087" from-port="2" to-layer="3089" to-port="0" />
		<edge from-layer="3088" from-port="0" to-layer="3089" to-port="1" />
		<edge from-layer="3089" from-port="2" to-layer="3092" to-port="0" />
		<edge from-layer="3090" from-port="0" to-layer="3092" to-port="1" />
		<edge from-layer="3091" from-port="0" to-layer="3092" to-port="2" />
		<edge from-layer="3092" from-port="3" to-layer="3097" to-port="0" />
		<edge from-layer="3092" from-port="3" to-layer="3093" to-port="0" />
		<edge from-layer="3093" from-port="1" to-layer="3096" to-port="0" />
		<edge from-layer="3094" from-port="0" to-layer="3096" to-port="1" />
		<edge from-layer="3095" from-port="0" to-layer="3096" to-port="2" />
		<edge from-layer="3096" from-port="3" to-layer="3097" to-port="1" />
		<edge from-layer="3097" from-port="2" to-layer="3099" to-port="0" />
		<edge from-layer="3098" from-port="0" to-layer="3099" to-port="1" />
		<edge from-layer="3099" from-port="2" to-layer="3100" to-port="0" />
		<edge from-layer="3100" from-port="1" to-layer="3115" to-port="3" />
		<edge from-layer="3101" from-port="2" to-layer="3103" to-port="0" />
		<edge from-layer="3102" from-port="0" to-layer="3103" to-port="1" />
		<edge from-layer="3103" from-port="2" to-layer="3106" to-port="0" />
		<edge from-layer="3104" from-port="0" to-layer="3106" to-port="1" />
		<edge from-layer="3105" from-port="0" to-layer="3106" to-port="2" />
		<edge from-layer="3106" from-port="3" to-layer="3111" to-port="0" />
		<edge from-layer="3106" from-port="3" to-layer="3107" to-port="0" />
		<edge from-layer="3107" from-port="1" to-layer="3110" to-port="0" />
		<edge from-layer="3108" from-port="0" to-layer="3110" to-port="1" />
		<edge from-layer="3109" from-port="0" to-layer="3110" to-port="2" />
		<edge from-layer="3110" from-port="3" to-layer="3111" to-port="1" />
		<edge from-layer="3111" from-port="2" to-layer="3113" to-port="0" />
		<edge from-layer="3112" from-port="0" to-layer="3113" to-port="1" />
		<edge from-layer="3113" from-port="2" to-layer="3114" to-port="0" />
		<edge from-layer="3114" from-port="1" to-layer="3115" to-port="4" />
		<edge from-layer="3115" from-port="5" to-layer="3116" to-port="0" />
		<edge from-layer="3115" from-port="5" to-layer="3119" to-port="0" />
		<edge from-layer="3116" from-port="1" to-layer="3118" to-port="0" />
		<edge from-layer="3117" from-port="0" to-layer="3118" to-port="1" />
		<edge from-layer="3118" from-port="2" to-layer="3119" to-port="1" />
		<edge from-layer="3119" from-port="2" to-layer="3120" to-port="1" />
		<edge from-layer="3120" from-port="2" to-layer="3156" to-port="0" />
		<edge from-layer="3120" from-port="2" to-layer="3121" to-port="0" />
		<edge from-layer="3121" from-port="1" to-layer="3143" to-port="1" />
		<edge from-layer="3121" from-port="1" to-layer="3136" to-port="0" />
		<edge from-layer="3121" from-port="1" to-layer="3123" to-port="0" />
		<edge from-layer="3122" from-port="0" to-layer="3123" to-port="1" />
		<edge from-layer="3123" from-port="2" to-layer="3125" to-port="0" />
		<edge from-layer="3124" from-port="0" to-layer="3125" to-port="1" />
		<edge from-layer="3125" from-port="2" to-layer="3129" to-port="2" />
		<edge from-layer="3125" from-port="2" to-layer="3127" to-port="0" />
		<edge from-layer="3126" from-port="0" to-layer="3127" to-port="1" />
		<edge from-layer="3127" from-port="2" to-layer="3129" to-port="0" />
		<edge from-layer="3128" from-port="0" to-layer="3129" to-port="1" />
		<edge from-layer="3129" from-port="3" to-layer="3130" to-port="1" />
		<edge from-layer="3130" from-port="2" to-layer="3132" to-port="0" />
		<edge from-layer="3131" from-port="0" to-layer="3132" to-port="1" />
		<edge from-layer="3132" from-port="2" to-layer="3197" to-port="0" />
		<edge from-layer="3132" from-port="2" to-layer="3154" to-port="0" />
		<edge from-layer="3132" from-port="2" to-layer="3148" to-port="0" />
		<edge from-layer="3133" from-port="0" to-layer="3137" to-port="0" />
		<edge from-layer="3134" from-port="0" to-layer="3136" to-port="1" />
		<edge from-layer="3135" from-port="0" to-layer="3136" to-port="2" />
		<edge from-layer="3136" from-port="3" to-layer="3137" to-port="1" />
		<edge from-layer="3137" from-port="2" to-layer="3138" to-port="0" />
		<edge from-layer="3138" from-port="1" to-layer="3140" to-port="0" />
		<edge from-layer="3139" from-port="0" to-layer="3140" to-port="1" />
		<edge from-layer="3140" from-port="2" to-layer="3142" to-port="0" />
		<edge from-layer="3141" from-port="0" to-layer="3142" to-port="1" />
		<edge from-layer="3142" from-port="2" to-layer="3143" to-port="0" />
		<edge from-layer="3143" from-port="2" to-layer="3145" to-port="0" />
		<edge from-layer="3144" from-port="0" to-layer="3145" to-port="1" />
		<edge from-layer="3145" from-port="2" to-layer="3146" to-port="0" />
		<edge from-layer="3145" from-port="2" to-layer="3212" to-port="0" />
		<edge from-layer="3146" from-port="1" to-layer="3151" to-port="0" />
		<edge from-layer="3147" from-port="0" to-layer="3148" to-port="1" />
		<edge from-layer="3148" from-port="2" to-layer="3150" to-port="0" />
		<edge from-layer="3149" from-port="0" to-layer="3150" to-port="1" />
		<edge from-layer="3150" from-port="2" to-layer="3151" to-port="1" />
		<edge from-layer="3151" from-port="2" to-layer="3153" to-port="0" />
		<edge from-layer="3152" from-port="0" to-layer="3153" to-port="1" />
		<edge from-layer="3153" from-port="2" to-layer="3154" to-port="1" />
		<edge from-layer="3154" from-port="2" to-layer="3159" to-port="0" />
		<edge from-layer="3155" from-port="0" to-layer="3156" to-port="1" />
		<edge from-layer="3156" from-port="2" to-layer="3158" to-port="0" />
		<edge from-layer="3157" from-port="0" to-layer="3158" to-port="1" />
		<edge from-layer="3158" from-port="2" to-layer="3159" to-port="1" />
		<edge from-layer="3159" from-port="2" to-layer="3169" to-port="0" />
		<edge from-layer="3159" from-port="2" to-layer="3200" to-port="0" />
		<edge from-layer="3159" from-port="2" to-layer="3163" to-port="0" />
		<edge from-layer="3160" from-port="0" to-layer="3163" to-port="1" />
		<edge from-layer="3161" from-port="0" to-layer="3163" to-port="2" />
		<edge from-layer="3162" from-port="0" to-layer="3163" to-port="3" />
		<edge from-layer="3163" from-port="4" to-layer="3165" to-port="0" />
		<edge from-layer="3164" from-port="0" to-layer="3165" to-port="1" />
		<edge from-layer="3165" from-port="2" to-layer="3175" to-port="0" />
		<edge from-layer="3166" from-port="0" to-layer="3169" to-port="1" />
		<edge from-layer="3167" from-port="0" to-layer="3169" to-port="2" />
		<edge from-layer="3168" from-port="0" to-layer="3169" to-port="3" />
		<edge from-layer="3169" from-port="4" to-layer="3171" to-port="0" />
		<edge from-layer="3170" from-port="0" to-layer="3171" to-port="1" />
		<edge from-layer="3171" from-port="2" to-layer="3175" to-port="1" />
		<edge from-layer="3171" from-port="2" to-layer="3183" to-port="0" />
		<edge from-layer="3172" from-port="0" to-layer="3175" to-port="2" />
		<edge from-layer="3173" from-port="0" to-layer="3175" to-port="3" />
		<edge from-layer="3174" from-port="0" to-layer="3175" to-port="4" />
		<edge from-layer="3175" from-port="5" to-layer="3179" to-port="0" />
		<edge from-layer="3176" from-port="0" to-layer="3179" to-port="1" />
		<edge from-layer="3177" from-port="0" to-layer="3179" to-port="2" />
		<edge from-layer="3178" from-port="0" to-layer="3179" to-port="3" />
		<edge from-layer="3179" from-port="4" to-layer="3181" to-port="0" />
		<edge from-layer="3180" from-port="0" to-layer="3181" to-port="1" />
		<edge from-layer="3181" from-port="2" to-layer="3194" to-port="0" />
		<edge from-layer="3181" from-port="2" to-layer="3184" to-port="0" />
		<edge from-layer="3182" from-port="0" to-layer="3183" to-port="1" />
		<edge from-layer="3183" from-port="2" to-layer="3186" to-port="0" />
		<edge from-layer="3184" from-port="1" to-layer="3186" to-port="1" />
		<edge from-layer="3185" from-port="0" to-layer="3186" to-port="2" />
		<edge from-layer="3186" from-port="3" to-layer="3187" to-port="0" />
		<edge from-layer="3186" from-port="3" to-layer="3192" to-port="0" />
		<edge from-layer="3187" from-port="1" to-layer="3189" to-port="0" />
		<edge from-layer="3188" from-port="0" to-layer="3189" to-port="1" />
		<edge from-layer="3189" from-port="2" to-layer="3191" to-port="0" />
		<edge from-layer="3190" from-port="0" to-layer="3191" to-port="1" />
		<edge from-layer="3191" from-port="2" to-layer="3192" to-port="1" />
		<edge from-layer="3192" from-port="3" to-layer="3194" to-port="1" />
		<edge from-layer="3193" from-port="0" to-layer="3194" to-port="2" />
		<edge from-layer="3194" from-port="3" to-layer="3210" to-port="0" />
		<edge from-layer="3194" from-port="3" to-layer="3198" to-port="0" />
		<edge from-layer="3194" from-port="3" to-layer="3195" to-port="0" />
		<edge from-layer="3195" from-port="1" to-layer="3197" to-port="1" />
		<edge from-layer="3196" from-port="0" to-layer="3197" to-port="2" />
		<edge from-layer="3197" from-port="3" to-layer="3209" to-port="0" />
		<edge from-layer="3198" from-port="1" to-layer="3200" to-port="1" />
		<edge from-layer="3199" from-port="0" to-layer="3200" to-port="2" />
		<edge from-layer="3200" from-port="3" to-layer="3204" to-port="0" />
		<edge from-layer="3201" from-port="0" to-layer="3204" to-port="1" />
		<edge from-layer="3202" from-port="0" to-layer="3204" to-port="2" />
		<edge from-layer="3203" from-port="0" to-layer="3204" to-port="3" />
		<edge from-layer="3204" from-port="4" to-layer="3206" to-port="0" />
		<edge from-layer="3205" from-port="0" to-layer="3206" to-port="1" />
		<edge from-layer="3206" from-port="2" to-layer="3208" to-port="0" />
		<edge from-layer="3207" from-port="0" to-layer="3208" to-port="1" />
		<edge from-layer="3208" from-port="2" to-layer="3209" to-port="1" />
		<edge from-layer="3209" from-port="2" to-layer="3216" to-port="0" />
		<edge from-layer="3210" from-port="1" to-layer="3212" to-port="1" />
		<edge from-layer="3211" from-port="0" to-layer="3212" to-port="2" />
		<edge from-layer="3212" from-port="3" to-layer="3213" to-port="0" />
		<edge from-layer="3213" from-port="1" to-layer="3215" to-port="0" />
		<edge from-layer="3214" from-port="0" to-layer="3215" to-port="1" />
		<edge from-layer="3215" from-port="2" to-layer="3216" to-port="1" />
		<edge from-layer="3216" from-port="2" to-layer="3219" to-port="0" />
		<edge from-layer="3216" from-port="2" to-layer="3227" to-port="0" />
		<edge from-layer="3217" from-port="0" to-layer="3219" to-port="1" />
		<edge from-layer="3218" from-port="0" to-layer="3219" to-port="2" />
		<edge from-layer="3219" from-port="3" to-layer="3220" to-port="0" />
		<edge from-layer="3220" from-port="1" to-layer="3222" to-port="0" />
		<edge from-layer="3221" from-port="0" to-layer="3222" to-port="1" />
		<edge from-layer="3222" from-port="2" to-layer="3223" to-port="0" />
		<edge from-layer="3224" from-port="0" to-layer="3227" to-port="1" />
		<edge from-layer="3225" from-port="0" to-layer="3227" to-port="2" />
		<edge from-layer="3226" from-port="0" to-layer="3227" to-port="3" />
		<edge from-layer="3227" from-port="4" to-layer="3228" to-port="0" />
	</edges>
	<rt_info>
		<MO_version value="custom_HEAD_f6ee6e92f846a8c665e4a7089c51481f9689a3b5" />
		<Runtime_version value="2023.0.0-10521-f6ee6e92f84-HEAD" />
		<conversion_parameters>
			<compress_to_fp16 value="False" />
			<framework value="onnx" />
			<input value="image" />
			<input_model value="DIR/face-detection-0206_opset13.onnx" />
			<input_shape value="[1,3,640,640]" />
			<layout value="image(nchw)" />
			<mean_values value="image[123.675,116.28,103.53]" />
			<model_name value="face-detection-0206" />
			<output value="boxes,labels" />
			<output_dir value="DIR" />
			<reverse_input_channels value="True" />
			<scale_values value="image[58.395,57.12,57.375]" />
		</conversion_parameters>
		<legacy_frontend value="False" />
	</rt_info>
</net>
